<?xml version="1.0" ?>
<net name="pedestrian-and-vehicle-detector-adas-0001" version="10">
	<layers>
		<layer id="0" name="data" type="Parameter" version="opset1">
			<data element_type="f32" shape="1,3,384,672"/>
			<output>
				<port id="0" precision="FP32">
					<dim>1</dim>
					<dim>3</dim>
					<dim>384</dim>
					<dim>672</dim>
				</port>
			</output>
		</layer>
		<layer id="1" name="data_mul_1102711031/copy_const576_const" type="Const" version="opset1">
			<data element_type="f32" offset="0" shape="1,1,1,1" size="4"/>
			<output>
				<port id="1" precision="FP32">
					<dim>1</dim>
					<dim>1</dim>
					<dim>1</dim>
					<dim>1</dim>
				</port>
			</output>
		</layer>
		<layer id="2" name="Mul_/Fused_Mul_" type="Multiply" version="opset1">
			<input>
				<port id="0">
					<dim>1</dim>
					<dim>3</dim>
					<dim>384</dim>
					<dim>672</dim>
				</port>
				<port id="1">
					<dim>1</dim>
					<dim>1</dim>
					<dim>1</dim>
					<dim>1</dim>
				</port>
			</input>
			<output>
				<port id="2" precision="FP32">
					<dim>1</dim>
					<dim>3</dim>
					<dim>384</dim>
					<dim>672</dim>
				</port>
			</output>
		</layer>
		<layer id="3" name="data_add_1102811033/copy_const578_const" type="Const" version="opset1">
			<data element_type="f32" offset="4" shape="1,3,1,1" size="12"/>
			<output>
				<port id="1" precision="FP32">
					<dim>1</dim>
					<dim>3</dim>
					<dim>1</dim>
					<dim>1</dim>
				</port>
			</output>
		</layer>
		<layer id="4" name="Add_/Fused_Add_" type="Add" version="opset1">
			<input>
				<port id="0">
					<dim>1</dim>
					<dim>3</dim>
					<dim>384</dim>
					<dim>672</dim>
				</port>
				<port id="1">
					<dim>1</dim>
					<dim>3</dim>
					<dim>1</dim>
					<dim>1</dim>
				</port>
			</input>
			<output>
				<port id="2" precision="FP32">
					<dim>1</dim>
					<dim>3</dim>
					<dim>384</dim>
					<dim>672</dim>
				</port>
			</output>
		</layer>
		<layer id="5" name="16731677_const" type="Const" version="opset1">
			<data element_type="f32" offset="16" shape="" size="4"/>
			<output>
				<port id="1" precision="FP32"/>
			</output>
		</layer>
		<layer id="6" name="16741678_const" type="Const" version="opset1">
			<data element_type="f32" offset="20" shape="" size="4"/>
			<output>
				<port id="1" precision="FP32"/>
			</output>
		</layer>
		<layer id="7" name="16751679_const" type="Const" version="opset1">
			<data element_type="f32" offset="16" shape="" size="4"/>
			<output>
				<port id="1" precision="FP32"/>
			</output>
		</layer>
		<layer id="8" name="16761680_const" type="Const" version="opset1">
			<data element_type="f32" offset="20" shape="" size="4"/>
			<output>
				<port id="1" precision="FP32"/>
			</output>
		</layer>
		<layer id="9" name="conv1/fq_input_0" type="FakeQuantize" version="opset1">
			<data levels="256"/>
			<input>
				<port id="0">
					<dim>1</dim>
					<dim>3</dim>
					<dim>384</dim>
					<dim>672</dim>
				</port>
				<port id="1"/>
				<port id="2"/>
				<port id="3"/>
				<port id="4"/>
			</input>
			<output>
				<port id="5" precision="FP32">
					<dim>1</dim>
					<dim>3</dim>
					<dim>384</dim>
					<dim>672</dim>
				</port>
			</output>
		</layer>
		<layer id="10" name="Mul1_/Fused_Mul_1185011852_const580_const" type="Const" version="opset1">
			<data element_type="f32" offset="24" shape="32,3,3,3" size="3456"/>
			<output>
				<port id="1" precision="FP32">
					<dim>32</dim>
					<dim>3</dim>
					<dim>3</dim>
					<dim>3</dim>
				</port>
			</output>
		</layer>
		<layer id="11" name="16831687_const" type="Const" version="opset1">
			<data element_type="f32" offset="3480" shape="32,1,1,1" size="128"/>
			<output>
				<port id="1" precision="FP32">
					<dim>32</dim>
					<dim>1</dim>
					<dim>1</dim>
					<dim>1</dim>
				</port>
			</output>
		</layer>
		<layer id="12" name="16841688_const" type="Const" version="opset1">
			<data element_type="f32" offset="3608" shape="32,1,1,1" size="128"/>
			<output>
				<port id="1" precision="FP32">
					<dim>32</dim>
					<dim>1</dim>
					<dim>1</dim>
					<dim>1</dim>
				</port>
			</output>
		</layer>
		<layer id="13" name="16851689_const" type="Const" version="opset1">
			<data element_type="f32" offset="3736" shape="32,1,1,1" size="128"/>
			<output>
				<port id="1" precision="FP32">
					<dim>32</dim>
					<dim>1</dim>
					<dim>1</dim>
					<dim>1</dim>
				</port>
			</output>
		</layer>
		<layer id="14" name="16861690_const" type="Const" version="opset1">
			<data element_type="f32" offset="3864" shape="32,1,1,1" size="128"/>
			<output>
				<port id="1" precision="FP32">
					<dim>32</dim>
					<dim>1</dim>
					<dim>1</dim>
					<dim>1</dim>
				</port>
			</output>
		</layer>
		<layer id="15" name="conv1/fq_weights_1" type="FakeQuantize" version="opset1">
			<data levels="255"/>
			<input>
				<port id="0">
					<dim>32</dim>
					<dim>3</dim>
					<dim>3</dim>
					<dim>3</dim>
				</port>
				<port id="1">
					<dim>32</dim>
					<dim>1</dim>
					<dim>1</dim>
					<dim>1</dim>
				</port>
				<port id="2">
					<dim>32</dim>
					<dim>1</dim>
					<dim>1</dim>
					<dim>1</dim>
				</port>
				<port id="3">
					<dim>32</dim>
					<dim>1</dim>
					<dim>1</dim>
					<dim>1</dim>
				</port>
				<port id="4">
					<dim>32</dim>
					<dim>1</dim>
					<dim>1</dim>
					<dim>1</dim>
				</port>
			</input>
			<output>
				<port id="5" precision="FP32">
					<dim>32</dim>
					<dim>3</dim>
					<dim>3</dim>
					<dim>3</dim>
				</port>
			</output>
		</layer>
		<layer id="16" name="conv1" type="Convolution" version="opset1">
			<data dilations="1,1" output_padding="0,0" pads_begin="1,1" pads_end="1,1" strides="2,2"/>
			<input>
				<port id="0">
					<dim>1</dim>
					<dim>3</dim>
					<dim>384</dim>
					<dim>672</dim>
				</port>
				<port id="1">
					<dim>32</dim>
					<dim>3</dim>
					<dim>3</dim>
					<dim>3</dim>
				</port>
			</input>
			<output>
				<port id="2" precision="FP32">
					<dim>1</dim>
					<dim>32</dim>
					<dim>192</dim>
					<dim>336</dim>
				</port>
			</output>
		</layer>
		<layer id="17" name="data_add_1103611041/copy_const582_const" type="Const" version="opset1">
			<data element_type="f32" offset="3992" shape="1,32,1,1" size="128"/>
			<output>
				<port id="1" precision="FP32">
					<dim>1</dim>
					<dim>32</dim>
					<dim>1</dim>
					<dim>1</dim>
				</port>
			</output>
		</layer>
		<layer id="18" name="Add1_/Fused_Add_" type="Add" version="opset1">
			<input>
				<port id="0">
					<dim>1</dim>
					<dim>32</dim>
					<dim>192</dim>
					<dim>336</dim>
				</port>
				<port id="1">
					<dim>1</dim>
					<dim>32</dim>
					<dim>1</dim>
					<dim>1</dim>
				</port>
			</input>
			<output>
				<port id="2" precision="FP32">
					<dim>1</dim>
					<dim>32</dim>
					<dim>192</dim>
					<dim>336</dim>
				</port>
			</output>
		</layer>
		<layer id="19" name="relu1" type="ReLU" version="opset1">
			<input>
				<port id="0">
					<dim>1</dim>
					<dim>32</dim>
					<dim>192</dim>
					<dim>336</dim>
				</port>
			</input>
			<output>
				<port id="1" precision="FP32">
					<dim>1</dim>
					<dim>32</dim>
					<dim>192</dim>
					<dim>336</dim>
				</port>
			</output>
		</layer>
		<layer id="20" name="22332237_const" type="Const" version="opset1">
			<data element_type="f32" offset="4120" shape="1,32,1,1" size="128"/>
			<output>
				<port id="1" precision="FP32">
					<dim>1</dim>
					<dim>32</dim>
					<dim>1</dim>
					<dim>1</dim>
				</port>
			</output>
		</layer>
		<layer id="21" name="22342238_const" type="Const" version="opset1">
			<data element_type="f32" offset="4248" shape="1,32,1,1" size="128"/>
			<output>
				<port id="1" precision="FP32">
					<dim>1</dim>
					<dim>32</dim>
					<dim>1</dim>
					<dim>1</dim>
				</port>
			</output>
		</layer>
		<layer id="22" name="22352239_const" type="Const" version="opset1">
			<data element_type="f32" offset="4120" shape="1,32,1,1" size="128"/>
			<output>
				<port id="1" precision="FP32">
					<dim>1</dim>
					<dim>32</dim>
					<dim>1</dim>
					<dim>1</dim>
				</port>
			</output>
		</layer>
		<layer id="23" name="22362240_const" type="Const" version="opset1">
			<data element_type="f32" offset="4248" shape="1,32,1,1" size="128"/>
			<output>
				<port id="1" precision="FP32">
					<dim>1</dim>
					<dim>32</dim>
					<dim>1</dim>
					<dim>1</dim>
				</port>
			</output>
		</layer>
		<layer id="24" name="conv2_1/dw/fq_input_0" type="FakeQuantize" version="opset1">
			<data levels="256"/>
			<input>
				<port id="0">
					<dim>1</dim>
					<dim>32</dim>
					<dim>192</dim>
					<dim>336</dim>
				</port>
				<port id="1">
					<dim>1</dim>
					<dim>32</dim>
					<dim>1</dim>
					<dim>1</dim>
				</port>
				<port id="2">
					<dim>1</dim>
					<dim>32</dim>
					<dim>1</dim>
					<dim>1</dim>
				</port>
				<port id="3">
					<dim>1</dim>
					<dim>32</dim>
					<dim>1</dim>
					<dim>1</dim>
				</port>
				<port id="4">
					<dim>1</dim>
					<dim>32</dim>
					<dim>1</dim>
					<dim>1</dim>
				</port>
			</input>
			<output>
				<port id="5" precision="FP32">
					<dim>1</dim>
					<dim>32</dim>
					<dim>192</dim>
					<dim>336</dim>
				</port>
			</output>
		</layer>
		<layer id="25" name="13121114_const" type="Const" version="opset1">
			<data element_type="f32" offset="4376" shape="32,1,3,3" size="1152"/>
			<output>
				<port id="1" precision="FP32">
					<dim>32</dim>
					<dim>1</dim>
					<dim>3</dim>
					<dim>3</dim>
				</port>
			</output>
		</layer>
		<layer id="26" name="22432247_const" type="Const" version="opset1">
			<data element_type="f32" offset="5528" shape="32,1,1,1" size="128"/>
			<output>
				<port id="1" precision="FP32">
					<dim>32</dim>
					<dim>1</dim>
					<dim>1</dim>
					<dim>1</dim>
				</port>
			</output>
		</layer>
		<layer id="27" name="22442248_const" type="Const" version="opset1">
			<data element_type="f32" offset="5656" shape="32,1,1,1" size="128"/>
			<output>
				<port id="1" precision="FP32">
					<dim>32</dim>
					<dim>1</dim>
					<dim>1</dim>
					<dim>1</dim>
				</port>
			</output>
		</layer>
		<layer id="28" name="22452249_const" type="Const" version="opset1">
			<data element_type="f32" offset="5528" shape="32,1,1,1" size="128"/>
			<output>
				<port id="1" precision="FP32">
					<dim>32</dim>
					<dim>1</dim>
					<dim>1</dim>
					<dim>1</dim>
				</port>
			</output>
		</layer>
		<layer id="29" name="22462250_const" type="Const" version="opset1">
			<data element_type="f32" offset="5656" shape="32,1,1,1" size="128"/>
			<output>
				<port id="1" precision="FP32">
					<dim>32</dim>
					<dim>1</dim>
					<dim>1</dim>
					<dim>1</dim>
				</port>
			</output>
		</layer>
		<layer id="30" name="conv2_1/dw/fq_weights_1" type="FakeQuantize" version="opset1">
			<data levels="255"/>
			<input>
				<port id="0">
					<dim>32</dim>
					<dim>1</dim>
					<dim>3</dim>
					<dim>3</dim>
				</port>
				<port id="1">
					<dim>32</dim>
					<dim>1</dim>
					<dim>1</dim>
					<dim>1</dim>
				</port>
				<port id="2">
					<dim>32</dim>
					<dim>1</dim>
					<dim>1</dim>
					<dim>1</dim>
				</port>
				<port id="3">
					<dim>32</dim>
					<dim>1</dim>
					<dim>1</dim>
					<dim>1</dim>
				</port>
				<port id="4">
					<dim>32</dim>
					<dim>1</dim>
					<dim>1</dim>
					<dim>1</dim>
				</port>
			</input>
			<output>
				<port id="5" precision="FP32">
					<dim>32</dim>
					<dim>1</dim>
					<dim>3</dim>
					<dim>3</dim>
				</port>
			</output>
		</layer>
		<layer id="31" name="4844/value4846_const" type="Const" version="opset1">
			<data element_type="i64" offset="5784" shape="5" size="40"/>
			<output>
				<port id="1" precision="I64">
					<dim>5</dim>
				</port>
			</output>
		</layer>
		<layer id="32" name="4844" type="Reshape" version="opset1">
			<data special_zero="True"/>
			<input>
				<port id="0">
					<dim>32</dim>
					<dim>1</dim>
					<dim>3</dim>
					<dim>3</dim>
				</port>
				<port id="1">
					<dim>5</dim>
				</port>
			</input>
			<output>
				<port id="2" precision="FP32">
					<dim>32</dim>
					<dim>1</dim>
					<dim>1</dim>
					<dim>3</dim>
					<dim>3</dim>
				</port>
			</output>
		</layer>
		<layer id="33" name="conv2_1/dw" type="GroupConvolution" version="opset1">
			<data dilations="1,1" output_padding="0,0" pads_begin="1,1" pads_end="1,1" strides="1,1"/>
			<input>
				<port id="0">
					<dim>1</dim>
					<dim>32</dim>
					<dim>192</dim>
					<dim>336</dim>
				</port>
				<port id="1">
					<dim>32</dim>
					<dim>1</dim>
					<dim>1</dim>
					<dim>3</dim>
					<dim>3</dim>
				</port>
			</input>
			<output>
				<port id="2" precision="FP32">
					<dim>1</dim>
					<dim>32</dim>
					<dim>192</dim>
					<dim>336</dim>
				</port>
			</output>
		</layer>
		<layer id="34" name="data_add_1104411049/copy_const587_const" type="Const" version="opset1">
			<data element_type="f32" offset="5824" shape="1,32,1,1" size="128"/>
			<output>
				<port id="1" precision="FP32">
					<dim>1</dim>
					<dim>32</dim>
					<dim>1</dim>
					<dim>1</dim>
				</port>
			</output>
		</layer>
		<layer id="35" name="Add1_9700/Fused_Add_" type="Add" version="opset1">
			<input>
				<port id="0">
					<dim>1</dim>
					<dim>32</dim>
					<dim>192</dim>
					<dim>336</dim>
				</port>
				<port id="1">
					<dim>1</dim>
					<dim>32</dim>
					<dim>1</dim>
					<dim>1</dim>
				</port>
			</input>
			<output>
				<port id="2" precision="FP32">
					<dim>1</dim>
					<dim>32</dim>
					<dim>192</dim>
					<dim>336</dim>
				</port>
			</output>
		</layer>
		<layer id="36" name="relu2_1/dw" type="ReLU" version="opset1">
			<input>
				<port id="0">
					<dim>1</dim>
					<dim>32</dim>
					<dim>192</dim>
					<dim>336</dim>
				</port>
			</input>
			<output>
				<port id="1" precision="FP32">
					<dim>1</dim>
					<dim>32</dim>
					<dim>192</dim>
					<dim>336</dim>
				</port>
			</output>
		</layer>
		<layer id="37" name="23132317_const" type="Const" version="opset1">
			<data element_type="f32" offset="5952" shape="" size="4"/>
			<output>
				<port id="1" precision="FP32"/>
			</output>
		</layer>
		<layer id="38" name="23142318_const" type="Const" version="opset1">
			<data element_type="f32" offset="5956" shape="" size="4"/>
			<output>
				<port id="1" precision="FP32"/>
			</output>
		</layer>
		<layer id="39" name="23152319_const" type="Const" version="opset1">
			<data element_type="f32" offset="5952" shape="" size="4"/>
			<output>
				<port id="1" precision="FP32"/>
			</output>
		</layer>
		<layer id="40" name="23162320_const" type="Const" version="opset1">
			<data element_type="f32" offset="5956" shape="" size="4"/>
			<output>
				<port id="1" precision="FP32"/>
			</output>
		</layer>
		<layer id="41" name="conv2_1/sep/fq_input_0" type="FakeQuantize" version="opset1">
			<data levels="256"/>
			<input>
				<port id="0">
					<dim>1</dim>
					<dim>32</dim>
					<dim>192</dim>
					<dim>336</dim>
				</port>
				<port id="1"/>
				<port id="2"/>
				<port id="3"/>
				<port id="4"/>
			</input>
			<output>
				<port id="5" precision="FP32">
					<dim>1</dim>
					<dim>32</dim>
					<dim>192</dim>
					<dim>336</dim>
				</port>
			</output>
		</layer>
		<layer id="42" name="Mul1_9711/Fused_Mul_1185811860_const590_const" type="Const" version="opset1">
			<data element_type="f32" offset="5960" shape="64,32,1,1" size="8192"/>
			<output>
				<port id="1" precision="FP32">
					<dim>64</dim>
					<dim>32</dim>
					<dim>1</dim>
					<dim>1</dim>
				</port>
			</output>
		</layer>
		<layer id="43" name="23232327_const" type="Const" version="opset1">
			<data element_type="f32" offset="14152" shape="64,1,1,1" size="256"/>
			<output>
				<port id="1" precision="FP32">
					<dim>64</dim>
					<dim>1</dim>
					<dim>1</dim>
					<dim>1</dim>
				</port>
			</output>
		</layer>
		<layer id="44" name="23242328_const" type="Const" version="opset1">
			<data element_type="f32" offset="14408" shape="64,1,1,1" size="256"/>
			<output>
				<port id="1" precision="FP32">
					<dim>64</dim>
					<dim>1</dim>
					<dim>1</dim>
					<dim>1</dim>
				</port>
			</output>
		</layer>
		<layer id="45" name="23252329_const" type="Const" version="opset1">
			<data element_type="f32" offset="14152" shape="64,1,1,1" size="256"/>
			<output>
				<port id="1" precision="FP32">
					<dim>64</dim>
					<dim>1</dim>
					<dim>1</dim>
					<dim>1</dim>
				</port>
			</output>
		</layer>
		<layer id="46" name="23262330_const" type="Const" version="opset1">
			<data element_type="f32" offset="14408" shape="64,1,1,1" size="256"/>
			<output>
				<port id="1" precision="FP32">
					<dim>64</dim>
					<dim>1</dim>
					<dim>1</dim>
					<dim>1</dim>
				</port>
			</output>
		</layer>
		<layer id="47" name="conv2_1/sep/fq_weights_1" type="FakeQuantize" version="opset1">
			<data levels="255"/>
			<input>
				<port id="0">
					<dim>64</dim>
					<dim>32</dim>
					<dim>1</dim>
					<dim>1</dim>
				</port>
				<port id="1">
					<dim>64</dim>
					<dim>1</dim>
					<dim>1</dim>
					<dim>1</dim>
				</port>
				<port id="2">
					<dim>64</dim>
					<dim>1</dim>
					<dim>1</dim>
					<dim>1</dim>
				</port>
				<port id="3">
					<dim>64</dim>
					<dim>1</dim>
					<dim>1</dim>
					<dim>1</dim>
				</port>
				<port id="4">
					<dim>64</dim>
					<dim>1</dim>
					<dim>1</dim>
					<dim>1</dim>
				</port>
			</input>
			<output>
				<port id="5" precision="FP32">
					<dim>64</dim>
					<dim>32</dim>
					<dim>1</dim>
					<dim>1</dim>
				</port>
			</output>
		</layer>
		<layer id="48" name="conv2_1/sep" type="Convolution" version="opset1">
			<data dilations="1,1" output_padding="0,0" pads_begin="0,0" pads_end="0,0" strides="1,1"/>
			<input>
				<port id="0">
					<dim>1</dim>
					<dim>32</dim>
					<dim>192</dim>
					<dim>336</dim>
				</port>
				<port id="1">
					<dim>64</dim>
					<dim>32</dim>
					<dim>1</dim>
					<dim>1</dim>
				</port>
			</input>
			<output>
				<port id="2" precision="FP32">
					<dim>1</dim>
					<dim>64</dim>
					<dim>192</dim>
					<dim>336</dim>
				</port>
			</output>
		</layer>
		<layer id="49" name="data_add_1105211057/copy_const592_const" type="Const" version="opset1">
			<data element_type="f32" offset="14664" shape="1,64,1,1" size="256"/>
			<output>
				<port id="1" precision="FP32">
					<dim>1</dim>
					<dim>64</dim>
					<dim>1</dim>
					<dim>1</dim>
				</port>
			</output>
		</layer>
		<layer id="50" name="Add1_9712/Fused_Add_" type="Add" version="opset1">
			<input>
				<port id="0">
					<dim>1</dim>
					<dim>64</dim>
					<dim>192</dim>
					<dim>336</dim>
				</port>
				<port id="1">
					<dim>1</dim>
					<dim>64</dim>
					<dim>1</dim>
					<dim>1</dim>
				</port>
			</input>
			<output>
				<port id="2" precision="FP32">
					<dim>1</dim>
					<dim>64</dim>
					<dim>192</dim>
					<dim>336</dim>
				</port>
			</output>
		</layer>
		<layer id="51" name="relu2_1/sep" type="ReLU" version="opset1">
			<input>
				<port id="0">
					<dim>1</dim>
					<dim>64</dim>
					<dim>192</dim>
					<dim>336</dim>
				</port>
			</input>
			<output>
				<port id="1" precision="FP32">
					<dim>1</dim>
					<dim>64</dim>
					<dim>192</dim>
					<dim>336</dim>
				</port>
			</output>
		</layer>
		<layer id="52" name="16131617_const" type="Const" version="opset1">
			<data element_type="f32" offset="14920" shape="1,64,1,1" size="256"/>
			<output>
				<port id="1" precision="FP32">
					<dim>1</dim>
					<dim>64</dim>
					<dim>1</dim>
					<dim>1</dim>
				</port>
			</output>
		</layer>
		<layer id="53" name="16141618_const" type="Const" version="opset1">
			<data element_type="f32" offset="15176" shape="1,64,1,1" size="256"/>
			<output>
				<port id="1" precision="FP32">
					<dim>1</dim>
					<dim>64</dim>
					<dim>1</dim>
					<dim>1</dim>
				</port>
			</output>
		</layer>
		<layer id="54" name="16151619_const" type="Const" version="opset1">
			<data element_type="f32" offset="14920" shape="1,64,1,1" size="256"/>
			<output>
				<port id="1" precision="FP32">
					<dim>1</dim>
					<dim>64</dim>
					<dim>1</dim>
					<dim>1</dim>
				</port>
			</output>
		</layer>
		<layer id="55" name="16161620_const" type="Const" version="opset1">
			<data element_type="f32" offset="15176" shape="1,64,1,1" size="256"/>
			<output>
				<port id="1" precision="FP32">
					<dim>1</dim>
					<dim>64</dim>
					<dim>1</dim>
					<dim>1</dim>
				</port>
			</output>
		</layer>
		<layer id="56" name="conv2_2/dw/fq_input_0" type="FakeQuantize" version="opset1">
			<data levels="256"/>
			<input>
				<port id="0">
					<dim>1</dim>
					<dim>64</dim>
					<dim>192</dim>
					<dim>336</dim>
				</port>
				<port id="1">
					<dim>1</dim>
					<dim>64</dim>
					<dim>1</dim>
					<dim>1</dim>
				</port>
				<port id="2">
					<dim>1</dim>
					<dim>64</dim>
					<dim>1</dim>
					<dim>1</dim>
				</port>
				<port id="3">
					<dim>1</dim>
					<dim>64</dim>
					<dim>1</dim>
					<dim>1</dim>
				</port>
				<port id="4">
					<dim>1</dim>
					<dim>64</dim>
					<dim>1</dim>
					<dim>1</dim>
				</port>
			</input>
			<output>
				<port id="5" precision="FP32">
					<dim>1</dim>
					<dim>64</dim>
					<dim>192</dim>
					<dim>336</dim>
				</port>
			</output>
		</layer>
		<layer id="57" name="13161116_const" type="Const" version="opset1">
			<data element_type="f32" offset="15432" shape="64,1,3,3" size="2304"/>
			<output>
				<port id="1" precision="FP32">
					<dim>64</dim>
					<dim>1</dim>
					<dim>3</dim>
					<dim>3</dim>
				</port>
			</output>
		</layer>
		<layer id="58" name="16231627_const" type="Const" version="opset1">
			<data element_type="f32" offset="17736" shape="64,1,1,1" size="256"/>
			<output>
				<port id="1" precision="FP32">
					<dim>64</dim>
					<dim>1</dim>
					<dim>1</dim>
					<dim>1</dim>
				</port>
			</output>
		</layer>
		<layer id="59" name="16241628_const" type="Const" version="opset1">
			<data element_type="f32" offset="17992" shape="64,1,1,1" size="256"/>
			<output>
				<port id="1" precision="FP32">
					<dim>64</dim>
					<dim>1</dim>
					<dim>1</dim>
					<dim>1</dim>
				</port>
			</output>
		</layer>
		<layer id="60" name="16251629_const" type="Const" version="opset1">
			<data element_type="f32" offset="17736" shape="64,1,1,1" size="256"/>
			<output>
				<port id="1" precision="FP32">
					<dim>64</dim>
					<dim>1</dim>
					<dim>1</dim>
					<dim>1</dim>
				</port>
			</output>
		</layer>
		<layer id="61" name="16261630_const" type="Const" version="opset1">
			<data element_type="f32" offset="17992" shape="64,1,1,1" size="256"/>
			<output>
				<port id="1" precision="FP32">
					<dim>64</dim>
					<dim>1</dim>
					<dim>1</dim>
					<dim>1</dim>
				</port>
			</output>
		</layer>
		<layer id="62" name="conv2_2/dw/fq_weights_1" type="FakeQuantize" version="opset1">
			<data levels="255"/>
			<input>
				<port id="0">
					<dim>64</dim>
					<dim>1</dim>
					<dim>3</dim>
					<dim>3</dim>
				</port>
				<port id="1">
					<dim>64</dim>
					<dim>1</dim>
					<dim>1</dim>
					<dim>1</dim>
				</port>
				<port id="2">
					<dim>64</dim>
					<dim>1</dim>
					<dim>1</dim>
					<dim>1</dim>
				</port>
				<port id="3">
					<dim>64</dim>
					<dim>1</dim>
					<dim>1</dim>
					<dim>1</dim>
				</port>
				<port id="4">
					<dim>64</dim>
					<dim>1</dim>
					<dim>1</dim>
					<dim>1</dim>
				</port>
			</input>
			<output>
				<port id="5" precision="FP32">
					<dim>64</dim>
					<dim>1</dim>
					<dim>3</dim>
					<dim>3</dim>
				</port>
			</output>
		</layer>
		<layer id="63" name="4856/value4858_const" type="Const" version="opset1">
			<data element_type="i64" offset="18248" shape="5" size="40"/>
			<output>
				<port id="1" precision="I64">
					<dim>5</dim>
				</port>
			</output>
		</layer>
		<layer id="64" name="4856" type="Reshape" version="opset1">
			<data special_zero="True"/>
			<input>
				<port id="0">
					<dim>64</dim>
					<dim>1</dim>
					<dim>3</dim>
					<dim>3</dim>
				</port>
				<port id="1">
					<dim>5</dim>
				</port>
			</input>
			<output>
				<port id="2" precision="FP32">
					<dim>64</dim>
					<dim>1</dim>
					<dim>1</dim>
					<dim>3</dim>
					<dim>3</dim>
				</port>
			</output>
		</layer>
		<layer id="65" name="conv2_2/dw" type="GroupConvolution" version="opset1">
			<data dilations="1,1" output_padding="0,0" pads_begin="1,1" pads_end="1,1" strides="2,2"/>
			<input>
				<port id="0">
					<dim>1</dim>
					<dim>64</dim>
					<dim>192</dim>
					<dim>336</dim>
				</port>
				<port id="1">
					<dim>64</dim>
					<dim>1</dim>
					<dim>1</dim>
					<dim>3</dim>
					<dim>3</dim>
				</port>
			</input>
			<output>
				<port id="2" precision="FP32">
					<dim>1</dim>
					<dim>64</dim>
					<dim>96</dim>
					<dim>168</dim>
				</port>
			</output>
		</layer>
		<layer id="66" name="data_add_1106011065/copy_const597_const" type="Const" version="opset1">
			<data element_type="f32" offset="18288" shape="1,64,1,1" size="256"/>
			<output>
				<port id="1" precision="FP32">
					<dim>1</dim>
					<dim>64</dim>
					<dim>1</dim>
					<dim>1</dim>
				</port>
			</output>
		</layer>
		<layer id="67" name="Add1_9724/Fused_Add_" type="Add" version="opset1">
			<input>
				<port id="0">
					<dim>1</dim>
					<dim>64</dim>
					<dim>96</dim>
					<dim>168</dim>
				</port>
				<port id="1">
					<dim>1</dim>
					<dim>64</dim>
					<dim>1</dim>
					<dim>1</dim>
				</port>
			</input>
			<output>
				<port id="2" precision="FP32">
					<dim>1</dim>
					<dim>64</dim>
					<dim>96</dim>
					<dim>168</dim>
				</port>
			</output>
		</layer>
		<layer id="68" name="relu2_2/dw" type="ReLU" version="opset1">
			<input>
				<port id="0">
					<dim>1</dim>
					<dim>64</dim>
					<dim>96</dim>
					<dim>168</dim>
				</port>
			</input>
			<output>
				<port id="1" precision="FP32">
					<dim>1</dim>
					<dim>64</dim>
					<dim>96</dim>
					<dim>168</dim>
				</port>
			</output>
		</layer>
		<layer id="69" name="22132217_const" type="Const" version="opset1">
			<data element_type="f32" offset="5952" shape="" size="4"/>
			<output>
				<port id="1" precision="FP32"/>
			</output>
		</layer>
		<layer id="70" name="22142218_const" type="Const" version="opset1">
			<data element_type="f32" offset="18544" shape="" size="4"/>
			<output>
				<port id="1" precision="FP32"/>
			</output>
		</layer>
		<layer id="71" name="22152219_const" type="Const" version="opset1">
			<data element_type="f32" offset="5952" shape="" size="4"/>
			<output>
				<port id="1" precision="FP32"/>
			</output>
		</layer>
		<layer id="72" name="22162220_const" type="Const" version="opset1">
			<data element_type="f32" offset="18544" shape="" size="4"/>
			<output>
				<port id="1" precision="FP32"/>
			</output>
		</layer>
		<layer id="73" name="conv2_2/sep/fq_input_0" type="FakeQuantize" version="opset1">
			<data levels="256"/>
			<input>
				<port id="0">
					<dim>1</dim>
					<dim>64</dim>
					<dim>96</dim>
					<dim>168</dim>
				</port>
				<port id="1"/>
				<port id="2"/>
				<port id="3"/>
				<port id="4"/>
			</input>
			<output>
				<port id="5" precision="FP32">
					<dim>1</dim>
					<dim>64</dim>
					<dim>96</dim>
					<dim>168</dim>
				</port>
			</output>
		</layer>
		<layer id="74" name="Mul1_9735/Fused_Mul_1186611868_const600_const" type="Const" version="opset1">
			<data element_type="f32" offset="18548" shape="120,64,1,1" size="30720"/>
			<output>
				<port id="1" precision="FP32">
					<dim>120</dim>
					<dim>64</dim>
					<dim>1</dim>
					<dim>1</dim>
				</port>
			</output>
		</layer>
		<layer id="75" name="22232227_const" type="Const" version="opset1">
			<data element_type="f32" offset="49268" shape="120,1,1,1" size="480"/>
			<output>
				<port id="1" precision="FP32">
					<dim>120</dim>
					<dim>1</dim>
					<dim>1</dim>
					<dim>1</dim>
				</port>
			</output>
		</layer>
		<layer id="76" name="22242228_const" type="Const" version="opset1">
			<data element_type="f32" offset="49748" shape="120,1,1,1" size="480"/>
			<output>
				<port id="1" precision="FP32">
					<dim>120</dim>
					<dim>1</dim>
					<dim>1</dim>
					<dim>1</dim>
				</port>
			</output>
		</layer>
		<layer id="77" name="22252229_const" type="Const" version="opset1">
			<data element_type="f32" offset="49268" shape="120,1,1,1" size="480"/>
			<output>
				<port id="1" precision="FP32">
					<dim>120</dim>
					<dim>1</dim>
					<dim>1</dim>
					<dim>1</dim>
				</port>
			</output>
		</layer>
		<layer id="78" name="22262230_const" type="Const" version="opset1">
			<data element_type="f32" offset="49748" shape="120,1,1,1" size="480"/>
			<output>
				<port id="1" precision="FP32">
					<dim>120</dim>
					<dim>1</dim>
					<dim>1</dim>
					<dim>1</dim>
				</port>
			</output>
		</layer>
		<layer id="79" name="conv2_2/sep/fq_weights_1" type="FakeQuantize" version="opset1">
			<data levels="255"/>
			<input>
				<port id="0">
					<dim>120</dim>
					<dim>64</dim>
					<dim>1</dim>
					<dim>1</dim>
				</port>
				<port id="1">
					<dim>120</dim>
					<dim>1</dim>
					<dim>1</dim>
					<dim>1</dim>
				</port>
				<port id="2">
					<dim>120</dim>
					<dim>1</dim>
					<dim>1</dim>
					<dim>1</dim>
				</port>
				<port id="3">
					<dim>120</dim>
					<dim>1</dim>
					<dim>1</dim>
					<dim>1</dim>
				</port>
				<port id="4">
					<dim>120</dim>
					<dim>1</dim>
					<dim>1</dim>
					<dim>1</dim>
				</port>
			</input>
			<output>
				<port id="5" precision="FP32">
					<dim>120</dim>
					<dim>64</dim>
					<dim>1</dim>
					<dim>1</dim>
				</port>
			</output>
		</layer>
		<layer id="80" name="conv2_2/sep" type="Convolution" version="opset1">
			<data dilations="1,1" output_padding="0,0" pads_begin="0,0" pads_end="0,0" strides="1,1"/>
			<input>
				<port id="0">
					<dim>1</dim>
					<dim>64</dim>
					<dim>96</dim>
					<dim>168</dim>
				</port>
				<port id="1">
					<dim>120</dim>
					<dim>64</dim>
					<dim>1</dim>
					<dim>1</dim>
				</port>
			</input>
			<output>
				<port id="2" precision="FP32">
					<dim>1</dim>
					<dim>120</dim>
					<dim>96</dim>
					<dim>168</dim>
				</port>
			</output>
		</layer>
		<layer id="81" name="data_add_1106811073/copy_const602_const" type="Const" version="opset1">
			<data element_type="f32" offset="50228" shape="1,120,1,1" size="480"/>
			<output>
				<port id="1" precision="FP32">
					<dim>1</dim>
					<dim>120</dim>
					<dim>1</dim>
					<dim>1</dim>
				</port>
			</output>
		</layer>
		<layer id="82" name="Add1_9736/Fused_Add_" type="Add" version="opset1">
			<input>
				<port id="0">
					<dim>1</dim>
					<dim>120</dim>
					<dim>96</dim>
					<dim>168</dim>
				</port>
				<port id="1">
					<dim>1</dim>
					<dim>120</dim>
					<dim>1</dim>
					<dim>1</dim>
				</port>
			</input>
			<output>
				<port id="2" precision="FP32">
					<dim>1</dim>
					<dim>120</dim>
					<dim>96</dim>
					<dim>168</dim>
				</port>
			</output>
		</layer>
		<layer id="83" name="relu2_2/sep" type="ReLU" version="opset1">
			<input>
				<port id="0">
					<dim>1</dim>
					<dim>120</dim>
					<dim>96</dim>
					<dim>168</dim>
				</port>
			</input>
			<output>
				<port id="1" precision="FP32">
					<dim>1</dim>
					<dim>120</dim>
					<dim>96</dim>
					<dim>168</dim>
				</port>
			</output>
		</layer>
		<layer id="84" name="26132617_const" type="Const" version="opset1">
			<data element_type="f32" offset="50708" shape="1,120,1,1" size="480"/>
			<output>
				<port id="1" precision="FP32">
					<dim>1</dim>
					<dim>120</dim>
					<dim>1</dim>
					<dim>1</dim>
				</port>
			</output>
		</layer>
		<layer id="85" name="26142618_const" type="Const" version="opset1">
			<data element_type="f32" offset="51188" shape="1,120,1,1" size="480"/>
			<output>
				<port id="1" precision="FP32">
					<dim>1</dim>
					<dim>120</dim>
					<dim>1</dim>
					<dim>1</dim>
				</port>
			</output>
		</layer>
		<layer id="86" name="26152619_const" type="Const" version="opset1">
			<data element_type="f32" offset="50708" shape="1,120,1,1" size="480"/>
			<output>
				<port id="1" precision="FP32">
					<dim>1</dim>
					<dim>120</dim>
					<dim>1</dim>
					<dim>1</dim>
				</port>
			</output>
		</layer>
		<layer id="87" name="26162620_const" type="Const" version="opset1">
			<data element_type="f32" offset="51188" shape="1,120,1,1" size="480"/>
			<output>
				<port id="1" precision="FP32">
					<dim>1</dim>
					<dim>120</dim>
					<dim>1</dim>
					<dim>1</dim>
				</port>
			</output>
		</layer>
		<layer id="88" name="conv3_1/dw/fq_input_0" type="FakeQuantize" version="opset1">
			<data levels="256"/>
			<input>
				<port id="0">
					<dim>1</dim>
					<dim>120</dim>
					<dim>96</dim>
					<dim>168</dim>
				</port>
				<port id="1">
					<dim>1</dim>
					<dim>120</dim>
					<dim>1</dim>
					<dim>1</dim>
				</port>
				<port id="2">
					<dim>1</dim>
					<dim>120</dim>
					<dim>1</dim>
					<dim>1</dim>
				</port>
				<port id="3">
					<dim>1</dim>
					<dim>120</dim>
					<dim>1</dim>
					<dim>1</dim>
				</port>
				<port id="4">
					<dim>1</dim>
					<dim>120</dim>
					<dim>1</dim>
					<dim>1</dim>
				</port>
			</input>
			<output>
				<port id="5" precision="FP32">
					<dim>1</dim>
					<dim>120</dim>
					<dim>96</dim>
					<dim>168</dim>
				</port>
			</output>
		</layer>
		<layer id="89" name="13201118_const" type="Const" version="opset1">
			<data element_type="f32" offset="51668" shape="120,1,3,3" size="4320"/>
			<output>
				<port id="1" precision="FP32">
					<dim>120</dim>
					<dim>1</dim>
					<dim>3</dim>
					<dim>3</dim>
				</port>
			</output>
		</layer>
		<layer id="90" name="26232627_const" type="Const" version="opset1">
			<data element_type="f32" offset="55988" shape="120,1,1,1" size="480"/>
			<output>
				<port id="1" precision="FP32">
					<dim>120</dim>
					<dim>1</dim>
					<dim>1</dim>
					<dim>1</dim>
				</port>
			</output>
		</layer>
		<layer id="91" name="26242628_const" type="Const" version="opset1">
			<data element_type="f32" offset="56468" shape="120,1,1,1" size="480"/>
			<output>
				<port id="1" precision="FP32">
					<dim>120</dim>
					<dim>1</dim>
					<dim>1</dim>
					<dim>1</dim>
				</port>
			</output>
		</layer>
		<layer id="92" name="26252629_const" type="Const" version="opset1">
			<data element_type="f32" offset="55988" shape="120,1,1,1" size="480"/>
			<output>
				<port id="1" precision="FP32">
					<dim>120</dim>
					<dim>1</dim>
					<dim>1</dim>
					<dim>1</dim>
				</port>
			</output>
		</layer>
		<layer id="93" name="26262630_const" type="Const" version="opset1">
			<data element_type="f32" offset="56468" shape="120,1,1,1" size="480"/>
			<output>
				<port id="1" precision="FP32">
					<dim>120</dim>
					<dim>1</dim>
					<dim>1</dim>
					<dim>1</dim>
				</port>
			</output>
		</layer>
		<layer id="94" name="conv3_1/dw/fq_weights_1" type="FakeQuantize" version="opset1">
			<data levels="255"/>
			<input>
				<port id="0">
					<dim>120</dim>
					<dim>1</dim>
					<dim>3</dim>
					<dim>3</dim>
				</port>
				<port id="1">
					<dim>120</dim>
					<dim>1</dim>
					<dim>1</dim>
					<dim>1</dim>
				</port>
				<port id="2">
					<dim>120</dim>
					<dim>1</dim>
					<dim>1</dim>
					<dim>1</dim>
				</port>
				<port id="3">
					<dim>120</dim>
					<dim>1</dim>
					<dim>1</dim>
					<dim>1</dim>
				</port>
				<port id="4">
					<dim>120</dim>
					<dim>1</dim>
					<dim>1</dim>
					<dim>1</dim>
				</port>
			</input>
			<output>
				<port id="5" precision="FP32">
					<dim>120</dim>
					<dim>1</dim>
					<dim>3</dim>
					<dim>3</dim>
				</port>
			</output>
		</layer>
		<layer id="95" name="4868/value4870_const" type="Const" version="opset1">
			<data element_type="i64" offset="56948" shape="5" size="40"/>
			<output>
				<port id="1" precision="I64">
					<dim>5</dim>
				</port>
			</output>
		</layer>
		<layer id="96" name="4868" type="Reshape" version="opset1">
			<data special_zero="True"/>
			<input>
				<port id="0">
					<dim>120</dim>
					<dim>1</dim>
					<dim>3</dim>
					<dim>3</dim>
				</port>
				<port id="1">
					<dim>5</dim>
				</port>
			</input>
			<output>
				<port id="2" precision="FP32">
					<dim>120</dim>
					<dim>1</dim>
					<dim>1</dim>
					<dim>3</dim>
					<dim>3</dim>
				</port>
			</output>
		</layer>
		<layer id="97" name="conv3_1/dw" type="GroupConvolution" version="opset1">
			<data dilations="1,1" output_padding="0,0" pads_begin="1,1" pads_end="1,1" strides="1,1"/>
			<input>
				<port id="0">
					<dim>1</dim>
					<dim>120</dim>
					<dim>96</dim>
					<dim>168</dim>
				</port>
				<port id="1">
					<dim>120</dim>
					<dim>1</dim>
					<dim>1</dim>
					<dim>3</dim>
					<dim>3</dim>
				</port>
			</input>
			<output>
				<port id="2" precision="FP32">
					<dim>1</dim>
					<dim>120</dim>
					<dim>96</dim>
					<dim>168</dim>
				</port>
			</output>
		</layer>
		<layer id="98" name="data_add_1107611081/copy_const607_const" type="Const" version="opset1">
			<data element_type="f32" offset="56988" shape="1,120,1,1" size="480"/>
			<output>
				<port id="1" precision="FP32">
					<dim>1</dim>
					<dim>120</dim>
					<dim>1</dim>
					<dim>1</dim>
				</port>
			</output>
		</layer>
		<layer id="99" name="Add1_9748/Fused_Add_" type="Add" version="opset1">
			<input>
				<port id="0">
					<dim>1</dim>
					<dim>120</dim>
					<dim>96</dim>
					<dim>168</dim>
				</port>
				<port id="1">
					<dim>1</dim>
					<dim>120</dim>
					<dim>1</dim>
					<dim>1</dim>
				</port>
			</input>
			<output>
				<port id="2" precision="FP32">
					<dim>1</dim>
					<dim>120</dim>
					<dim>96</dim>
					<dim>168</dim>
				</port>
			</output>
		</layer>
		<layer id="100" name="relu3_1/dw" type="ReLU" version="opset1">
			<input>
				<port id="0">
					<dim>1</dim>
					<dim>120</dim>
					<dim>96</dim>
					<dim>168</dim>
				</port>
			</input>
			<output>
				<port id="1" precision="FP32">
					<dim>1</dim>
					<dim>120</dim>
					<dim>96</dim>
					<dim>168</dim>
				</port>
			</output>
		</layer>
		<layer id="101" name="21332137_const" type="Const" version="opset1">
			<data element_type="f32" offset="5952" shape="" size="4"/>
			<output>
				<port id="1" precision="FP32"/>
			</output>
		</layer>
		<layer id="102" name="21342138_const" type="Const" version="opset1">
			<data element_type="f32" offset="57468" shape="" size="4"/>
			<output>
				<port id="1" precision="FP32"/>
			</output>
		</layer>
		<layer id="103" name="21352139_const" type="Const" version="opset1">
			<data element_type="f32" offset="5952" shape="" size="4"/>
			<output>
				<port id="1" precision="FP32"/>
			</output>
		</layer>
		<layer id="104" name="21362140_const" type="Const" version="opset1">
			<data element_type="f32" offset="57468" shape="" size="4"/>
			<output>
				<port id="1" precision="FP32"/>
			</output>
		</layer>
		<layer id="105" name="conv3_1/sep/fq_input_0" type="FakeQuantize" version="opset1">
			<data levels="256"/>
			<input>
				<port id="0">
					<dim>1</dim>
					<dim>120</dim>
					<dim>96</dim>
					<dim>168</dim>
				</port>
				<port id="1"/>
				<port id="2"/>
				<port id="3"/>
				<port id="4"/>
			</input>
			<output>
				<port id="5" precision="FP32">
					<dim>1</dim>
					<dim>120</dim>
					<dim>96</dim>
					<dim>168</dim>
				</port>
			</output>
		</layer>
		<layer id="106" name="Mul1_9759/Fused_Mul_1187411876_const610_const" type="Const" version="opset1">
			<data element_type="f32" offset="57472" shape="120,120,1,1" size="57600"/>
			<output>
				<port id="1" precision="FP32">
					<dim>120</dim>
					<dim>120</dim>
					<dim>1</dim>
					<dim>1</dim>
				</port>
			</output>
		</layer>
		<layer id="107" name="21432147_const" type="Const" version="opset1">
			<data element_type="f32" offset="115072" shape="120,1,1,1" size="480"/>
			<output>
				<port id="1" precision="FP32">
					<dim>120</dim>
					<dim>1</dim>
					<dim>1</dim>
					<dim>1</dim>
				</port>
			</output>
		</layer>
		<layer id="108" name="21442148_const" type="Const" version="opset1">
			<data element_type="f32" offset="115552" shape="120,1,1,1" size="480"/>
			<output>
				<port id="1" precision="FP32">
					<dim>120</dim>
					<dim>1</dim>
					<dim>1</dim>
					<dim>1</dim>
				</port>
			</output>
		</layer>
		<layer id="109" name="21452149_const" type="Const" version="opset1">
			<data element_type="f32" offset="115072" shape="120,1,1,1" size="480"/>
			<output>
				<port id="1" precision="FP32">
					<dim>120</dim>
					<dim>1</dim>
					<dim>1</dim>
					<dim>1</dim>
				</port>
			</output>
		</layer>
		<layer id="110" name="21462150_const" type="Const" version="opset1">
			<data element_type="f32" offset="115552" shape="120,1,1,1" size="480"/>
			<output>
				<port id="1" precision="FP32">
					<dim>120</dim>
					<dim>1</dim>
					<dim>1</dim>
					<dim>1</dim>
				</port>
			</output>
		</layer>
		<layer id="111" name="conv3_1/sep/fq_weights_1" type="FakeQuantize" version="opset1">
			<data levels="255"/>
			<input>
				<port id="0">
					<dim>120</dim>
					<dim>120</dim>
					<dim>1</dim>
					<dim>1</dim>
				</port>
				<port id="1">
					<dim>120</dim>
					<dim>1</dim>
					<dim>1</dim>
					<dim>1</dim>
				</port>
				<port id="2">
					<dim>120</dim>
					<dim>1</dim>
					<dim>1</dim>
					<dim>1</dim>
				</port>
				<port id="3">
					<dim>120</dim>
					<dim>1</dim>
					<dim>1</dim>
					<dim>1</dim>
				</port>
				<port id="4">
					<dim>120</dim>
					<dim>1</dim>
					<dim>1</dim>
					<dim>1</dim>
				</port>
			</input>
			<output>
				<port id="5" precision="FP32">
					<dim>120</dim>
					<dim>120</dim>
					<dim>1</dim>
					<dim>1</dim>
				</port>
			</output>
		</layer>
		<layer id="112" name="conv3_1/sep" type="Convolution" version="opset1">
			<data dilations="1,1" output_padding="0,0" pads_begin="0,0" pads_end="0,0" strides="1,1"/>
			<input>
				<port id="0">
					<dim>1</dim>
					<dim>120</dim>
					<dim>96</dim>
					<dim>168</dim>
				</port>
				<port id="1">
					<dim>120</dim>
					<dim>120</dim>
					<dim>1</dim>
					<dim>1</dim>
				</port>
			</input>
			<output>
				<port id="2" precision="FP32">
					<dim>1</dim>
					<dim>120</dim>
					<dim>96</dim>
					<dim>168</dim>
				</port>
			</output>
		</layer>
		<layer id="113" name="data_add_1108411089/copy_const612_const" type="Const" version="opset1">
			<data element_type="f32" offset="116032" shape="1,120,1,1" size="480"/>
			<output>
				<port id="1" precision="FP32">
					<dim>1</dim>
					<dim>120</dim>
					<dim>1</dim>
					<dim>1</dim>
				</port>
			</output>
		</layer>
		<layer id="114" name="Add1_9760/Fused_Add_" type="Add" version="opset1">
			<input>
				<port id="0">
					<dim>1</dim>
					<dim>120</dim>
					<dim>96</dim>
					<dim>168</dim>
				</port>
				<port id="1">
					<dim>1</dim>
					<dim>120</dim>
					<dim>1</dim>
					<dim>1</dim>
				</port>
			</input>
			<output>
				<port id="2" precision="FP32">
					<dim>1</dim>
					<dim>120</dim>
					<dim>96</dim>
					<dim>168</dim>
				</port>
			</output>
		</layer>
		<layer id="115" name="relu3_1/sep" type="ReLU" version="opset1">
			<input>
				<port id="0">
					<dim>1</dim>
					<dim>120</dim>
					<dim>96</dim>
					<dim>168</dim>
				</port>
			</input>
			<output>
				<port id="1" precision="FP32">
					<dim>1</dim>
					<dim>120</dim>
					<dim>96</dim>
					<dim>168</dim>
				</port>
			</output>
		</layer>
		<layer id="116" name="22932297_const" type="Const" version="opset1">
			<data element_type="f32" offset="50708" shape="1,120,1,1" size="480"/>
			<output>
				<port id="1" precision="FP32">
					<dim>1</dim>
					<dim>120</dim>
					<dim>1</dim>
					<dim>1</dim>
				</port>
			</output>
		</layer>
		<layer id="117" name="22942298_const" type="Const" version="opset1">
			<data element_type="f32" offset="116512" shape="1,120,1,1" size="480"/>
			<output>
				<port id="1" precision="FP32">
					<dim>1</dim>
					<dim>120</dim>
					<dim>1</dim>
					<dim>1</dim>
				</port>
			</output>
		</layer>
		<layer id="118" name="22952299_const" type="Const" version="opset1">
			<data element_type="f32" offset="50708" shape="1,120,1,1" size="480"/>
			<output>
				<port id="1" precision="FP32">
					<dim>1</dim>
					<dim>120</dim>
					<dim>1</dim>
					<dim>1</dim>
				</port>
			</output>
		</layer>
		<layer id="119" name="22962300_const" type="Const" version="opset1">
			<data element_type="f32" offset="116512" shape="1,120,1,1" size="480"/>
			<output>
				<port id="1" precision="FP32">
					<dim>1</dim>
					<dim>120</dim>
					<dim>1</dim>
					<dim>1</dim>
				</port>
			</output>
		</layer>
		<layer id="120" name="conv3_2/dw/fq_input_0" type="FakeQuantize" version="opset1">
			<data levels="256"/>
			<input>
				<port id="0">
					<dim>1</dim>
					<dim>120</dim>
					<dim>96</dim>
					<dim>168</dim>
				</port>
				<port id="1">
					<dim>1</dim>
					<dim>120</dim>
					<dim>1</dim>
					<dim>1</dim>
				</port>
				<port id="2">
					<dim>1</dim>
					<dim>120</dim>
					<dim>1</dim>
					<dim>1</dim>
				</port>
				<port id="3">
					<dim>1</dim>
					<dim>120</dim>
					<dim>1</dim>
					<dim>1</dim>
				</port>
				<port id="4">
					<dim>1</dim>
					<dim>120</dim>
					<dim>1</dim>
					<dim>1</dim>
				</port>
			</input>
			<output>
				<port id="5" precision="FP32">
					<dim>1</dim>
					<dim>120</dim>
					<dim>96</dim>
					<dim>168</dim>
				</port>
			</output>
		</layer>
		<layer id="121" name="13241120_const" type="Const" version="opset1">
			<data element_type="f32" offset="116992" shape="120,1,3,3" size="4320"/>
			<output>
				<port id="1" precision="FP32">
					<dim>120</dim>
					<dim>1</dim>
					<dim>3</dim>
					<dim>3</dim>
				</port>
			</output>
		</layer>
		<layer id="122" name="23032307_const" type="Const" version="opset1">
			<data element_type="f32" offset="121312" shape="120,1,1,1" size="480"/>
			<output>
				<port id="1" precision="FP32">
					<dim>120</dim>
					<dim>1</dim>
					<dim>1</dim>
					<dim>1</dim>
				</port>
			</output>
		</layer>
		<layer id="123" name="23042308_const" type="Const" version="opset1">
			<data element_type="f32" offset="121792" shape="120,1,1,1" size="480"/>
			<output>
				<port id="1" precision="FP32">
					<dim>120</dim>
					<dim>1</dim>
					<dim>1</dim>
					<dim>1</dim>
				</port>
			</output>
		</layer>
		<layer id="124" name="23052309_const" type="Const" version="opset1">
			<data element_type="f32" offset="121312" shape="120,1,1,1" size="480"/>
			<output>
				<port id="1" precision="FP32">
					<dim>120</dim>
					<dim>1</dim>
					<dim>1</dim>
					<dim>1</dim>
				</port>
			</output>
		</layer>
		<layer id="125" name="23062310_const" type="Const" version="opset1">
			<data element_type="f32" offset="121792" shape="120,1,1,1" size="480"/>
			<output>
				<port id="1" precision="FP32">
					<dim>120</dim>
					<dim>1</dim>
					<dim>1</dim>
					<dim>1</dim>
				</port>
			</output>
		</layer>
		<layer id="126" name="conv3_2/dw/fq_weights_1" type="FakeQuantize" version="opset1">
			<data levels="255"/>
			<input>
				<port id="0">
					<dim>120</dim>
					<dim>1</dim>
					<dim>3</dim>
					<dim>3</dim>
				</port>
				<port id="1">
					<dim>120</dim>
					<dim>1</dim>
					<dim>1</dim>
					<dim>1</dim>
				</port>
				<port id="2">
					<dim>120</dim>
					<dim>1</dim>
					<dim>1</dim>
					<dim>1</dim>
				</port>
				<port id="3">
					<dim>120</dim>
					<dim>1</dim>
					<dim>1</dim>
					<dim>1</dim>
				</port>
				<port id="4">
					<dim>120</dim>
					<dim>1</dim>
					<dim>1</dim>
					<dim>1</dim>
				</port>
			</input>
			<output>
				<port id="5" precision="FP32">
					<dim>120</dim>
					<dim>1</dim>
					<dim>3</dim>
					<dim>3</dim>
				</port>
			</output>
		</layer>
		<layer id="127" name="4884/value4886_const" type="Const" version="opset1">
			<data element_type="i64" offset="56948" shape="5" size="40"/>
			<output>
				<port id="1" precision="I64">
					<dim>5</dim>
				</port>
			</output>
		</layer>
		<layer id="128" name="4884" type="Reshape" version="opset1">
			<data special_zero="True"/>
			<input>
				<port id="0">
					<dim>120</dim>
					<dim>1</dim>
					<dim>3</dim>
					<dim>3</dim>
				</port>
				<port id="1">
					<dim>5</dim>
				</port>
			</input>
			<output>
				<port id="2" precision="FP32">
					<dim>120</dim>
					<dim>1</dim>
					<dim>1</dim>
					<dim>3</dim>
					<dim>3</dim>
				</port>
			</output>
		</layer>
		<layer id="129" name="conv3_2/dw" type="GroupConvolution" version="opset1">
			<data dilations="1,1" output_padding="0,0" pads_begin="1,1" pads_end="1,1" strides="2,2"/>
			<input>
				<port id="0">
					<dim>1</dim>
					<dim>120</dim>
					<dim>96</dim>
					<dim>168</dim>
				</port>
				<port id="1">
					<dim>120</dim>
					<dim>1</dim>
					<dim>1</dim>
					<dim>3</dim>
					<dim>3</dim>
				</port>
			</input>
			<output>
				<port id="2" precision="FP32">
					<dim>1</dim>
					<dim>120</dim>
					<dim>48</dim>
					<dim>84</dim>
				</port>
			</output>
		</layer>
		<layer id="130" name="data_add_1109211097/copy_const617_const" type="Const" version="opset1">
			<data element_type="f32" offset="122272" shape="1,120,1,1" size="480"/>
			<output>
				<port id="1" precision="FP32">
					<dim>1</dim>
					<dim>120</dim>
					<dim>1</dim>
					<dim>1</dim>
				</port>
			</output>
		</layer>
		<layer id="131" name="Add1_9772/Fused_Add_" type="Add" version="opset1">
			<input>
				<port id="0">
					<dim>1</dim>
					<dim>120</dim>
					<dim>48</dim>
					<dim>84</dim>
				</port>
				<port id="1">
					<dim>1</dim>
					<dim>120</dim>
					<dim>1</dim>
					<dim>1</dim>
				</port>
			</input>
			<output>
				<port id="2" precision="FP32">
					<dim>1</dim>
					<dim>120</dim>
					<dim>48</dim>
					<dim>84</dim>
				</port>
			</output>
		</layer>
		<layer id="132" name="relu3_2/dw" type="ReLU" version="opset1">
			<input>
				<port id="0">
					<dim>1</dim>
					<dim>120</dim>
					<dim>48</dim>
					<dim>84</dim>
				</port>
			</input>
			<output>
				<port id="1" precision="FP32">
					<dim>1</dim>
					<dim>120</dim>
					<dim>48</dim>
					<dim>84</dim>
				</port>
			</output>
		</layer>
		<layer id="133" name="26732677_const" type="Const" version="opset1">
			<data element_type="f32" offset="5952" shape="" size="4"/>
			<output>
				<port id="1" precision="FP32"/>
			</output>
		</layer>
		<layer id="134" name="26742678_const" type="Const" version="opset1">
			<data element_type="f32" offset="122752" shape="" size="4"/>
			<output>
				<port id="1" precision="FP32"/>
			</output>
		</layer>
		<layer id="135" name="26752679_const" type="Const" version="opset1">
			<data element_type="f32" offset="5952" shape="" size="4"/>
			<output>
				<port id="1" precision="FP32"/>
			</output>
		</layer>
		<layer id="136" name="26762680_const" type="Const" version="opset1">
			<data element_type="f32" offset="122752" shape="" size="4"/>
			<output>
				<port id="1" precision="FP32"/>
			</output>
		</layer>
		<layer id="137" name="conv3_2/sep/fq_input_0" type="FakeQuantize" version="opset1">
			<data levels="256"/>
			<input>
				<port id="0">
					<dim>1</dim>
					<dim>120</dim>
					<dim>48</dim>
					<dim>84</dim>
				</port>
				<port id="1"/>
				<port id="2"/>
				<port id="3"/>
				<port id="4"/>
			</input>
			<output>
				<port id="5" precision="FP32">
					<dim>1</dim>
					<dim>120</dim>
					<dim>48</dim>
					<dim>84</dim>
				</port>
			</output>
		</layer>
		<layer id="138" name="Mul1_9783/Fused_Mul_1188211884_const620_const" type="Const" version="opset1">
			<data element_type="f32" offset="122756" shape="240,120,1,1" size="115200"/>
			<output>
				<port id="1" precision="FP32">
					<dim>240</dim>
					<dim>120</dim>
					<dim>1</dim>
					<dim>1</dim>
				</port>
			</output>
		</layer>
		<layer id="139" name="26832687_const" type="Const" version="opset1">
			<data element_type="f32" offset="237956" shape="240,1,1,1" size="960"/>
			<output>
				<port id="1" precision="FP32">
					<dim>240</dim>
					<dim>1</dim>
					<dim>1</dim>
					<dim>1</dim>
				</port>
			</output>
		</layer>
		<layer id="140" name="26842688_const" type="Const" version="opset1">
			<data element_type="f32" offset="238916" shape="240,1,1,1" size="960"/>
			<output>
				<port id="1" precision="FP32">
					<dim>240</dim>
					<dim>1</dim>
					<dim>1</dim>
					<dim>1</dim>
				</port>
			</output>
		</layer>
		<layer id="141" name="26852689_const" type="Const" version="opset1">
			<data element_type="f32" offset="237956" shape="240,1,1,1" size="960"/>
			<output>
				<port id="1" precision="FP32">
					<dim>240</dim>
					<dim>1</dim>
					<dim>1</dim>
					<dim>1</dim>
				</port>
			</output>
		</layer>
		<layer id="142" name="26862690_const" type="Const" version="opset1">
			<data element_type="f32" offset="238916" shape="240,1,1,1" size="960"/>
			<output>
				<port id="1" precision="FP32">
					<dim>240</dim>
					<dim>1</dim>
					<dim>1</dim>
					<dim>1</dim>
				</port>
			</output>
		</layer>
		<layer id="143" name="conv3_2/sep/fq_weights_1" type="FakeQuantize" version="opset1">
			<data levels="255"/>
			<input>
				<port id="0">
					<dim>240</dim>
					<dim>120</dim>
					<dim>1</dim>
					<dim>1</dim>
				</port>
				<port id="1">
					<dim>240</dim>
					<dim>1</dim>
					<dim>1</dim>
					<dim>1</dim>
				</port>
				<port id="2">
					<dim>240</dim>
					<dim>1</dim>
					<dim>1</dim>
					<dim>1</dim>
				</port>
				<port id="3">
					<dim>240</dim>
					<dim>1</dim>
					<dim>1</dim>
					<dim>1</dim>
				</port>
				<port id="4">
					<dim>240</dim>
					<dim>1</dim>
					<dim>1</dim>
					<dim>1</dim>
				</port>
			</input>
			<output>
				<port id="5" precision="FP32">
					<dim>240</dim>
					<dim>120</dim>
					<dim>1</dim>
					<dim>1</dim>
				</port>
			</output>
		</layer>
		<layer id="144" name="conv3_2/sep" type="Convolution" version="opset1">
			<data dilations="1,1" output_padding="0,0" pads_begin="0,0" pads_end="0,0" strides="1,1"/>
			<input>
				<port id="0">
					<dim>1</dim>
					<dim>120</dim>
					<dim>48</dim>
					<dim>84</dim>
				</port>
				<port id="1">
					<dim>240</dim>
					<dim>120</dim>
					<dim>1</dim>
					<dim>1</dim>
				</port>
			</input>
			<output>
				<port id="2" precision="FP32">
					<dim>1</dim>
					<dim>240</dim>
					<dim>48</dim>
					<dim>84</dim>
				</port>
			</output>
		</layer>
		<layer id="145" name="data_add_1110011105/copy_const622_const" type="Const" version="opset1">
			<data element_type="f32" offset="239876" shape="1,240,1,1" size="960"/>
			<output>
				<port id="1" precision="FP32">
					<dim>1</dim>
					<dim>240</dim>
					<dim>1</dim>
					<dim>1</dim>
				</port>
			</output>
		</layer>
		<layer id="146" name="Add1_9784/Fused_Add_" type="Add" version="opset1">
			<input>
				<port id="0">
					<dim>1</dim>
					<dim>240</dim>
					<dim>48</dim>
					<dim>84</dim>
				</port>
				<port id="1">
					<dim>1</dim>
					<dim>240</dim>
					<dim>1</dim>
					<dim>1</dim>
				</port>
			</input>
			<output>
				<port id="2" precision="FP32">
					<dim>1</dim>
					<dim>240</dim>
					<dim>48</dim>
					<dim>84</dim>
				</port>
			</output>
		</layer>
		<layer id="147" name="relu3_2/sep" type="ReLU" version="opset1">
			<input>
				<port id="0">
					<dim>1</dim>
					<dim>240</dim>
					<dim>48</dim>
					<dim>84</dim>
				</port>
			</input>
			<output>
				<port id="1" precision="FP32">
					<dim>1</dim>
					<dim>240</dim>
					<dim>48</dim>
					<dim>84</dim>
				</port>
			</output>
		</layer>
		<layer id="148" name="27332737_const" type="Const" version="opset1">
			<data element_type="f32" offset="240836" shape="1,240,1,1" size="960"/>
			<output>
				<port id="1" precision="FP32">
					<dim>1</dim>
					<dim>240</dim>
					<dim>1</dim>
					<dim>1</dim>
				</port>
			</output>
		</layer>
		<layer id="149" name="27342738_const" type="Const" version="opset1">
			<data element_type="f32" offset="241796" shape="1,240,1,1" size="960"/>
			<output>
				<port id="1" precision="FP32">
					<dim>1</dim>
					<dim>240</dim>
					<dim>1</dim>
					<dim>1</dim>
				</port>
			</output>
		</layer>
		<layer id="150" name="27352739_const" type="Const" version="opset1">
			<data element_type="f32" offset="240836" shape="1,240,1,1" size="960"/>
			<output>
				<port id="1" precision="FP32">
					<dim>1</dim>
					<dim>240</dim>
					<dim>1</dim>
					<dim>1</dim>
				</port>
			</output>
		</layer>
		<layer id="151" name="27362740_const" type="Const" version="opset1">
			<data element_type="f32" offset="241796" shape="1,240,1,1" size="960"/>
			<output>
				<port id="1" precision="FP32">
					<dim>1</dim>
					<dim>240</dim>
					<dim>1</dim>
					<dim>1</dim>
				</port>
			</output>
		</layer>
		<layer id="152" name="conv4_1/dw/fq_input_0" type="FakeQuantize" version="opset1">
			<data levels="256"/>
			<input>
				<port id="0">
					<dim>1</dim>
					<dim>240</dim>
					<dim>48</dim>
					<dim>84</dim>
				</port>
				<port id="1">
					<dim>1</dim>
					<dim>240</dim>
					<dim>1</dim>
					<dim>1</dim>
				</port>
				<port id="2">
					<dim>1</dim>
					<dim>240</dim>
					<dim>1</dim>
					<dim>1</dim>
				</port>
				<port id="3">
					<dim>1</dim>
					<dim>240</dim>
					<dim>1</dim>
					<dim>1</dim>
				</port>
				<port id="4">
					<dim>1</dim>
					<dim>240</dim>
					<dim>1</dim>
					<dim>1</dim>
				</port>
			</input>
			<output>
				<port id="5" precision="FP32">
					<dim>1</dim>
					<dim>240</dim>
					<dim>48</dim>
					<dim>84</dim>
				</port>
			</output>
		</layer>
		<layer id="153" name="13281122_const" type="Const" version="opset1">
			<data element_type="f32" offset="242756" shape="240,1,3,3" size="8640"/>
			<output>
				<port id="1" precision="FP32">
					<dim>240</dim>
					<dim>1</dim>
					<dim>3</dim>
					<dim>3</dim>
				</port>
			</output>
		</layer>
		<layer id="154" name="27432747_const" type="Const" version="opset1">
			<data element_type="f32" offset="251396" shape="240,1,1,1" size="960"/>
			<output>
				<port id="1" precision="FP32">
					<dim>240</dim>
					<dim>1</dim>
					<dim>1</dim>
					<dim>1</dim>
				</port>
			</output>
		</layer>
		<layer id="155" name="27442748_const" type="Const" version="opset1">
			<data element_type="f32" offset="252356" shape="240,1,1,1" size="960"/>
			<output>
				<port id="1" precision="FP32">
					<dim>240</dim>
					<dim>1</dim>
					<dim>1</dim>
					<dim>1</dim>
				</port>
			</output>
		</layer>
		<layer id="156" name="27452749_const" type="Const" version="opset1">
			<data element_type="f32" offset="251396" shape="240,1,1,1" size="960"/>
			<output>
				<port id="1" precision="FP32">
					<dim>240</dim>
					<dim>1</dim>
					<dim>1</dim>
					<dim>1</dim>
				</port>
			</output>
		</layer>
		<layer id="157" name="27462750_const" type="Const" version="opset1">
			<data element_type="f32" offset="252356" shape="240,1,1,1" size="960"/>
			<output>
				<port id="1" precision="FP32">
					<dim>240</dim>
					<dim>1</dim>
					<dim>1</dim>
					<dim>1</dim>
				</port>
			</output>
		</layer>
		<layer id="158" name="conv4_1/dw/fq_weights_1" type="FakeQuantize" version="opset1">
			<data levels="255"/>
			<input>
				<port id="0">
					<dim>240</dim>
					<dim>1</dim>
					<dim>3</dim>
					<dim>3</dim>
				</port>
				<port id="1">
					<dim>240</dim>
					<dim>1</dim>
					<dim>1</dim>
					<dim>1</dim>
				</port>
				<port id="2">
					<dim>240</dim>
					<dim>1</dim>
					<dim>1</dim>
					<dim>1</dim>
				</port>
				<port id="3">
					<dim>240</dim>
					<dim>1</dim>
					<dim>1</dim>
					<dim>1</dim>
				</port>
				<port id="4">
					<dim>240</dim>
					<dim>1</dim>
					<dim>1</dim>
					<dim>1</dim>
				</port>
			</input>
			<output>
				<port id="5" precision="FP32">
					<dim>240</dim>
					<dim>1</dim>
					<dim>3</dim>
					<dim>3</dim>
				</port>
			</output>
		</layer>
		<layer id="159" name="4872/value4874_const" type="Const" version="opset1">
			<data element_type="i64" offset="253316" shape="5" size="40"/>
			<output>
				<port id="1" precision="I64">
					<dim>5</dim>
				</port>
			</output>
		</layer>
		<layer id="160" name="4872" type="Reshape" version="opset1">
			<data special_zero="True"/>
			<input>
				<port id="0">
					<dim>240</dim>
					<dim>1</dim>
					<dim>3</dim>
					<dim>3</dim>
				</port>
				<port id="1">
					<dim>5</dim>
				</port>
			</input>
			<output>
				<port id="2" precision="FP32">
					<dim>240</dim>
					<dim>1</dim>
					<dim>1</dim>
					<dim>3</dim>
					<dim>3</dim>
				</port>
			</output>
		</layer>
		<layer id="161" name="conv4_1/dw" type="GroupConvolution" version="opset1">
			<data dilations="1,1" output_padding="0,0" pads_begin="1,1" pads_end="1,1" strides="1,1"/>
			<input>
				<port id="0">
					<dim>1</dim>
					<dim>240</dim>
					<dim>48</dim>
					<dim>84</dim>
				</port>
				<port id="1">
					<dim>240</dim>
					<dim>1</dim>
					<dim>1</dim>
					<dim>3</dim>
					<dim>3</dim>
				</port>
			</input>
			<output>
				<port id="2" precision="FP32">
					<dim>1</dim>
					<dim>240</dim>
					<dim>48</dim>
					<dim>84</dim>
				</port>
			</output>
		</layer>
		<layer id="162" name="data_add_1110811113/copy_const627_const" type="Const" version="opset1">
			<data element_type="f32" offset="253356" shape="1,240,1,1" size="960"/>
			<output>
				<port id="1" precision="FP32">
					<dim>1</dim>
					<dim>240</dim>
					<dim>1</dim>
					<dim>1</dim>
				</port>
			</output>
		</layer>
		<layer id="163" name="Add1_9796/Fused_Add_" type="Add" version="opset1">
			<input>
				<port id="0">
					<dim>1</dim>
					<dim>240</dim>
					<dim>48</dim>
					<dim>84</dim>
				</port>
				<port id="1">
					<dim>1</dim>
					<dim>240</dim>
					<dim>1</dim>
					<dim>1</dim>
				</port>
			</input>
			<output>
				<port id="2" precision="FP32">
					<dim>1</dim>
					<dim>240</dim>
					<dim>48</dim>
					<dim>84</dim>
				</port>
			</output>
		</layer>
		<layer id="164" name="relu4_1/dw" type="ReLU" version="opset1">
			<input>
				<port id="0">
					<dim>1</dim>
					<dim>240</dim>
					<dim>48</dim>
					<dim>84</dim>
				</port>
			</input>
			<output>
				<port id="1" precision="FP32">
					<dim>1</dim>
					<dim>240</dim>
					<dim>48</dim>
					<dim>84</dim>
				</port>
			</output>
		</layer>
		<layer id="165" name="24532457_const" type="Const" version="opset1">
			<data element_type="f32" offset="5952" shape="" size="4"/>
			<output>
				<port id="1" precision="FP32"/>
			</output>
		</layer>
		<layer id="166" name="24542458_const" type="Const" version="opset1">
			<data element_type="f32" offset="254316" shape="" size="4"/>
			<output>
				<port id="1" precision="FP32"/>
			</output>
		</layer>
		<layer id="167" name="24552459_const" type="Const" version="opset1">
			<data element_type="f32" offset="5952" shape="" size="4"/>
			<output>
				<port id="1" precision="FP32"/>
			</output>
		</layer>
		<layer id="168" name="24562460_const" type="Const" version="opset1">
			<data element_type="f32" offset="254316" shape="" size="4"/>
			<output>
				<port id="1" precision="FP32"/>
			</output>
		</layer>
		<layer id="169" name="conv4_1/sep/fq_input_0" type="FakeQuantize" version="opset1">
			<data levels="256"/>
			<input>
				<port id="0">
					<dim>1</dim>
					<dim>240</dim>
					<dim>48</dim>
					<dim>84</dim>
				</port>
				<port id="1"/>
				<port id="2"/>
				<port id="3"/>
				<port id="4"/>
			</input>
			<output>
				<port id="5" precision="FP32">
					<dim>1</dim>
					<dim>240</dim>
					<dim>48</dim>
					<dim>84</dim>
				</port>
			</output>
		</layer>
		<layer id="170" name="Mul1_9807/Fused_Mul_1189011892_const630_const" type="Const" version="opset1">
			<data element_type="f32" offset="254320" shape="232,240,1,1" size="222720"/>
			<output>
				<port id="1" precision="FP32">
					<dim>232</dim>
					<dim>240</dim>
					<dim>1</dim>
					<dim>1</dim>
				</port>
			</output>
		</layer>
		<layer id="171" name="24632467_const" type="Const" version="opset1">
			<data element_type="f32" offset="477040" shape="232,1,1,1" size="928"/>
			<output>
				<port id="1" precision="FP32">
					<dim>232</dim>
					<dim>1</dim>
					<dim>1</dim>
					<dim>1</dim>
				</port>
			</output>
		</layer>
		<layer id="172" name="24642468_const" type="Const" version="opset1">
			<data element_type="f32" offset="477968" shape="232,1,1,1" size="928"/>
			<output>
				<port id="1" precision="FP32">
					<dim>232</dim>
					<dim>1</dim>
					<dim>1</dim>
					<dim>1</dim>
				</port>
			</output>
		</layer>
		<layer id="173" name="24652469_const" type="Const" version="opset1">
			<data element_type="f32" offset="477040" shape="232,1,1,1" size="928"/>
			<output>
				<port id="1" precision="FP32">
					<dim>232</dim>
					<dim>1</dim>
					<dim>1</dim>
					<dim>1</dim>
				</port>
			</output>
		</layer>
		<layer id="174" name="24662470_const" type="Const" version="opset1">
			<data element_type="f32" offset="477968" shape="232,1,1,1" size="928"/>
			<output>
				<port id="1" precision="FP32">
					<dim>232</dim>
					<dim>1</dim>
					<dim>1</dim>
					<dim>1</dim>
				</port>
			</output>
		</layer>
		<layer id="175" name="conv4_1/sep/fq_weights_1" type="FakeQuantize" version="opset1">
			<data levels="255"/>
			<input>
				<port id="0">
					<dim>232</dim>
					<dim>240</dim>
					<dim>1</dim>
					<dim>1</dim>
				</port>
				<port id="1">
					<dim>232</dim>
					<dim>1</dim>
					<dim>1</dim>
					<dim>1</dim>
				</port>
				<port id="2">
					<dim>232</dim>
					<dim>1</dim>
					<dim>1</dim>
					<dim>1</dim>
				</port>
				<port id="3">
					<dim>232</dim>
					<dim>1</dim>
					<dim>1</dim>
					<dim>1</dim>
				</port>
				<port id="4">
					<dim>232</dim>
					<dim>1</dim>
					<dim>1</dim>
					<dim>1</dim>
				</port>
			</input>
			<output>
				<port id="5" precision="FP32">
					<dim>232</dim>
					<dim>240</dim>
					<dim>1</dim>
					<dim>1</dim>
				</port>
			</output>
		</layer>
		<layer id="176" name="conv4_1/sep" type="Convolution" version="opset1">
			<data dilations="1,1" output_padding="0,0" pads_begin="0,0" pads_end="0,0" strides="1,1"/>
			<input>
				<port id="0">
					<dim>1</dim>
					<dim>240</dim>
					<dim>48</dim>
					<dim>84</dim>
				</port>
				<port id="1">
					<dim>232</dim>
					<dim>240</dim>
					<dim>1</dim>
					<dim>1</dim>
				</port>
			</input>
			<output>
				<port id="2" precision="FP32">
					<dim>1</dim>
					<dim>232</dim>
					<dim>48</dim>
					<dim>84</dim>
				</port>
			</output>
		</layer>
		<layer id="177" name="data_add_1111611121/copy_const632_const" type="Const" version="opset1">
			<data element_type="f32" offset="478896" shape="1,232,1,1" size="928"/>
			<output>
				<port id="1" precision="FP32">
					<dim>1</dim>
					<dim>232</dim>
					<dim>1</dim>
					<dim>1</dim>
				</port>
			</output>
		</layer>
		<layer id="178" name="Add1_9808/Fused_Add_" type="Add" version="opset1">
			<input>
				<port id="0">
					<dim>1</dim>
					<dim>232</dim>
					<dim>48</dim>
					<dim>84</dim>
				</port>
				<port id="1">
					<dim>1</dim>
					<dim>232</dim>
					<dim>1</dim>
					<dim>1</dim>
				</port>
			</input>
			<output>
				<port id="2" precision="FP32">
					<dim>1</dim>
					<dim>232</dim>
					<dim>48</dim>
					<dim>84</dim>
				</port>
			</output>
		</layer>
		<layer id="179" name="relu4_1/sep" type="ReLU" version="opset1">
			<input>
				<port id="0">
					<dim>1</dim>
					<dim>232</dim>
					<dim>48</dim>
					<dim>84</dim>
				</port>
			</input>
			<output>
				<port id="1" precision="FP32">
					<dim>1</dim>
					<dim>232</dim>
					<dim>48</dim>
					<dim>84</dim>
				</port>
			</output>
		</layer>
		<layer id="180" name="20132017_const" type="Const" version="opset1">
			<data element_type="f32" offset="479824" shape="1,232,1,1" size="928"/>
			<output>
				<port id="1" precision="FP32">
					<dim>1</dim>
					<dim>232</dim>
					<dim>1</dim>
					<dim>1</dim>
				</port>
			</output>
		</layer>
		<layer id="181" name="20142018_const" type="Const" version="opset1">
			<data element_type="f32" offset="480752" shape="1,232,1,1" size="928"/>
			<output>
				<port id="1" precision="FP32">
					<dim>1</dim>
					<dim>232</dim>
					<dim>1</dim>
					<dim>1</dim>
				</port>
			</output>
		</layer>
		<layer id="182" name="20152019_const" type="Const" version="opset1">
			<data element_type="f32" offset="479824" shape="1,232,1,1" size="928"/>
			<output>
				<port id="1" precision="FP32">
					<dim>1</dim>
					<dim>232</dim>
					<dim>1</dim>
					<dim>1</dim>
				</port>
			</output>
		</layer>
		<layer id="183" name="20162020_const" type="Const" version="opset1">
			<data element_type="f32" offset="480752" shape="1,232,1,1" size="928"/>
			<output>
				<port id="1" precision="FP32">
					<dim>1</dim>
					<dim>232</dim>
					<dim>1</dim>
					<dim>1</dim>
				</port>
			</output>
		</layer>
		<layer id="184" name="conv4_2/dw/fq_input_0" type="FakeQuantize" version="opset1">
			<data levels="256"/>
			<input>
				<port id="0">
					<dim>1</dim>
					<dim>232</dim>
					<dim>48</dim>
					<dim>84</dim>
				</port>
				<port id="1">
					<dim>1</dim>
					<dim>232</dim>
					<dim>1</dim>
					<dim>1</dim>
				</port>
				<port id="2">
					<dim>1</dim>
					<dim>232</dim>
					<dim>1</dim>
					<dim>1</dim>
				</port>
				<port id="3">
					<dim>1</dim>
					<dim>232</dim>
					<dim>1</dim>
					<dim>1</dim>
				</port>
				<port id="4">
					<dim>1</dim>
					<dim>232</dim>
					<dim>1</dim>
					<dim>1</dim>
				</port>
			</input>
			<output>
				<port id="5" precision="FP32">
					<dim>1</dim>
					<dim>232</dim>
					<dim>48</dim>
					<dim>84</dim>
				</port>
			</output>
		</layer>
		<layer id="185" name="13321124_const" type="Const" version="opset1">
			<data element_type="f32" offset="481680" shape="232,1,3,3" size="8352"/>
			<output>
				<port id="1" precision="FP32">
					<dim>232</dim>
					<dim>1</dim>
					<dim>3</dim>
					<dim>3</dim>
				</port>
			</output>
		</layer>
		<layer id="186" name="20232027_const" type="Const" version="opset1">
			<data element_type="f32" offset="490032" shape="232,1,1,1" size="928"/>
			<output>
				<port id="1" precision="FP32">
					<dim>232</dim>
					<dim>1</dim>
					<dim>1</dim>
					<dim>1</dim>
				</port>
			</output>
		</layer>
		<layer id="187" name="20242028_const" type="Const" version="opset1">
			<data element_type="f32" offset="490960" shape="232,1,1,1" size="928"/>
			<output>
				<port id="1" precision="FP32">
					<dim>232</dim>
					<dim>1</dim>
					<dim>1</dim>
					<dim>1</dim>
				</port>
			</output>
		</layer>
		<layer id="188" name="20252029_const" type="Const" version="opset1">
			<data element_type="f32" offset="490032" shape="232,1,1,1" size="928"/>
			<output>
				<port id="1" precision="FP32">
					<dim>232</dim>
					<dim>1</dim>
					<dim>1</dim>
					<dim>1</dim>
				</port>
			</output>
		</layer>
		<layer id="189" name="20262030_const" type="Const" version="opset1">
			<data element_type="f32" offset="490960" shape="232,1,1,1" size="928"/>
			<output>
				<port id="1" precision="FP32">
					<dim>232</dim>
					<dim>1</dim>
					<dim>1</dim>
					<dim>1</dim>
				</port>
			</output>
		</layer>
		<layer id="190" name="conv4_2/dw/fq_weights_1" type="FakeQuantize" version="opset1">
			<data levels="255"/>
			<input>
				<port id="0">
					<dim>232</dim>
					<dim>1</dim>
					<dim>3</dim>
					<dim>3</dim>
				</port>
				<port id="1">
					<dim>232</dim>
					<dim>1</dim>
					<dim>1</dim>
					<dim>1</dim>
				</port>
				<port id="2">
					<dim>232</dim>
					<dim>1</dim>
					<dim>1</dim>
					<dim>1</dim>
				</port>
				<port id="3">
					<dim>232</dim>
					<dim>1</dim>
					<dim>1</dim>
					<dim>1</dim>
				</port>
				<port id="4">
					<dim>232</dim>
					<dim>1</dim>
					<dim>1</dim>
					<dim>1</dim>
				</port>
			</input>
			<output>
				<port id="5" precision="FP32">
					<dim>232</dim>
					<dim>1</dim>
					<dim>3</dim>
					<dim>3</dim>
				</port>
			</output>
		</layer>
		<layer id="191" name="4828/value4830_const" type="Const" version="opset1">
			<data element_type="i64" offset="491888" shape="5" size="40"/>
			<output>
				<port id="1" precision="I64">
					<dim>5</dim>
				</port>
			</output>
		</layer>
		<layer id="192" name="4828" type="Reshape" version="opset1">
			<data special_zero="True"/>
			<input>
				<port id="0">
					<dim>232</dim>
					<dim>1</dim>
					<dim>3</dim>
					<dim>3</dim>
				</port>
				<port id="1">
					<dim>5</dim>
				</port>
			</input>
			<output>
				<port id="2" precision="FP32">
					<dim>232</dim>
					<dim>1</dim>
					<dim>1</dim>
					<dim>3</dim>
					<dim>3</dim>
				</port>
			</output>
		</layer>
		<layer id="193" name="conv4_2/dw" type="GroupConvolution" version="opset1">
			<data dilations="1,1" output_padding="0,0" pads_begin="1,1" pads_end="1,1" strides="2,2"/>
			<input>
				<port id="0">
					<dim>1</dim>
					<dim>232</dim>
					<dim>48</dim>
					<dim>84</dim>
				</port>
				<port id="1">
					<dim>232</dim>
					<dim>1</dim>
					<dim>1</dim>
					<dim>3</dim>
					<dim>3</dim>
				</port>
			</input>
			<output>
				<port id="2" precision="FP32">
					<dim>1</dim>
					<dim>232</dim>
					<dim>24</dim>
					<dim>42</dim>
				</port>
			</output>
		</layer>
		<layer id="194" name="data_add_1112411129/copy_const637_const" type="Const" version="opset1">
			<data element_type="f32" offset="491928" shape="1,232,1,1" size="928"/>
			<output>
				<port id="1" precision="FP32">
					<dim>1</dim>
					<dim>232</dim>
					<dim>1</dim>
					<dim>1</dim>
				</port>
			</output>
		</layer>
		<layer id="195" name="Add1_9820/Fused_Add_" type="Add" version="opset1">
			<input>
				<port id="0">
					<dim>1</dim>
					<dim>232</dim>
					<dim>24</dim>
					<dim>42</dim>
				</port>
				<port id="1">
					<dim>1</dim>
					<dim>232</dim>
					<dim>1</dim>
					<dim>1</dim>
				</port>
			</input>
			<output>
				<port id="2" precision="FP32">
					<dim>1</dim>
					<dim>232</dim>
					<dim>24</dim>
					<dim>42</dim>
				</port>
			</output>
		</layer>
		<layer id="196" name="relu4_2/dw" type="ReLU" version="opset1">
			<input>
				<port id="0">
					<dim>1</dim>
					<dim>232</dim>
					<dim>24</dim>
					<dim>42</dim>
				</port>
			</input>
			<output>
				<port id="1" precision="FP32">
					<dim>1</dim>
					<dim>232</dim>
					<dim>24</dim>
					<dim>42</dim>
				</port>
			</output>
		</layer>
		<layer id="197" name="19531957_const" type="Const" version="opset1">
			<data element_type="f32" offset="5952" shape="" size="4"/>
			<output>
				<port id="1" precision="FP32"/>
			</output>
		</layer>
		<layer id="198" name="19541958_const" type="Const" version="opset1">
			<data element_type="f32" offset="492856" shape="" size="4"/>
			<output>
				<port id="1" precision="FP32"/>
			</output>
		</layer>
		<layer id="199" name="19551959_const" type="Const" version="opset1">
			<data element_type="f32" offset="5952" shape="" size="4"/>
			<output>
				<port id="1" precision="FP32"/>
			</output>
		</layer>
		<layer id="200" name="19561960_const" type="Const" version="opset1">
			<data element_type="f32" offset="492856" shape="" size="4"/>
			<output>
				<port id="1" precision="FP32"/>
			</output>
		</layer>
		<layer id="201" name="conv4_2/sep/fq_input_0" type="FakeQuantize" version="opset1">
			<data levels="256"/>
			<input>
				<port id="0">
					<dim>1</dim>
					<dim>232</dim>
					<dim>24</dim>
					<dim>42</dim>
				</port>
				<port id="1"/>
				<port id="2"/>
				<port id="3"/>
				<port id="4"/>
			</input>
			<output>
				<port id="5" precision="FP32">
					<dim>1</dim>
					<dim>232</dim>
					<dim>24</dim>
					<dim>42</dim>
				</port>
			</output>
		</layer>
		<layer id="202" name="Mul1_9831/Fused_Mul_1189811900_const640_const" type="Const" version="opset1">
			<data element_type="f32" offset="492860" shape="448,232,1,1" size="415744"/>
			<output>
				<port id="1" precision="FP32">
					<dim>448</dim>
					<dim>232</dim>
					<dim>1</dim>
					<dim>1</dim>
				</port>
			</output>
		</layer>
		<layer id="203" name="19631967_const" type="Const" version="opset1">
			<data element_type="f32" offset="908604" shape="448,1,1,1" size="1792"/>
			<output>
				<port id="1" precision="FP32">
					<dim>448</dim>
					<dim>1</dim>
					<dim>1</dim>
					<dim>1</dim>
				</port>
			</output>
		</layer>
		<layer id="204" name="19641968_const" type="Const" version="opset1">
			<data element_type="f32" offset="910396" shape="448,1,1,1" size="1792"/>
			<output>
				<port id="1" precision="FP32">
					<dim>448</dim>
					<dim>1</dim>
					<dim>1</dim>
					<dim>1</dim>
				</port>
			</output>
		</layer>
		<layer id="205" name="19651969_const" type="Const" version="opset1">
			<data element_type="f32" offset="908604" shape="448,1,1,1" size="1792"/>
			<output>
				<port id="1" precision="FP32">
					<dim>448</dim>
					<dim>1</dim>
					<dim>1</dim>
					<dim>1</dim>
				</port>
			</output>
		</layer>
		<layer id="206" name="19661970_const" type="Const" version="opset1">
			<data element_type="f32" offset="910396" shape="448,1,1,1" size="1792"/>
			<output>
				<port id="1" precision="FP32">
					<dim>448</dim>
					<dim>1</dim>
					<dim>1</dim>
					<dim>1</dim>
				</port>
			</output>
		</layer>
		<layer id="207" name="conv4_2/sep/fq_weights_1" type="FakeQuantize" version="opset1">
			<data levels="255"/>
			<input>
				<port id="0">
					<dim>448</dim>
					<dim>232</dim>
					<dim>1</dim>
					<dim>1</dim>
				</port>
				<port id="1">
					<dim>448</dim>
					<dim>1</dim>
					<dim>1</dim>
					<dim>1</dim>
				</port>
				<port id="2">
					<dim>448</dim>
					<dim>1</dim>
					<dim>1</dim>
					<dim>1</dim>
				</port>
				<port id="3">
					<dim>448</dim>
					<dim>1</dim>
					<dim>1</dim>
					<dim>1</dim>
				</port>
				<port id="4">
					<dim>448</dim>
					<dim>1</dim>
					<dim>1</dim>
					<dim>1</dim>
				</port>
			</input>
			<output>
				<port id="5" precision="FP32">
					<dim>448</dim>
					<dim>232</dim>
					<dim>1</dim>
					<dim>1</dim>
				</port>
			</output>
		</layer>
		<layer id="208" name="conv4_2/sep" type="Convolution" version="opset1">
			<data dilations="1,1" output_padding="0,0" pads_begin="0,0" pads_end="0,0" strides="1,1"/>
			<input>
				<port id="0">
					<dim>1</dim>
					<dim>232</dim>
					<dim>24</dim>
					<dim>42</dim>
				</port>
				<port id="1">
					<dim>448</dim>
					<dim>232</dim>
					<dim>1</dim>
					<dim>1</dim>
				</port>
			</input>
			<output>
				<port id="2" precision="FP32">
					<dim>1</dim>
					<dim>448</dim>
					<dim>24</dim>
					<dim>42</dim>
				</port>
			</output>
		</layer>
		<layer id="209" name="data_add_1113211137/copy_const642_const" type="Const" version="opset1">
			<data element_type="f32" offset="912188" shape="1,448,1,1" size="1792"/>
			<output>
				<port id="1" precision="FP32">
					<dim>1</dim>
					<dim>448</dim>
					<dim>1</dim>
					<dim>1</dim>
				</port>
			</output>
		</layer>
		<layer id="210" name="Add1_9832/Fused_Add_" type="Add" version="opset1">
			<input>
				<port id="0">
					<dim>1</dim>
					<dim>448</dim>
					<dim>24</dim>
					<dim>42</dim>
				</port>
				<port id="1">
					<dim>1</dim>
					<dim>448</dim>
					<dim>1</dim>
					<dim>1</dim>
				</port>
			</input>
			<output>
				<port id="2" precision="FP32">
					<dim>1</dim>
					<dim>448</dim>
					<dim>24</dim>
					<dim>42</dim>
				</port>
			</output>
		</layer>
		<layer id="211" name="relu4_2/sep" type="ReLU" version="opset1">
			<input>
				<port id="0">
					<dim>1</dim>
					<dim>448</dim>
					<dim>24</dim>
					<dim>42</dim>
				</port>
			</input>
			<output>
				<port id="1" precision="FP32">
					<dim>1</dim>
					<dim>448</dim>
					<dim>24</dim>
					<dim>42</dim>
				</port>
			</output>
		</layer>
		<layer id="212" name="18531857_const" type="Const" version="opset1">
			<data element_type="f32" offset="913980" shape="1,448,1,1" size="1792"/>
			<output>
				<port id="1" precision="FP32">
					<dim>1</dim>
					<dim>448</dim>
					<dim>1</dim>
					<dim>1</dim>
				</port>
			</output>
		</layer>
		<layer id="213" name="18541858_const" type="Const" version="opset1">
			<data element_type="f32" offset="915772" shape="1,448,1,1" size="1792"/>
			<output>
				<port id="1" precision="FP32">
					<dim>1</dim>
					<dim>448</dim>
					<dim>1</dim>
					<dim>1</dim>
				</port>
			</output>
		</layer>
		<layer id="214" name="18551859_const" type="Const" version="opset1">
			<data element_type="f32" offset="913980" shape="1,448,1,1" size="1792"/>
			<output>
				<port id="1" precision="FP32">
					<dim>1</dim>
					<dim>448</dim>
					<dim>1</dim>
					<dim>1</dim>
				</port>
			</output>
		</layer>
		<layer id="215" name="18561860_const" type="Const" version="opset1">
			<data element_type="f32" offset="915772" shape="1,448,1,1" size="1792"/>
			<output>
				<port id="1" precision="FP32">
					<dim>1</dim>
					<dim>448</dim>
					<dim>1</dim>
					<dim>1</dim>
				</port>
			</output>
		</layer>
		<layer id="216" name="conv5_1/dw/fq_input_0" type="FakeQuantize" version="opset1">
			<data levels="256"/>
			<input>
				<port id="0">
					<dim>1</dim>
					<dim>448</dim>
					<dim>24</dim>
					<dim>42</dim>
				</port>
				<port id="1">
					<dim>1</dim>
					<dim>448</dim>
					<dim>1</dim>
					<dim>1</dim>
				</port>
				<port id="2">
					<dim>1</dim>
					<dim>448</dim>
					<dim>1</dim>
					<dim>1</dim>
				</port>
				<port id="3">
					<dim>1</dim>
					<dim>448</dim>
					<dim>1</dim>
					<dim>1</dim>
				</port>
				<port id="4">
					<dim>1</dim>
					<dim>448</dim>
					<dim>1</dim>
					<dim>1</dim>
				</port>
			</input>
			<output>
				<port id="5" precision="FP32">
					<dim>1</dim>
					<dim>448</dim>
					<dim>24</dim>
					<dim>42</dim>
				</port>
			</output>
		</layer>
		<layer id="217" name="13361126_const" type="Const" version="opset1">
			<data element_type="f32" offset="917564" shape="448,1,3,3" size="16128"/>
			<output>
				<port id="1" precision="FP32">
					<dim>448</dim>
					<dim>1</dim>
					<dim>3</dim>
					<dim>3</dim>
				</port>
			</output>
		</layer>
		<layer id="218" name="18631867_const" type="Const" version="opset1">
			<data element_type="f32" offset="933692" shape="448,1,1,1" size="1792"/>
			<output>
				<port id="1" precision="FP32">
					<dim>448</dim>
					<dim>1</dim>
					<dim>1</dim>
					<dim>1</dim>
				</port>
			</output>
		</layer>
		<layer id="219" name="18641868_const" type="Const" version="opset1">
			<data element_type="f32" offset="935484" shape="448,1,1,1" size="1792"/>
			<output>
				<port id="1" precision="FP32">
					<dim>448</dim>
					<dim>1</dim>
					<dim>1</dim>
					<dim>1</dim>
				</port>
			</output>
		</layer>
		<layer id="220" name="18651869_const" type="Const" version="opset1">
			<data element_type="f32" offset="933692" shape="448,1,1,1" size="1792"/>
			<output>
				<port id="1" precision="FP32">
					<dim>448</dim>
					<dim>1</dim>
					<dim>1</dim>
					<dim>1</dim>
				</port>
			</output>
		</layer>
		<layer id="221" name="18661870_const" type="Const" version="opset1">
			<data element_type="f32" offset="935484" shape="448,1,1,1" size="1792"/>
			<output>
				<port id="1" precision="FP32">
					<dim>448</dim>
					<dim>1</dim>
					<dim>1</dim>
					<dim>1</dim>
				</port>
			</output>
		</layer>
		<layer id="222" name="conv5_1/dw/fq_weights_1" type="FakeQuantize" version="opset1">
			<data levels="255"/>
			<input>
				<port id="0">
					<dim>448</dim>
					<dim>1</dim>
					<dim>3</dim>
					<dim>3</dim>
				</port>
				<port id="1">
					<dim>448</dim>
					<dim>1</dim>
					<dim>1</dim>
					<dim>1</dim>
				</port>
				<port id="2">
					<dim>448</dim>
					<dim>1</dim>
					<dim>1</dim>
					<dim>1</dim>
				</port>
				<port id="3">
					<dim>448</dim>
					<dim>1</dim>
					<dim>1</dim>
					<dim>1</dim>
				</port>
				<port id="4">
					<dim>448</dim>
					<dim>1</dim>
					<dim>1</dim>
					<dim>1</dim>
				</port>
			</input>
			<output>
				<port id="5" precision="FP32">
					<dim>448</dim>
					<dim>1</dim>
					<dim>3</dim>
					<dim>3</dim>
				</port>
			</output>
		</layer>
		<layer id="223" name="4860/value4862_const" type="Const" version="opset1">
			<data element_type="i64" offset="937276" shape="5" size="40"/>
			<output>
				<port id="1" precision="I64">
					<dim>5</dim>
				</port>
			</output>
		</layer>
		<layer id="224" name="4860" type="Reshape" version="opset1">
			<data special_zero="True"/>
			<input>
				<port id="0">
					<dim>448</dim>
					<dim>1</dim>
					<dim>3</dim>
					<dim>3</dim>
				</port>
				<port id="1">
					<dim>5</dim>
				</port>
			</input>
			<output>
				<port id="2" precision="FP32">
					<dim>448</dim>
					<dim>1</dim>
					<dim>1</dim>
					<dim>3</dim>
					<dim>3</dim>
				</port>
			</output>
		</layer>
		<layer id="225" name="conv5_1/dw" type="GroupConvolution" version="opset1">
			<data dilations="1,1" output_padding="0,0" pads_begin="1,1" pads_end="1,1" strides="1,1"/>
			<input>
				<port id="0">
					<dim>1</dim>
					<dim>448</dim>
					<dim>24</dim>
					<dim>42</dim>
				</port>
				<port id="1">
					<dim>448</dim>
					<dim>1</dim>
					<dim>1</dim>
					<dim>3</dim>
					<dim>3</dim>
				</port>
			</input>
			<output>
				<port id="2" precision="FP32">
					<dim>1</dim>
					<dim>448</dim>
					<dim>24</dim>
					<dim>42</dim>
				</port>
			</output>
		</layer>
		<layer id="226" name="data_add_1114011145/copy_const647_const" type="Const" version="opset1">
			<data element_type="f32" offset="937316" shape="1,448,1,1" size="1792"/>
			<output>
				<port id="1" precision="FP32">
					<dim>1</dim>
					<dim>448</dim>
					<dim>1</dim>
					<dim>1</dim>
				</port>
			</output>
		</layer>
		<layer id="227" name="Add1_9844/Fused_Add_" type="Add" version="opset1">
			<input>
				<port id="0">
					<dim>1</dim>
					<dim>448</dim>
					<dim>24</dim>
					<dim>42</dim>
				</port>
				<port id="1">
					<dim>1</dim>
					<dim>448</dim>
					<dim>1</dim>
					<dim>1</dim>
				</port>
			</input>
			<output>
				<port id="2" precision="FP32">
					<dim>1</dim>
					<dim>448</dim>
					<dim>24</dim>
					<dim>42</dim>
				</port>
			</output>
		</layer>
		<layer id="228" name="relu5_1/dw" type="ReLU" version="opset1">
			<input>
				<port id="0">
					<dim>1</dim>
					<dim>448</dim>
					<dim>24</dim>
					<dim>42</dim>
				</port>
			</input>
			<output>
				<port id="1" precision="FP32">
					<dim>1</dim>
					<dim>448</dim>
					<dim>24</dim>
					<dim>42</dim>
				</port>
			</output>
		</layer>
		<layer id="229" name="19931997_const" type="Const" version="opset1">
			<data element_type="f32" offset="5952" shape="" size="4"/>
			<output>
				<port id="1" precision="FP32"/>
			</output>
		</layer>
		<layer id="230" name="19941998_const" type="Const" version="opset1">
			<data element_type="f32" offset="939108" shape="" size="4"/>
			<output>
				<port id="1" precision="FP32"/>
			</output>
		</layer>
		<layer id="231" name="19951999_const" type="Const" version="opset1">
			<data element_type="f32" offset="5952" shape="" size="4"/>
			<output>
				<port id="1" precision="FP32"/>
			</output>
		</layer>
		<layer id="232" name="19962000_const" type="Const" version="opset1">
			<data element_type="f32" offset="939108" shape="" size="4"/>
			<output>
				<port id="1" precision="FP32"/>
			</output>
		</layer>
		<layer id="233" name="conv5_1/sep/fq_input_0" type="FakeQuantize" version="opset1">
			<data levels="256"/>
			<input>
				<port id="0">
					<dim>1</dim>
					<dim>448</dim>
					<dim>24</dim>
					<dim>42</dim>
				</port>
				<port id="1"/>
				<port id="2"/>
				<port id="3"/>
				<port id="4"/>
			</input>
			<output>
				<port id="5" precision="FP32">
					<dim>1</dim>
					<dim>448</dim>
					<dim>24</dim>
					<dim>42</dim>
				</port>
			</output>
		</layer>
		<layer id="234" name="Mul1_9855/Fused_Mul_1190611908_const650_const" type="Const" version="opset1">
			<data element_type="f32" offset="939112" shape="400,448,1,1" size="716800"/>
			<output>
				<port id="1" precision="FP32">
					<dim>400</dim>
					<dim>448</dim>
					<dim>1</dim>
					<dim>1</dim>
				</port>
			</output>
		</layer>
		<layer id="235" name="20032007_const" type="Const" version="opset1">
			<data element_type="f32" offset="1655912" shape="400,1,1,1" size="1600"/>
			<output>
				<port id="1" precision="FP32">
					<dim>400</dim>
					<dim>1</dim>
					<dim>1</dim>
					<dim>1</dim>
				</port>
			</output>
		</layer>
		<layer id="236" name="20042008_const" type="Const" version="opset1">
			<data element_type="f32" offset="1657512" shape="400,1,1,1" size="1600"/>
			<output>
				<port id="1" precision="FP32">
					<dim>400</dim>
					<dim>1</dim>
					<dim>1</dim>
					<dim>1</dim>
				</port>
			</output>
		</layer>
		<layer id="237" name="20052009_const" type="Const" version="opset1">
			<data element_type="f32" offset="1655912" shape="400,1,1,1" size="1600"/>
			<output>
				<port id="1" precision="FP32">
					<dim>400</dim>
					<dim>1</dim>
					<dim>1</dim>
					<dim>1</dim>
				</port>
			</output>
		</layer>
		<layer id="238" name="20062010_const" type="Const" version="opset1">
			<data element_type="f32" offset="1657512" shape="400,1,1,1" size="1600"/>
			<output>
				<port id="1" precision="FP32">
					<dim>400</dim>
					<dim>1</dim>
					<dim>1</dim>
					<dim>1</dim>
				</port>
			</output>
		</layer>
		<layer id="239" name="conv5_1/sep/fq_weights_1" type="FakeQuantize" version="opset1">
			<data levels="255"/>
			<input>
				<port id="0">
					<dim>400</dim>
					<dim>448</dim>
					<dim>1</dim>
					<dim>1</dim>
				</port>
				<port id="1">
					<dim>400</dim>
					<dim>1</dim>
					<dim>1</dim>
					<dim>1</dim>
				</port>
				<port id="2">
					<dim>400</dim>
					<dim>1</dim>
					<dim>1</dim>
					<dim>1</dim>
				</port>
				<port id="3">
					<dim>400</dim>
					<dim>1</dim>
					<dim>1</dim>
					<dim>1</dim>
				</port>
				<port id="4">
					<dim>400</dim>
					<dim>1</dim>
					<dim>1</dim>
					<dim>1</dim>
				</port>
			</input>
			<output>
				<port id="5" precision="FP32">
					<dim>400</dim>
					<dim>448</dim>
					<dim>1</dim>
					<dim>1</dim>
				</port>
			</output>
		</layer>
		<layer id="240" name="conv5_1/sep" type="Convolution" version="opset1">
			<data dilations="1,1" output_padding="0,0" pads_begin="0,0" pads_end="0,0" strides="1,1"/>
			<input>
				<port id="0">
					<dim>1</dim>
					<dim>448</dim>
					<dim>24</dim>
					<dim>42</dim>
				</port>
				<port id="1">
					<dim>400</dim>
					<dim>448</dim>
					<dim>1</dim>
					<dim>1</dim>
				</port>
			</input>
			<output>
				<port id="2" precision="FP32">
					<dim>1</dim>
					<dim>400</dim>
					<dim>24</dim>
					<dim>42</dim>
				</port>
			</output>
		</layer>
		<layer id="241" name="data_add_1114811153/copy_const652_const" type="Const" version="opset1">
			<data element_type="f32" offset="1659112" shape="1,400,1,1" size="1600"/>
			<output>
				<port id="1" precision="FP32">
					<dim>1</dim>
					<dim>400</dim>
					<dim>1</dim>
					<dim>1</dim>
				</port>
			</output>
		</layer>
		<layer id="242" name="Add1_9856/Fused_Add_" type="Add" version="opset1">
			<input>
				<port id="0">
					<dim>1</dim>
					<dim>400</dim>
					<dim>24</dim>
					<dim>42</dim>
				</port>
				<port id="1">
					<dim>1</dim>
					<dim>400</dim>
					<dim>1</dim>
					<dim>1</dim>
				</port>
			</input>
			<output>
				<port id="2" precision="FP32">
					<dim>1</dim>
					<dim>400</dim>
					<dim>24</dim>
					<dim>42</dim>
				</port>
			</output>
		</layer>
		<layer id="243" name="relu5_1/sep" type="ReLU" version="opset1">
			<input>
				<port id="0">
					<dim>1</dim>
					<dim>400</dim>
					<dim>24</dim>
					<dim>42</dim>
				</port>
			</input>
			<output>
				<port id="1" precision="FP32">
					<dim>1</dim>
					<dim>400</dim>
					<dim>24</dim>
					<dim>42</dim>
				</port>
			</output>
		</layer>
		<layer id="244" name="26332637_const" type="Const" version="opset1">
			<data element_type="f32" offset="1660712" shape="1,400,1,1" size="1600"/>
			<output>
				<port id="1" precision="FP32">
					<dim>1</dim>
					<dim>400</dim>
					<dim>1</dim>
					<dim>1</dim>
				</port>
			</output>
		</layer>
		<layer id="245" name="26342638_const" type="Const" version="opset1">
			<data element_type="f32" offset="1662312" shape="1,400,1,1" size="1600"/>
			<output>
				<port id="1" precision="FP32">
					<dim>1</dim>
					<dim>400</dim>
					<dim>1</dim>
					<dim>1</dim>
				</port>
			</output>
		</layer>
		<layer id="246" name="26352639_const" type="Const" version="opset1">
			<data element_type="f32" offset="1660712" shape="1,400,1,1" size="1600"/>
			<output>
				<port id="1" precision="FP32">
					<dim>1</dim>
					<dim>400</dim>
					<dim>1</dim>
					<dim>1</dim>
				</port>
			</output>
		</layer>
		<layer id="247" name="26362640_const" type="Const" version="opset1">
			<data element_type="f32" offset="1662312" shape="1,400,1,1" size="1600"/>
			<output>
				<port id="1" precision="FP32">
					<dim>1</dim>
					<dim>400</dim>
					<dim>1</dim>
					<dim>1</dim>
				</port>
			</output>
		</layer>
		<layer id="248" name="conv5_2/dw/fq_input_0" type="FakeQuantize" version="opset1">
			<data levels="256"/>
			<input>
				<port id="0">
					<dim>1</dim>
					<dim>400</dim>
					<dim>24</dim>
					<dim>42</dim>
				</port>
				<port id="1">
					<dim>1</dim>
					<dim>400</dim>
					<dim>1</dim>
					<dim>1</dim>
				</port>
				<port id="2">
					<dim>1</dim>
					<dim>400</dim>
					<dim>1</dim>
					<dim>1</dim>
				</port>
				<port id="3">
					<dim>1</dim>
					<dim>400</dim>
					<dim>1</dim>
					<dim>1</dim>
				</port>
				<port id="4">
					<dim>1</dim>
					<dim>400</dim>
					<dim>1</dim>
					<dim>1</dim>
				</port>
			</input>
			<output>
				<port id="5" precision="FP32">
					<dim>1</dim>
					<dim>400</dim>
					<dim>24</dim>
					<dim>42</dim>
				</port>
			</output>
		</layer>
		<layer id="249" name="13401128_const" type="Const" version="opset1">
			<data element_type="f32" offset="1663912" shape="400,1,3,3" size="14400"/>
			<output>
				<port id="1" precision="FP32">
					<dim>400</dim>
					<dim>1</dim>
					<dim>3</dim>
					<dim>3</dim>
				</port>
			</output>
		</layer>
		<layer id="250" name="26432647_const" type="Const" version="opset1">
			<data element_type="f32" offset="1678312" shape="400,1,1,1" size="1600"/>
			<output>
				<port id="1" precision="FP32">
					<dim>400</dim>
					<dim>1</dim>
					<dim>1</dim>
					<dim>1</dim>
				</port>
			</output>
		</layer>
		<layer id="251" name="26442648_const" type="Const" version="opset1">
			<data element_type="f32" offset="1679912" shape="400,1,1,1" size="1600"/>
			<output>
				<port id="1" precision="FP32">
					<dim>400</dim>
					<dim>1</dim>
					<dim>1</dim>
					<dim>1</dim>
				</port>
			</output>
		</layer>
		<layer id="252" name="26452649_const" type="Const" version="opset1">
			<data element_type="f32" offset="1678312" shape="400,1,1,1" size="1600"/>
			<output>
				<port id="1" precision="FP32">
					<dim>400</dim>
					<dim>1</dim>
					<dim>1</dim>
					<dim>1</dim>
				</port>
			</output>
		</layer>
		<layer id="253" name="26462650_const" type="Const" version="opset1">
			<data element_type="f32" offset="1679912" shape="400,1,1,1" size="1600"/>
			<output>
				<port id="1" precision="FP32">
					<dim>400</dim>
					<dim>1</dim>
					<dim>1</dim>
					<dim>1</dim>
				</port>
			</output>
		</layer>
		<layer id="254" name="conv5_2/dw/fq_weights_1" type="FakeQuantize" version="opset1">
			<data levels="255"/>
			<input>
				<port id="0">
					<dim>400</dim>
					<dim>1</dim>
					<dim>3</dim>
					<dim>3</dim>
				</port>
				<port id="1">
					<dim>400</dim>
					<dim>1</dim>
					<dim>1</dim>
					<dim>1</dim>
				</port>
				<port id="2">
					<dim>400</dim>
					<dim>1</dim>
					<dim>1</dim>
					<dim>1</dim>
				</port>
				<port id="3">
					<dim>400</dim>
					<dim>1</dim>
					<dim>1</dim>
					<dim>1</dim>
				</port>
				<port id="4">
					<dim>400</dim>
					<dim>1</dim>
					<dim>1</dim>
					<dim>1</dim>
				</port>
			</input>
			<output>
				<port id="5" precision="FP32">
					<dim>400</dim>
					<dim>1</dim>
					<dim>3</dim>
					<dim>3</dim>
				</port>
			</output>
		</layer>
		<layer id="255" name="4840/value4842_const" type="Const" version="opset1">
			<data element_type="i64" offset="1681512" shape="5" size="40"/>
			<output>
				<port id="1" precision="I64">
					<dim>5</dim>
				</port>
			</output>
		</layer>
		<layer id="256" name="4840" type="Reshape" version="opset1">
			<data special_zero="True"/>
			<input>
				<port id="0">
					<dim>400</dim>
					<dim>1</dim>
					<dim>3</dim>
					<dim>3</dim>
				</port>
				<port id="1">
					<dim>5</dim>
				</port>
			</input>
			<output>
				<port id="2" precision="FP32">
					<dim>400</dim>
					<dim>1</dim>
					<dim>1</dim>
					<dim>3</dim>
					<dim>3</dim>
				</port>
			</output>
		</layer>
		<layer id="257" name="conv5_2/dw" type="GroupConvolution" version="opset1">
			<data dilations="1,1" output_padding="0,0" pads_begin="1,1" pads_end="1,1" strides="1,1"/>
			<input>
				<port id="0">
					<dim>1</dim>
					<dim>400</dim>
					<dim>24</dim>
					<dim>42</dim>
				</port>
				<port id="1">
					<dim>400</dim>
					<dim>1</dim>
					<dim>1</dim>
					<dim>3</dim>
					<dim>3</dim>
				</port>
			</input>
			<output>
				<port id="2" precision="FP32">
					<dim>1</dim>
					<dim>400</dim>
					<dim>24</dim>
					<dim>42</dim>
				</port>
			</output>
		</layer>
		<layer id="258" name="data_add_1115611161/copy_const657_const" type="Const" version="opset1">
			<data element_type="f32" offset="1681552" shape="1,400,1,1" size="1600"/>
			<output>
				<port id="1" precision="FP32">
					<dim>1</dim>
					<dim>400</dim>
					<dim>1</dim>
					<dim>1</dim>
				</port>
			</output>
		</layer>
		<layer id="259" name="Add1_9868/Fused_Add_" type="Add" version="opset1">
			<input>
				<port id="0">
					<dim>1</dim>
					<dim>400</dim>
					<dim>24</dim>
					<dim>42</dim>
				</port>
				<port id="1">
					<dim>1</dim>
					<dim>400</dim>
					<dim>1</dim>
					<dim>1</dim>
				</port>
			</input>
			<output>
				<port id="2" precision="FP32">
					<dim>1</dim>
					<dim>400</dim>
					<dim>24</dim>
					<dim>42</dim>
				</port>
			</output>
		</layer>
		<layer id="260" name="relu5_2/dw" type="ReLU" version="opset1">
			<input>
				<port id="0">
					<dim>1</dim>
					<dim>400</dim>
					<dim>24</dim>
					<dim>42</dim>
				</port>
			</input>
			<output>
				<port id="1" precision="FP32">
					<dim>1</dim>
					<dim>400</dim>
					<dim>24</dim>
					<dim>42</dim>
				</port>
			</output>
		</layer>
		<layer id="261" name="27132717_const" type="Const" version="opset1">
			<data element_type="f32" offset="5952" shape="" size="4"/>
			<output>
				<port id="1" precision="FP32"/>
			</output>
		</layer>
		<layer id="262" name="27142718_const" type="Const" version="opset1">
			<data element_type="f32" offset="1683152" shape="" size="4"/>
			<output>
				<port id="1" precision="FP32"/>
			</output>
		</layer>
		<layer id="263" name="27152719_const" type="Const" version="opset1">
			<data element_type="f32" offset="5952" shape="" size="4"/>
			<output>
				<port id="1" precision="FP32"/>
			</output>
		</layer>
		<layer id="264" name="27162720_const" type="Const" version="opset1">
			<data element_type="f32" offset="1683152" shape="" size="4"/>
			<output>
				<port id="1" precision="FP32"/>
			</output>
		</layer>
		<layer id="265" name="conv5_2/sep/fq_input_0" type="FakeQuantize" version="opset1">
			<data levels="256"/>
			<input>
				<port id="0">
					<dim>1</dim>
					<dim>400</dim>
					<dim>24</dim>
					<dim>42</dim>
				</port>
				<port id="1"/>
				<port id="2"/>
				<port id="3"/>
				<port id="4"/>
			</input>
			<output>
				<port id="5" precision="FP32">
					<dim>1</dim>
					<dim>400</dim>
					<dim>24</dim>
					<dim>42</dim>
				</port>
			</output>
		</layer>
		<layer id="266" name="Mul1_9879/Fused_Mul_1191411916_const660_const" type="Const" version="opset1">
			<data element_type="f32" offset="1683156" shape="392,400,1,1" size="627200"/>
			<output>
				<port id="1" precision="FP32">
					<dim>392</dim>
					<dim>400</dim>
					<dim>1</dim>
					<dim>1</dim>
				</port>
			</output>
		</layer>
		<layer id="267" name="27232727_const" type="Const" version="opset1">
			<data element_type="f32" offset="2310356" shape="392,1,1,1" size="1568"/>
			<output>
				<port id="1" precision="FP32">
					<dim>392</dim>
					<dim>1</dim>
					<dim>1</dim>
					<dim>1</dim>
				</port>
			</output>
		</layer>
		<layer id="268" name="27242728_const" type="Const" version="opset1">
			<data element_type="f32" offset="2311924" shape="392,1,1,1" size="1568"/>
			<output>
				<port id="1" precision="FP32">
					<dim>392</dim>
					<dim>1</dim>
					<dim>1</dim>
					<dim>1</dim>
				</port>
			</output>
		</layer>
		<layer id="269" name="27252729_const" type="Const" version="opset1">
			<data element_type="f32" offset="2310356" shape="392,1,1,1" size="1568"/>
			<output>
				<port id="1" precision="FP32">
					<dim>392</dim>
					<dim>1</dim>
					<dim>1</dim>
					<dim>1</dim>
				</port>
			</output>
		</layer>
		<layer id="270" name="27262730_const" type="Const" version="opset1">
			<data element_type="f32" offset="2311924" shape="392,1,1,1" size="1568"/>
			<output>
				<port id="1" precision="FP32">
					<dim>392</dim>
					<dim>1</dim>
					<dim>1</dim>
					<dim>1</dim>
				</port>
			</output>
		</layer>
		<layer id="271" name="conv5_2/sep/fq_weights_1" type="FakeQuantize" version="opset1">
			<data levels="255"/>
			<input>
				<port id="0">
					<dim>392</dim>
					<dim>400</dim>
					<dim>1</dim>
					<dim>1</dim>
				</port>
				<port id="1">
					<dim>392</dim>
					<dim>1</dim>
					<dim>1</dim>
					<dim>1</dim>
				</port>
				<port id="2">
					<dim>392</dim>
					<dim>1</dim>
					<dim>1</dim>
					<dim>1</dim>
				</port>
				<port id="3">
					<dim>392</dim>
					<dim>1</dim>
					<dim>1</dim>
					<dim>1</dim>
				</port>
				<port id="4">
					<dim>392</dim>
					<dim>1</dim>
					<dim>1</dim>
					<dim>1</dim>
				</port>
			</input>
			<output>
				<port id="5" precision="FP32">
					<dim>392</dim>
					<dim>400</dim>
					<dim>1</dim>
					<dim>1</dim>
				</port>
			</output>
		</layer>
		<layer id="272" name="conv5_2/sep" type="Convolution" version="opset1">
			<data dilations="1,1" output_padding="0,0" pads_begin="0,0" pads_end="0,0" strides="1,1"/>
			<input>
				<port id="0">
					<dim>1</dim>
					<dim>400</dim>
					<dim>24</dim>
					<dim>42</dim>
				</port>
				<port id="1">
					<dim>392</dim>
					<dim>400</dim>
					<dim>1</dim>
					<dim>1</dim>
				</port>
			</input>
			<output>
				<port id="2" precision="FP32">
					<dim>1</dim>
					<dim>392</dim>
					<dim>24</dim>
					<dim>42</dim>
				</port>
			</output>
		</layer>
		<layer id="273" name="data_add_1116411169/copy_const662_const" type="Const" version="opset1">
			<data element_type="f32" offset="2313492" shape="1,392,1,1" size="1568"/>
			<output>
				<port id="1" precision="FP32">
					<dim>1</dim>
					<dim>392</dim>
					<dim>1</dim>
					<dim>1</dim>
				</port>
			</output>
		</layer>
		<layer id="274" name="Add1_9880/Fused_Add_" type="Add" version="opset1">
			<input>
				<port id="0">
					<dim>1</dim>
					<dim>392</dim>
					<dim>24</dim>
					<dim>42</dim>
				</port>
				<port id="1">
					<dim>1</dim>
					<dim>392</dim>
					<dim>1</dim>
					<dim>1</dim>
				</port>
			</input>
			<output>
				<port id="2" precision="FP32">
					<dim>1</dim>
					<dim>392</dim>
					<dim>24</dim>
					<dim>42</dim>
				</port>
			</output>
		</layer>
		<layer id="275" name="relu5_2/sep" type="ReLU" version="opset1">
			<input>
				<port id="0">
					<dim>1</dim>
					<dim>392</dim>
					<dim>24</dim>
					<dim>42</dim>
				</port>
			</input>
			<output>
				<port id="1" precision="FP32">
					<dim>1</dim>
					<dim>392</dim>
					<dim>24</dim>
					<dim>42</dim>
				</port>
			</output>
		</layer>
		<layer id="276" name="19731977_const" type="Const" version="opset1">
			<data element_type="f32" offset="2315060" shape="1,392,1,1" size="1568"/>
			<output>
				<port id="1" precision="FP32">
					<dim>1</dim>
					<dim>392</dim>
					<dim>1</dim>
					<dim>1</dim>
				</port>
			</output>
		</layer>
		<layer id="277" name="19741978_const" type="Const" version="opset1">
			<data element_type="f32" offset="2316628" shape="1,392,1,1" size="1568"/>
			<output>
				<port id="1" precision="FP32">
					<dim>1</dim>
					<dim>392</dim>
					<dim>1</dim>
					<dim>1</dim>
				</port>
			</output>
		</layer>
		<layer id="278" name="19751979_const" type="Const" version="opset1">
			<data element_type="f32" offset="2315060" shape="1,392,1,1" size="1568"/>
			<output>
				<port id="1" precision="FP32">
					<dim>1</dim>
					<dim>392</dim>
					<dim>1</dim>
					<dim>1</dim>
				</port>
			</output>
		</layer>
		<layer id="279" name="19761980_const" type="Const" version="opset1">
			<data element_type="f32" offset="2316628" shape="1,392,1,1" size="1568"/>
			<output>
				<port id="1" precision="FP32">
					<dim>1</dim>
					<dim>392</dim>
					<dim>1</dim>
					<dim>1</dim>
				</port>
			</output>
		</layer>
		<layer id="280" name="conv5_3/dw/fq_input_0" type="FakeQuantize" version="opset1">
			<data levels="256"/>
			<input>
				<port id="0">
					<dim>1</dim>
					<dim>392</dim>
					<dim>24</dim>
					<dim>42</dim>
				</port>
				<port id="1">
					<dim>1</dim>
					<dim>392</dim>
					<dim>1</dim>
					<dim>1</dim>
				</port>
				<port id="2">
					<dim>1</dim>
					<dim>392</dim>
					<dim>1</dim>
					<dim>1</dim>
				</port>
				<port id="3">
					<dim>1</dim>
					<dim>392</dim>
					<dim>1</dim>
					<dim>1</dim>
				</port>
				<port id="4">
					<dim>1</dim>
					<dim>392</dim>
					<dim>1</dim>
					<dim>1</dim>
				</port>
			</input>
			<output>
				<port id="5" precision="FP32">
					<dim>1</dim>
					<dim>392</dim>
					<dim>24</dim>
					<dim>42</dim>
				</port>
			</output>
		</layer>
		<layer id="281" name="13441130_const" type="Const" version="opset1">
			<data element_type="f32" offset="2318196" shape="392,1,3,3" size="14112"/>
			<output>
				<port id="1" precision="FP32">
					<dim>392</dim>
					<dim>1</dim>
					<dim>3</dim>
					<dim>3</dim>
				</port>
			</output>
		</layer>
		<layer id="282" name="19831987_const" type="Const" version="opset1">
			<data element_type="f32" offset="2332308" shape="392,1,1,1" size="1568"/>
			<output>
				<port id="1" precision="FP32">
					<dim>392</dim>
					<dim>1</dim>
					<dim>1</dim>
					<dim>1</dim>
				</port>
			</output>
		</layer>
		<layer id="283" name="19841988_const" type="Const" version="opset1">
			<data element_type="f32" offset="2333876" shape="392,1,1,1" size="1568"/>
			<output>
				<port id="1" precision="FP32">
					<dim>392</dim>
					<dim>1</dim>
					<dim>1</dim>
					<dim>1</dim>
				</port>
			</output>
		</layer>
		<layer id="284" name="19851989_const" type="Const" version="opset1">
			<data element_type="f32" offset="2332308" shape="392,1,1,1" size="1568"/>
			<output>
				<port id="1" precision="FP32">
					<dim>392</dim>
					<dim>1</dim>
					<dim>1</dim>
					<dim>1</dim>
				</port>
			</output>
		</layer>
		<layer id="285" name="19861990_const" type="Const" version="opset1">
			<data element_type="f32" offset="2333876" shape="392,1,1,1" size="1568"/>
			<output>
				<port id="1" precision="FP32">
					<dim>392</dim>
					<dim>1</dim>
					<dim>1</dim>
					<dim>1</dim>
				</port>
			</output>
		</layer>
		<layer id="286" name="conv5_3/dw/fq_weights_1" type="FakeQuantize" version="opset1">
			<data levels="255"/>
			<input>
				<port id="0">
					<dim>392</dim>
					<dim>1</dim>
					<dim>3</dim>
					<dim>3</dim>
				</port>
				<port id="1">
					<dim>392</dim>
					<dim>1</dim>
					<dim>1</dim>
					<dim>1</dim>
				</port>
				<port id="2">
					<dim>392</dim>
					<dim>1</dim>
					<dim>1</dim>
					<dim>1</dim>
				</port>
				<port id="3">
					<dim>392</dim>
					<dim>1</dim>
					<dim>1</dim>
					<dim>1</dim>
				</port>
				<port id="4">
					<dim>392</dim>
					<dim>1</dim>
					<dim>1</dim>
					<dim>1</dim>
				</port>
			</input>
			<output>
				<port id="5" precision="FP32">
					<dim>392</dim>
					<dim>1</dim>
					<dim>3</dim>
					<dim>3</dim>
				</port>
			</output>
		</layer>
		<layer id="287" name="4864/value4866_const" type="Const" version="opset1">
			<data element_type="i64" offset="2335444" shape="5" size="40"/>
			<output>
				<port id="1" precision="I64">
					<dim>5</dim>
				</port>
			</output>
		</layer>
		<layer id="288" name="4864" type="Reshape" version="opset1">
			<data special_zero="True"/>
			<input>
				<port id="0">
					<dim>392</dim>
					<dim>1</dim>
					<dim>3</dim>
					<dim>3</dim>
				</port>
				<port id="1">
					<dim>5</dim>
				</port>
			</input>
			<output>
				<port id="2" precision="FP32">
					<dim>392</dim>
					<dim>1</dim>
					<dim>1</dim>
					<dim>3</dim>
					<dim>3</dim>
				</port>
			</output>
		</layer>
		<layer id="289" name="conv5_3/dw" type="GroupConvolution" version="opset1">
			<data dilations="1,1" output_padding="0,0" pads_begin="1,1" pads_end="1,1" strides="1,1"/>
			<input>
				<port id="0">
					<dim>1</dim>
					<dim>392</dim>
					<dim>24</dim>
					<dim>42</dim>
				</port>
				<port id="1">
					<dim>392</dim>
					<dim>1</dim>
					<dim>1</dim>
					<dim>3</dim>
					<dim>3</dim>
				</port>
			</input>
			<output>
				<port id="2" precision="FP32">
					<dim>1</dim>
					<dim>392</dim>
					<dim>24</dim>
					<dim>42</dim>
				</port>
			</output>
		</layer>
		<layer id="290" name="data_add_1117211177/copy_const667_const" type="Const" version="opset1">
			<data element_type="f32" offset="2335484" shape="1,392,1,1" size="1568"/>
			<output>
				<port id="1" precision="FP32">
					<dim>1</dim>
					<dim>392</dim>
					<dim>1</dim>
					<dim>1</dim>
				</port>
			</output>
		</layer>
		<layer id="291" name="Add1_9892/Fused_Add_" type="Add" version="opset1">
			<input>
				<port id="0">
					<dim>1</dim>
					<dim>392</dim>
					<dim>24</dim>
					<dim>42</dim>
				</port>
				<port id="1">
					<dim>1</dim>
					<dim>392</dim>
					<dim>1</dim>
					<dim>1</dim>
				</port>
			</input>
			<output>
				<port id="2" precision="FP32">
					<dim>1</dim>
					<dim>392</dim>
					<dim>24</dim>
					<dim>42</dim>
				</port>
			</output>
		</layer>
		<layer id="292" name="relu5_3/dw" type="ReLU" version="opset1">
			<input>
				<port id="0">
					<dim>1</dim>
					<dim>392</dim>
					<dim>24</dim>
					<dim>42</dim>
				</port>
			</input>
			<output>
				<port id="1" precision="FP32">
					<dim>1</dim>
					<dim>392</dim>
					<dim>24</dim>
					<dim>42</dim>
				</port>
			</output>
		</layer>
		<layer id="293" name="20332037_const" type="Const" version="opset1">
			<data element_type="f32" offset="5952" shape="" size="4"/>
			<output>
				<port id="1" precision="FP32"/>
			</output>
		</layer>
		<layer id="294" name="20342038_const" type="Const" version="opset1">
			<data element_type="f32" offset="2337052" shape="" size="4"/>
			<output>
				<port id="1" precision="FP32"/>
			</output>
		</layer>
		<layer id="295" name="20352039_const" type="Const" version="opset1">
			<data element_type="f32" offset="5952" shape="" size="4"/>
			<output>
				<port id="1" precision="FP32"/>
			</output>
		</layer>
		<layer id="296" name="20362040_const" type="Const" version="opset1">
			<data element_type="f32" offset="2337052" shape="" size="4"/>
			<output>
				<port id="1" precision="FP32"/>
			</output>
		</layer>
		<layer id="297" name="conv5_3/sep/fq_input_0" type="FakeQuantize" version="opset1">
			<data levels="256"/>
			<input>
				<port id="0">
					<dim>1</dim>
					<dim>392</dim>
					<dim>24</dim>
					<dim>42</dim>
				</port>
				<port id="1"/>
				<port id="2"/>
				<port id="3"/>
				<port id="4"/>
			</input>
			<output>
				<port id="5" precision="FP32">
					<dim>1</dim>
					<dim>392</dim>
					<dim>24</dim>
					<dim>42</dim>
				</port>
			</output>
		</layer>
		<layer id="298" name="Mul1_9903/Fused_Mul_1192211924_const670_const" type="Const" version="opset1">
			<data element_type="f32" offset="2337056" shape="336,392,1,1" size="526848"/>
			<output>
				<port id="1" precision="FP32">
					<dim>336</dim>
					<dim>392</dim>
					<dim>1</dim>
					<dim>1</dim>
				</port>
			</output>
		</layer>
		<layer id="299" name="20432047_const" type="Const" version="opset1">
			<data element_type="f32" offset="2863904" shape="336,1,1,1" size="1344"/>
			<output>
				<port id="1" precision="FP32">
					<dim>336</dim>
					<dim>1</dim>
					<dim>1</dim>
					<dim>1</dim>
				</port>
			</output>
		</layer>
		<layer id="300" name="20442048_const" type="Const" version="opset1">
			<data element_type="f32" offset="2865248" shape="336,1,1,1" size="1344"/>
			<output>
				<port id="1" precision="FP32">
					<dim>336</dim>
					<dim>1</dim>
					<dim>1</dim>
					<dim>1</dim>
				</port>
			</output>
		</layer>
		<layer id="301" name="20452049_const" type="Const" version="opset1">
			<data element_type="f32" offset="2863904" shape="336,1,1,1" size="1344"/>
			<output>
				<port id="1" precision="FP32">
					<dim>336</dim>
					<dim>1</dim>
					<dim>1</dim>
					<dim>1</dim>
				</port>
			</output>
		</layer>
		<layer id="302" name="20462050_const" type="Const" version="opset1">
			<data element_type="f32" offset="2865248" shape="336,1,1,1" size="1344"/>
			<output>
				<port id="1" precision="FP32">
					<dim>336</dim>
					<dim>1</dim>
					<dim>1</dim>
					<dim>1</dim>
				</port>
			</output>
		</layer>
		<layer id="303" name="conv5_3/sep/fq_weights_1" type="FakeQuantize" version="opset1">
			<data levels="255"/>
			<input>
				<port id="0">
					<dim>336</dim>
					<dim>392</dim>
					<dim>1</dim>
					<dim>1</dim>
				</port>
				<port id="1">
					<dim>336</dim>
					<dim>1</dim>
					<dim>1</dim>
					<dim>1</dim>
				</port>
				<port id="2">
					<dim>336</dim>
					<dim>1</dim>
					<dim>1</dim>
					<dim>1</dim>
				</port>
				<port id="3">
					<dim>336</dim>
					<dim>1</dim>
					<dim>1</dim>
					<dim>1</dim>
				</port>
				<port id="4">
					<dim>336</dim>
					<dim>1</dim>
					<dim>1</dim>
					<dim>1</dim>
				</port>
			</input>
			<output>
				<port id="5" precision="FP32">
					<dim>336</dim>
					<dim>392</dim>
					<dim>1</dim>
					<dim>1</dim>
				</port>
			</output>
		</layer>
		<layer id="304" name="conv5_3/sep" type="Convolution" version="opset1">
			<data dilations="1,1" output_padding="0,0" pads_begin="0,0" pads_end="0,0" strides="1,1"/>
			<input>
				<port id="0">
					<dim>1</dim>
					<dim>392</dim>
					<dim>24</dim>
					<dim>42</dim>
				</port>
				<port id="1">
					<dim>336</dim>
					<dim>392</dim>
					<dim>1</dim>
					<dim>1</dim>
				</port>
			</input>
			<output>
				<port id="2" precision="FP32">
					<dim>1</dim>
					<dim>336</dim>
					<dim>24</dim>
					<dim>42</dim>
				</port>
			</output>
		</layer>
		<layer id="305" name="data_add_1118011185/copy_const672_const" type="Const" version="opset1">
			<data element_type="f32" offset="2866592" shape="1,336,1,1" size="1344"/>
			<output>
				<port id="1" precision="FP32">
					<dim>1</dim>
					<dim>336</dim>
					<dim>1</dim>
					<dim>1</dim>
				</port>
			</output>
		</layer>
		<layer id="306" name="Add1_9904/Fused_Add_" type="Add" version="opset1">
			<input>
				<port id="0">
					<dim>1</dim>
					<dim>336</dim>
					<dim>24</dim>
					<dim>42</dim>
				</port>
				<port id="1">
					<dim>1</dim>
					<dim>336</dim>
					<dim>1</dim>
					<dim>1</dim>
				</port>
			</input>
			<output>
				<port id="2" precision="FP32">
					<dim>1</dim>
					<dim>336</dim>
					<dim>24</dim>
					<dim>42</dim>
				</port>
			</output>
		</layer>
		<layer id="307" name="relu5_3/sep" type="ReLU" version="opset1">
			<input>
				<port id="0">
					<dim>1</dim>
					<dim>336</dim>
					<dim>24</dim>
					<dim>42</dim>
				</port>
			</input>
			<output>
				<port id="1" precision="FP32">
					<dim>1</dim>
					<dim>336</dim>
					<dim>24</dim>
					<dim>42</dim>
				</port>
			</output>
		</layer>
		<layer id="308" name="23532357_const" type="Const" version="opset1">
			<data element_type="f32" offset="2867936" shape="1,336,1,1" size="1344"/>
			<output>
				<port id="1" precision="FP32">
					<dim>1</dim>
					<dim>336</dim>
					<dim>1</dim>
					<dim>1</dim>
				</port>
			</output>
		</layer>
		<layer id="309" name="23542358_const" type="Const" version="opset1">
			<data element_type="f32" offset="2869280" shape="1,336,1,1" size="1344"/>
			<output>
				<port id="1" precision="FP32">
					<dim>1</dim>
					<dim>336</dim>
					<dim>1</dim>
					<dim>1</dim>
				</port>
			</output>
		</layer>
		<layer id="310" name="23552359_const" type="Const" version="opset1">
			<data element_type="f32" offset="2867936" shape="1,336,1,1" size="1344"/>
			<output>
				<port id="1" precision="FP32">
					<dim>1</dim>
					<dim>336</dim>
					<dim>1</dim>
					<dim>1</dim>
				</port>
			</output>
		</layer>
		<layer id="311" name="23562360_const" type="Const" version="opset1">
			<data element_type="f32" offset="2869280" shape="1,336,1,1" size="1344"/>
			<output>
				<port id="1" precision="FP32">
					<dim>1</dim>
					<dim>336</dim>
					<dim>1</dim>
					<dim>1</dim>
				</port>
			</output>
		</layer>
		<layer id="312" name="conv5_4/dw/fq_input_0" type="FakeQuantize" version="opset1">
			<data levels="256"/>
			<input>
				<port id="0">
					<dim>1</dim>
					<dim>336</dim>
					<dim>24</dim>
					<dim>42</dim>
				</port>
				<port id="1">
					<dim>1</dim>
					<dim>336</dim>
					<dim>1</dim>
					<dim>1</dim>
				</port>
				<port id="2">
					<dim>1</dim>
					<dim>336</dim>
					<dim>1</dim>
					<dim>1</dim>
				</port>
				<port id="3">
					<dim>1</dim>
					<dim>336</dim>
					<dim>1</dim>
					<dim>1</dim>
				</port>
				<port id="4">
					<dim>1</dim>
					<dim>336</dim>
					<dim>1</dim>
					<dim>1</dim>
				</port>
			</input>
			<output>
				<port id="5" precision="FP32">
					<dim>1</dim>
					<dim>336</dim>
					<dim>24</dim>
					<dim>42</dim>
				</port>
			</output>
		</layer>
		<layer id="313" name="13481132_const" type="Const" version="opset1">
			<data element_type="f32" offset="2870624" shape="336,1,3,3" size="12096"/>
			<output>
				<port id="1" precision="FP32">
					<dim>336</dim>
					<dim>1</dim>
					<dim>3</dim>
					<dim>3</dim>
				</port>
			</output>
		</layer>
		<layer id="314" name="23632367_const" type="Const" version="opset1">
			<data element_type="f32" offset="2882720" shape="336,1,1,1" size="1344"/>
			<output>
				<port id="1" precision="FP32">
					<dim>336</dim>
					<dim>1</dim>
					<dim>1</dim>
					<dim>1</dim>
				</port>
			</output>
		</layer>
		<layer id="315" name="23642368_const" type="Const" version="opset1">
			<data element_type="f32" offset="2884064" shape="336,1,1,1" size="1344"/>
			<output>
				<port id="1" precision="FP32">
					<dim>336</dim>
					<dim>1</dim>
					<dim>1</dim>
					<dim>1</dim>
				</port>
			</output>
		</layer>
		<layer id="316" name="23652369_const" type="Const" version="opset1">
			<data element_type="f32" offset="2882720" shape="336,1,1,1" size="1344"/>
			<output>
				<port id="1" precision="FP32">
					<dim>336</dim>
					<dim>1</dim>
					<dim>1</dim>
					<dim>1</dim>
				</port>
			</output>
		</layer>
		<layer id="317" name="23662370_const" type="Const" version="opset1">
			<data element_type="f32" offset="2884064" shape="336,1,1,1" size="1344"/>
			<output>
				<port id="1" precision="FP32">
					<dim>336</dim>
					<dim>1</dim>
					<dim>1</dim>
					<dim>1</dim>
				</port>
			</output>
		</layer>
		<layer id="318" name="conv5_4/dw/fq_weights_1" type="FakeQuantize" version="opset1">
			<data levels="255"/>
			<input>
				<port id="0">
					<dim>336</dim>
					<dim>1</dim>
					<dim>3</dim>
					<dim>3</dim>
				</port>
				<port id="1">
					<dim>336</dim>
					<dim>1</dim>
					<dim>1</dim>
					<dim>1</dim>
				</port>
				<port id="2">
					<dim>336</dim>
					<dim>1</dim>
					<dim>1</dim>
					<dim>1</dim>
				</port>
				<port id="3">
					<dim>336</dim>
					<dim>1</dim>
					<dim>1</dim>
					<dim>1</dim>
				</port>
				<port id="4">
					<dim>336</dim>
					<dim>1</dim>
					<dim>1</dim>
					<dim>1</dim>
				</port>
			</input>
			<output>
				<port id="5" precision="FP32">
					<dim>336</dim>
					<dim>1</dim>
					<dim>3</dim>
					<dim>3</dim>
				</port>
			</output>
		</layer>
		<layer id="319" name="4888/value4890_const" type="Const" version="opset1">
			<data element_type="i64" offset="2885408" shape="5" size="40"/>
			<output>
				<port id="1" precision="I64">
					<dim>5</dim>
				</port>
			</output>
		</layer>
		<layer id="320" name="4888" type="Reshape" version="opset1">
			<data special_zero="True"/>
			<input>
				<port id="0">
					<dim>336</dim>
					<dim>1</dim>
					<dim>3</dim>
					<dim>3</dim>
				</port>
				<port id="1">
					<dim>5</dim>
				</port>
			</input>
			<output>
				<port id="2" precision="FP32">
					<dim>336</dim>
					<dim>1</dim>
					<dim>1</dim>
					<dim>3</dim>
					<dim>3</dim>
				</port>
			</output>
		</layer>
		<layer id="321" name="conv5_4/dw" type="GroupConvolution" version="opset1">
			<data dilations="1,1" output_padding="0,0" pads_begin="1,1" pads_end="1,1" strides="1,1"/>
			<input>
				<port id="0">
					<dim>1</dim>
					<dim>336</dim>
					<dim>24</dim>
					<dim>42</dim>
				</port>
				<port id="1">
					<dim>336</dim>
					<dim>1</dim>
					<dim>1</dim>
					<dim>3</dim>
					<dim>3</dim>
				</port>
			</input>
			<output>
				<port id="2" precision="FP32">
					<dim>1</dim>
					<dim>336</dim>
					<dim>24</dim>
					<dim>42</dim>
				</port>
			</output>
		</layer>
		<layer id="322" name="data_add_1118811193/copy_const677_const" type="Const" version="opset1">
			<data element_type="f32" offset="2885448" shape="1,336,1,1" size="1344"/>
			<output>
				<port id="1" precision="FP32">
					<dim>1</dim>
					<dim>336</dim>
					<dim>1</dim>
					<dim>1</dim>
				</port>
			</output>
		</layer>
		<layer id="323" name="Add1_9916/Fused_Add_" type="Add" version="opset1">
			<input>
				<port id="0">
					<dim>1</dim>
					<dim>336</dim>
					<dim>24</dim>
					<dim>42</dim>
				</port>
				<port id="1">
					<dim>1</dim>
					<dim>336</dim>
					<dim>1</dim>
					<dim>1</dim>
				</port>
			</input>
			<output>
				<port id="2" precision="FP32">
					<dim>1</dim>
					<dim>336</dim>
					<dim>24</dim>
					<dim>42</dim>
				</port>
			</output>
		</layer>
		<layer id="324" name="relu5_4/dw" type="ReLU" version="opset1">
			<input>
				<port id="0">
					<dim>1</dim>
					<dim>336</dim>
					<dim>24</dim>
					<dim>42</dim>
				</port>
			</input>
			<output>
				<port id="1" precision="FP32">
					<dim>1</dim>
					<dim>336</dim>
					<dim>24</dim>
					<dim>42</dim>
				</port>
			</output>
		</layer>
		<layer id="325" name="16331637_const" type="Const" version="opset1">
			<data element_type="f32" offset="5952" shape="" size="4"/>
			<output>
				<port id="1" precision="FP32"/>
			</output>
		</layer>
		<layer id="326" name="16341638_const" type="Const" version="opset1">
			<data element_type="f32" offset="2886792" shape="" size="4"/>
			<output>
				<port id="1" precision="FP32"/>
			</output>
		</layer>
		<layer id="327" name="16351639_const" type="Const" version="opset1">
			<data element_type="f32" offset="5952" shape="" size="4"/>
			<output>
				<port id="1" precision="FP32"/>
			</output>
		</layer>
		<layer id="328" name="16361640_const" type="Const" version="opset1">
			<data element_type="f32" offset="2886792" shape="" size="4"/>
			<output>
				<port id="1" precision="FP32"/>
			</output>
		</layer>
		<layer id="329" name="conv5_4/sep/fq_input_0" type="FakeQuantize" version="opset1">
			<data levels="256"/>
			<input>
				<port id="0">
					<dim>1</dim>
					<dim>336</dim>
					<dim>24</dim>
					<dim>42</dim>
				</port>
				<port id="1"/>
				<port id="2"/>
				<port id="3"/>
				<port id="4"/>
			</input>
			<output>
				<port id="5" precision="FP32">
					<dim>1</dim>
					<dim>336</dim>
					<dim>24</dim>
					<dim>42</dim>
				</port>
			</output>
		</layer>
		<layer id="330" name="Mul1_9927/Fused_Mul_1193011932_const680_const" type="Const" version="opset1">
			<data element_type="f32" offset="2886796" shape="368,336,1,1" size="494592"/>
			<output>
				<port id="1" precision="FP32">
					<dim>368</dim>
					<dim>336</dim>
					<dim>1</dim>
					<dim>1</dim>
				</port>
			</output>
		</layer>
		<layer id="331" name="16431647_const" type="Const" version="opset1">
			<data element_type="f32" offset="3381388" shape="368,1,1,1" size="1472"/>
			<output>
				<port id="1" precision="FP32">
					<dim>368</dim>
					<dim>1</dim>
					<dim>1</dim>
					<dim>1</dim>
				</port>
			</output>
		</layer>
		<layer id="332" name="16441648_const" type="Const" version="opset1">
			<data element_type="f32" offset="3382860" shape="368,1,1,1" size="1472"/>
			<output>
				<port id="1" precision="FP32">
					<dim>368</dim>
					<dim>1</dim>
					<dim>1</dim>
					<dim>1</dim>
				</port>
			</output>
		</layer>
		<layer id="333" name="16451649_const" type="Const" version="opset1">
			<data element_type="f32" offset="3381388" shape="368,1,1,1" size="1472"/>
			<output>
				<port id="1" precision="FP32">
					<dim>368</dim>
					<dim>1</dim>
					<dim>1</dim>
					<dim>1</dim>
				</port>
			</output>
		</layer>
		<layer id="334" name="16461650_const" type="Const" version="opset1">
			<data element_type="f32" offset="3382860" shape="368,1,1,1" size="1472"/>
			<output>
				<port id="1" precision="FP32">
					<dim>368</dim>
					<dim>1</dim>
					<dim>1</dim>
					<dim>1</dim>
				</port>
			</output>
		</layer>
		<layer id="335" name="conv5_4/sep/fq_weights_1" type="FakeQuantize" version="opset1">
			<data levels="255"/>
			<input>
				<port id="0">
					<dim>368</dim>
					<dim>336</dim>
					<dim>1</dim>
					<dim>1</dim>
				</port>
				<port id="1">
					<dim>368</dim>
					<dim>1</dim>
					<dim>1</dim>
					<dim>1</dim>
				</port>
				<port id="2">
					<dim>368</dim>
					<dim>1</dim>
					<dim>1</dim>
					<dim>1</dim>
				</port>
				<port id="3">
					<dim>368</dim>
					<dim>1</dim>
					<dim>1</dim>
					<dim>1</dim>
				</port>
				<port id="4">
					<dim>368</dim>
					<dim>1</dim>
					<dim>1</dim>
					<dim>1</dim>
				</port>
			</input>
			<output>
				<port id="5" precision="FP32">
					<dim>368</dim>
					<dim>336</dim>
					<dim>1</dim>
					<dim>1</dim>
				</port>
			</output>
		</layer>
		<layer id="336" name="conv5_4/sep" type="Convolution" version="opset1">
			<data dilations="1,1" output_padding="0,0" pads_begin="0,0" pads_end="0,0" strides="1,1"/>
			<input>
				<port id="0">
					<dim>1</dim>
					<dim>336</dim>
					<dim>24</dim>
					<dim>42</dim>
				</port>
				<port id="1">
					<dim>368</dim>
					<dim>336</dim>
					<dim>1</dim>
					<dim>1</dim>
				</port>
			</input>
			<output>
				<port id="2" precision="FP32">
					<dim>1</dim>
					<dim>368</dim>
					<dim>24</dim>
					<dim>42</dim>
				</port>
			</output>
		</layer>
		<layer id="337" name="data_add_1119611201/copy_const682_const" type="Const" version="opset1">
			<data element_type="f32" offset="3384332" shape="1,368,1,1" size="1472"/>
			<output>
				<port id="1" precision="FP32">
					<dim>1</dim>
					<dim>368</dim>
					<dim>1</dim>
					<dim>1</dim>
				</port>
			</output>
		</layer>
		<layer id="338" name="Add1_9928/Fused_Add_" type="Add" version="opset1">
			<input>
				<port id="0">
					<dim>1</dim>
					<dim>368</dim>
					<dim>24</dim>
					<dim>42</dim>
				</port>
				<port id="1">
					<dim>1</dim>
					<dim>368</dim>
					<dim>1</dim>
					<dim>1</dim>
				</port>
			</input>
			<output>
				<port id="2" precision="FP32">
					<dim>1</dim>
					<dim>368</dim>
					<dim>24</dim>
					<dim>42</dim>
				</port>
			</output>
		</layer>
		<layer id="339" name="relu5_4/sep" type="ReLU" version="opset1">
			<input>
				<port id="0">
					<dim>1</dim>
					<dim>368</dim>
					<dim>24</dim>
					<dim>42</dim>
				</port>
			</input>
			<output>
				<port id="1" precision="FP32">
					<dim>1</dim>
					<dim>368</dim>
					<dim>24</dim>
					<dim>42</dim>
				</port>
			</output>
		</layer>
		<layer id="340" name="23932397_const" type="Const" version="opset1">
			<data element_type="f32" offset="3385804" shape="1,368,1,1" size="1472"/>
			<output>
				<port id="1" precision="FP32">
					<dim>1</dim>
					<dim>368</dim>
					<dim>1</dim>
					<dim>1</dim>
				</port>
			</output>
		</layer>
		<layer id="341" name="23942398_const" type="Const" version="opset1">
			<data element_type="f32" offset="3387276" shape="1,368,1,1" size="1472"/>
			<output>
				<port id="1" precision="FP32">
					<dim>1</dim>
					<dim>368</dim>
					<dim>1</dim>
					<dim>1</dim>
				</port>
			</output>
		</layer>
		<layer id="342" name="23952399_const" type="Const" version="opset1">
			<data element_type="f32" offset="3385804" shape="1,368,1,1" size="1472"/>
			<output>
				<port id="1" precision="FP32">
					<dim>1</dim>
					<dim>368</dim>
					<dim>1</dim>
					<dim>1</dim>
				</port>
			</output>
		</layer>
		<layer id="343" name="23962400_const" type="Const" version="opset1">
			<data element_type="f32" offset="3387276" shape="1,368,1,1" size="1472"/>
			<output>
				<port id="1" precision="FP32">
					<dim>1</dim>
					<dim>368</dim>
					<dim>1</dim>
					<dim>1</dim>
				</port>
			</output>
		</layer>
		<layer id="344" name="conv5_5/dw/fq_input_0" type="FakeQuantize" version="opset1">
			<data levels="256"/>
			<input>
				<port id="0">
					<dim>1</dim>
					<dim>368</dim>
					<dim>24</dim>
					<dim>42</dim>
				</port>
				<port id="1">
					<dim>1</dim>
					<dim>368</dim>
					<dim>1</dim>
					<dim>1</dim>
				</port>
				<port id="2">
					<dim>1</dim>
					<dim>368</dim>
					<dim>1</dim>
					<dim>1</dim>
				</port>
				<port id="3">
					<dim>1</dim>
					<dim>368</dim>
					<dim>1</dim>
					<dim>1</dim>
				</port>
				<port id="4">
					<dim>1</dim>
					<dim>368</dim>
					<dim>1</dim>
					<dim>1</dim>
				</port>
			</input>
			<output>
				<port id="5" precision="FP32">
					<dim>1</dim>
					<dim>368</dim>
					<dim>24</dim>
					<dim>42</dim>
				</port>
			</output>
		</layer>
		<layer id="345" name="13521134_const" type="Const" version="opset1">
			<data element_type="f32" offset="3388748" shape="368,1,3,3" size="13248"/>
			<output>
				<port id="1" precision="FP32">
					<dim>368</dim>
					<dim>1</dim>
					<dim>3</dim>
					<dim>3</dim>
				</port>
			</output>
		</layer>
		<layer id="346" name="24032407_const" type="Const" version="opset1">
			<data element_type="f32" offset="3401996" shape="368,1,1,1" size="1472"/>
			<output>
				<port id="1" precision="FP32">
					<dim>368</dim>
					<dim>1</dim>
					<dim>1</dim>
					<dim>1</dim>
				</port>
			</output>
		</layer>
		<layer id="347" name="24042408_const" type="Const" version="opset1">
			<data element_type="f32" offset="3403468" shape="368,1,1,1" size="1472"/>
			<output>
				<port id="1" precision="FP32">
					<dim>368</dim>
					<dim>1</dim>
					<dim>1</dim>
					<dim>1</dim>
				</port>
			</output>
		</layer>
		<layer id="348" name="24052409_const" type="Const" version="opset1">
			<data element_type="f32" offset="3401996" shape="368,1,1,1" size="1472"/>
			<output>
				<port id="1" precision="FP32">
					<dim>368</dim>
					<dim>1</dim>
					<dim>1</dim>
					<dim>1</dim>
				</port>
			</output>
		</layer>
		<layer id="349" name="24062410_const" type="Const" version="opset1">
			<data element_type="f32" offset="3403468" shape="368,1,1,1" size="1472"/>
			<output>
				<port id="1" precision="FP32">
					<dim>368</dim>
					<dim>1</dim>
					<dim>1</dim>
					<dim>1</dim>
				</port>
			</output>
		</layer>
		<layer id="350" name="conv5_5/dw/fq_weights_1" type="FakeQuantize" version="opset1">
			<data levels="255"/>
			<input>
				<port id="0">
					<dim>368</dim>
					<dim>1</dim>
					<dim>3</dim>
					<dim>3</dim>
				</port>
				<port id="1">
					<dim>368</dim>
					<dim>1</dim>
					<dim>1</dim>
					<dim>1</dim>
				</port>
				<port id="2">
					<dim>368</dim>
					<dim>1</dim>
					<dim>1</dim>
					<dim>1</dim>
				</port>
				<port id="3">
					<dim>368</dim>
					<dim>1</dim>
					<dim>1</dim>
					<dim>1</dim>
				</port>
				<port id="4">
					<dim>368</dim>
					<dim>1</dim>
					<dim>1</dim>
					<dim>1</dim>
				</port>
			</input>
			<output>
				<port id="5" precision="FP32">
					<dim>368</dim>
					<dim>1</dim>
					<dim>3</dim>
					<dim>3</dim>
				</port>
			</output>
		</layer>
		<layer id="351" name="4848/value4850_const" type="Const" version="opset1">
			<data element_type="i64" offset="3404940" shape="5" size="40"/>
			<output>
				<port id="1" precision="I64">
					<dim>5</dim>
				</port>
			</output>
		</layer>
		<layer id="352" name="4848" type="Reshape" version="opset1">
			<data special_zero="True"/>
			<input>
				<port id="0">
					<dim>368</dim>
					<dim>1</dim>
					<dim>3</dim>
					<dim>3</dim>
				</port>
				<port id="1">
					<dim>5</dim>
				</port>
			</input>
			<output>
				<port id="2" precision="FP32">
					<dim>368</dim>
					<dim>1</dim>
					<dim>1</dim>
					<dim>3</dim>
					<dim>3</dim>
				</port>
			</output>
		</layer>
		<layer id="353" name="conv5_5/dw" type="GroupConvolution" version="opset1">
			<data dilations="1,1" output_padding="0,0" pads_begin="1,1" pads_end="1,1" strides="1,1"/>
			<input>
				<port id="0">
					<dim>1</dim>
					<dim>368</dim>
					<dim>24</dim>
					<dim>42</dim>
				</port>
				<port id="1">
					<dim>368</dim>
					<dim>1</dim>
					<dim>1</dim>
					<dim>3</dim>
					<dim>3</dim>
				</port>
			</input>
			<output>
				<port id="2" precision="FP32">
					<dim>1</dim>
					<dim>368</dim>
					<dim>24</dim>
					<dim>42</dim>
				</port>
			</output>
		</layer>
		<layer id="354" name="data_add_1120411209/copy_const687_const" type="Const" version="opset1">
			<data element_type="f32" offset="3404980" shape="1,368,1,1" size="1472"/>
			<output>
				<port id="1" precision="FP32">
					<dim>1</dim>
					<dim>368</dim>
					<dim>1</dim>
					<dim>1</dim>
				</port>
			</output>
		</layer>
		<layer id="355" name="Add1_9940/Fused_Add_" type="Add" version="opset1">
			<input>
				<port id="0">
					<dim>1</dim>
					<dim>368</dim>
					<dim>24</dim>
					<dim>42</dim>
				</port>
				<port id="1">
					<dim>1</dim>
					<dim>368</dim>
					<dim>1</dim>
					<dim>1</dim>
				</port>
			</input>
			<output>
				<port id="2" precision="FP32">
					<dim>1</dim>
					<dim>368</dim>
					<dim>24</dim>
					<dim>42</dim>
				</port>
			</output>
		</layer>
		<layer id="356" name="relu5_5/dw" type="ReLU" version="opset1">
			<input>
				<port id="0">
					<dim>1</dim>
					<dim>368</dim>
					<dim>24</dim>
					<dim>42</dim>
				</port>
			</input>
			<output>
				<port id="1" precision="FP32">
					<dim>1</dim>
					<dim>368</dim>
					<dim>24</dim>
					<dim>42</dim>
				</port>
			</output>
		</layer>
		<layer id="357" name="25932597_const" type="Const" version="opset1">
			<data element_type="f32" offset="5952" shape="" size="4"/>
			<output>
				<port id="1" precision="FP32"/>
			</output>
		</layer>
		<layer id="358" name="25942598_const" type="Const" version="opset1">
			<data element_type="f32" offset="3406452" shape="" size="4"/>
			<output>
				<port id="1" precision="FP32"/>
			</output>
		</layer>
		<layer id="359" name="25952599_const" type="Const" version="opset1">
			<data element_type="f32" offset="5952" shape="" size="4"/>
			<output>
				<port id="1" precision="FP32"/>
			</output>
		</layer>
		<layer id="360" name="25962600_const" type="Const" version="opset1">
			<data element_type="f32" offset="3406452" shape="" size="4"/>
			<output>
				<port id="1" precision="FP32"/>
			</output>
		</layer>
		<layer id="361" name="conv5_5/sep/fq_input_0" type="FakeQuantize" version="opset1">
			<data levels="256"/>
			<input>
				<port id="0">
					<dim>1</dim>
					<dim>368</dim>
					<dim>24</dim>
					<dim>42</dim>
				</port>
				<port id="1"/>
				<port id="2"/>
				<port id="3"/>
				<port id="4"/>
			</input>
			<output>
				<port id="5" precision="FP32">
					<dim>1</dim>
					<dim>368</dim>
					<dim>24</dim>
					<dim>42</dim>
				</port>
			</output>
		</layer>
		<layer id="362" name="Mul1_9951/Fused_Mul_1193811940_const690_const" type="Const" version="opset1">
			<data element_type="f32" offset="3406456" shape="264,368,1,1" size="388608"/>
			<output>
				<port id="1" precision="FP32">
					<dim>264</dim>
					<dim>368</dim>
					<dim>1</dim>
					<dim>1</dim>
				</port>
			</output>
		</layer>
		<layer id="363" name="26032607_const" type="Const" version="opset1">
			<data element_type="f32" offset="3795064" shape="264,1,1,1" size="1056"/>
			<output>
				<port id="1" precision="FP32">
					<dim>264</dim>
					<dim>1</dim>
					<dim>1</dim>
					<dim>1</dim>
				</port>
			</output>
		</layer>
		<layer id="364" name="26042608_const" type="Const" version="opset1">
			<data element_type="f32" offset="3796120" shape="264,1,1,1" size="1056"/>
			<output>
				<port id="1" precision="FP32">
					<dim>264</dim>
					<dim>1</dim>
					<dim>1</dim>
					<dim>1</dim>
				</port>
			</output>
		</layer>
		<layer id="365" name="26052609_const" type="Const" version="opset1">
			<data element_type="f32" offset="3795064" shape="264,1,1,1" size="1056"/>
			<output>
				<port id="1" precision="FP32">
					<dim>264</dim>
					<dim>1</dim>
					<dim>1</dim>
					<dim>1</dim>
				</port>
			</output>
		</layer>
		<layer id="366" name="26062610_const" type="Const" version="opset1">
			<data element_type="f32" offset="3796120" shape="264,1,1,1" size="1056"/>
			<output>
				<port id="1" precision="FP32">
					<dim>264</dim>
					<dim>1</dim>
					<dim>1</dim>
					<dim>1</dim>
				</port>
			</output>
		</layer>
		<layer id="367" name="conv5_5/sep/fq_weights_1" type="FakeQuantize" version="opset1">
			<data levels="255"/>
			<input>
				<port id="0">
					<dim>264</dim>
					<dim>368</dim>
					<dim>1</dim>
					<dim>1</dim>
				</port>
				<port id="1">
					<dim>264</dim>
					<dim>1</dim>
					<dim>1</dim>
					<dim>1</dim>
				</port>
				<port id="2">
					<dim>264</dim>
					<dim>1</dim>
					<dim>1</dim>
					<dim>1</dim>
				</port>
				<port id="3">
					<dim>264</dim>
					<dim>1</dim>
					<dim>1</dim>
					<dim>1</dim>
				</port>
				<port id="4">
					<dim>264</dim>
					<dim>1</dim>
					<dim>1</dim>
					<dim>1</dim>
				</port>
			</input>
			<output>
				<port id="5" precision="FP32">
					<dim>264</dim>
					<dim>368</dim>
					<dim>1</dim>
					<dim>1</dim>
				</port>
			</output>
		</layer>
		<layer id="368" name="conv5_5/sep" type="Convolution" version="opset1">
			<data dilations="1,1" output_padding="0,0" pads_begin="0,0" pads_end="0,0" strides="1,1"/>
			<input>
				<port id="0">
					<dim>1</dim>
					<dim>368</dim>
					<dim>24</dim>
					<dim>42</dim>
				</port>
				<port id="1">
					<dim>264</dim>
					<dim>368</dim>
					<dim>1</dim>
					<dim>1</dim>
				</port>
			</input>
			<output>
				<port id="2" precision="FP32">
					<dim>1</dim>
					<dim>264</dim>
					<dim>24</dim>
					<dim>42</dim>
				</port>
			</output>
		</layer>
		<layer id="369" name="data_add_1121211217/copy_const692_const" type="Const" version="opset1">
			<data element_type="f32" offset="3797176" shape="1,264,1,1" size="1056"/>
			<output>
				<port id="1" precision="FP32">
					<dim>1</dim>
					<dim>264</dim>
					<dim>1</dim>
					<dim>1</dim>
				</port>
			</output>
		</layer>
		<layer id="370" name="Add1_9952/Fused_Add_" type="Add" version="opset1">
			<input>
				<port id="0">
					<dim>1</dim>
					<dim>264</dim>
					<dim>24</dim>
					<dim>42</dim>
				</port>
				<port id="1">
					<dim>1</dim>
					<dim>264</dim>
					<dim>1</dim>
					<dim>1</dim>
				</port>
			</input>
			<output>
				<port id="2" precision="FP32">
					<dim>1</dim>
					<dim>264</dim>
					<dim>24</dim>
					<dim>42</dim>
				</port>
			</output>
		</layer>
		<layer id="371" name="relu5_5/sep" type="ReLU" version="opset1">
			<input>
				<port id="0">
					<dim>1</dim>
					<dim>264</dim>
					<dim>24</dim>
					<dim>42</dim>
				</port>
			</input>
			<output>
				<port id="1" precision="FP32">
					<dim>1</dim>
					<dim>264</dim>
					<dim>24</dim>
					<dim>42</dim>
				</port>
			</output>
		</layer>
		<layer id="372" name="25532557_const" type="Const" version="opset1">
			<data element_type="f32" offset="5952" shape="" size="4"/>
			<output>
				<port id="1" precision="FP32"/>
			</output>
		</layer>
		<layer id="373" name="25542558_const" type="Const" version="opset1">
			<data element_type="f32" offset="3798232" shape="" size="4"/>
			<output>
				<port id="1" precision="FP32"/>
			</output>
		</layer>
		<layer id="374" name="25552559_const" type="Const" version="opset1">
			<data element_type="f32" offset="5952" shape="" size="4"/>
			<output>
				<port id="1" precision="FP32"/>
			</output>
		</layer>
		<layer id="375" name="25562560_const" type="Const" version="opset1">
			<data element_type="f32" offset="3798232" shape="" size="4"/>
			<output>
				<port id="1" precision="FP32"/>
			</output>
		</layer>
		<layer id="376" name="conv4_3_0_norm_mbox_conf/WithoutBiases/fq_input_0" type="FakeQuantize" version="opset1">
			<data levels="256"/>
			<input>
				<port id="0">
					<dim>1</dim>
					<dim>264</dim>
					<dim>24</dim>
					<dim>42</dim>
				</port>
				<port id="1"/>
				<port id="2"/>
				<port id="3"/>
				<port id="4"/>
			</input>
			<output>
				<port id="5" precision="FP32">
					<dim>1</dim>
					<dim>264</dim>
					<dim>24</dim>
					<dim>42</dim>
				</port>
			</output>
		</layer>
		<layer id="377" name="414/Output_0/Data__const695_const" type="Const" version="opset1">
			<data element_type="f32" offset="3798236" shape="16,264,3,3" size="152064"/>
			<output>
				<port id="1" precision="FP32">
					<dim>16</dim>
					<dim>264</dim>
					<dim>3</dim>
					<dim>3</dim>
				</port>
			</output>
		</layer>
		<layer id="378" name="18031807_const" type="Const" version="opset1">
			<data element_type="f32" offset="3950300" shape="16,1,1,1" size="64"/>
			<output>
				<port id="1" precision="FP32">
					<dim>16</dim>
					<dim>1</dim>
					<dim>1</dim>
					<dim>1</dim>
				</port>
			</output>
		</layer>
		<layer id="379" name="18041808_const" type="Const" version="opset1">
			<data element_type="f32" offset="3950364" shape="16,1,1,1" size="64"/>
			<output>
				<port id="1" precision="FP32">
					<dim>16</dim>
					<dim>1</dim>
					<dim>1</dim>
					<dim>1</dim>
				</port>
			</output>
		</layer>
		<layer id="380" name="18051809_const" type="Const" version="opset1">
			<data element_type="f32" offset="3950300" shape="16,1,1,1" size="64"/>
			<output>
				<port id="1" precision="FP32">
					<dim>16</dim>
					<dim>1</dim>
					<dim>1</dim>
					<dim>1</dim>
				</port>
			</output>
		</layer>
		<layer id="381" name="18061810_const" type="Const" version="opset1">
			<data element_type="f32" offset="3950364" shape="16,1,1,1" size="64"/>
			<output>
				<port id="1" precision="FP32">
					<dim>16</dim>
					<dim>1</dim>
					<dim>1</dim>
					<dim>1</dim>
				</port>
			</output>
		</layer>
		<layer id="382" name="conv4_3_0_norm_mbox_loc/WithoutBiases/fq_weights_1" type="FakeQuantize" version="opset1">
			<data levels="255"/>
			<input>
				<port id="0">
					<dim>16</dim>
					<dim>264</dim>
					<dim>3</dim>
					<dim>3</dim>
				</port>
				<port id="1">
					<dim>16</dim>
					<dim>1</dim>
					<dim>1</dim>
					<dim>1</dim>
				</port>
				<port id="2">
					<dim>16</dim>
					<dim>1</dim>
					<dim>1</dim>
					<dim>1</dim>
				</port>
				<port id="3">
					<dim>16</dim>
					<dim>1</dim>
					<dim>1</dim>
					<dim>1</dim>
				</port>
				<port id="4">
					<dim>16</dim>
					<dim>1</dim>
					<dim>1</dim>
					<dim>1</dim>
				</port>
			</input>
			<output>
				<port id="5" precision="FP32">
					<dim>16</dim>
					<dim>264</dim>
					<dim>3</dim>
					<dim>3</dim>
				</port>
			</output>
		</layer>
		<layer id="383" name="conv4_3_0_norm_mbox_loc/WithoutBiases" type="Convolution" version="opset1">
			<data dilations="1,1" output_padding="0,0" pads_begin="1,1" pads_end="1,1" strides="1,1"/>
			<input>
				<port id="0">
					<dim>1</dim>
					<dim>264</dim>
					<dim>24</dim>
					<dim>42</dim>
				</port>
				<port id="1">
					<dim>16</dim>
					<dim>264</dim>
					<dim>3</dim>
					<dim>3</dim>
				</port>
			</input>
			<output>
				<port id="2" precision="FP32">
					<dim>1</dim>
					<dim>16</dim>
					<dim>24</dim>
					<dim>42</dim>
				</port>
			</output>
		</layer>
		<layer id="384" name="conv4_3_0_norm_mbox_loc/Dims6816/copy_const697_const" type="Const" version="opset1">
			<data element_type="f32" offset="3950428" shape="1,16,1,1" size="64"/>
			<output>
				<port id="1" precision="FP32">
					<dim>1</dim>
					<dim>16</dim>
					<dim>1</dim>
					<dim>1</dim>
				</port>
			</output>
		</layer>
		<layer id="385" name="conv4_3_0_norm_mbox_loc" type="Add" version="opset1">
			<input>
				<port id="0">
					<dim>1</dim>
					<dim>16</dim>
					<dim>24</dim>
					<dim>42</dim>
				</port>
				<port id="1">
					<dim>1</dim>
					<dim>16</dim>
					<dim>1</dim>
					<dim>1</dim>
				</port>
			</input>
			<output>
				<port id="2" precision="FP32">
					<dim>1</dim>
					<dim>16</dim>
					<dim>24</dim>
					<dim>42</dim>
				</port>
			</output>
		</layer>
		<layer id="386" name="conv4_3_0_norm_mbox_loc_perm/Cast_119006_const699_const" type="Const" version="opset1">
			<data element_type="i64" offset="3950492" shape="4" size="32"/>
			<output>
				<port id="1" precision="I64">
					<dim>4</dim>
				</port>
			</output>
		</layer>
		<layer id="387" name="conv4_3_0_norm_mbox_loc_perm" type="Transpose" version="opset1">
			<input>
				<port id="0">
					<dim>1</dim>
					<dim>16</dim>
					<dim>24</dim>
					<dim>42</dim>
				</port>
				<port id="1">
					<dim>4</dim>
				</port>
			</input>
			<output>
				<port id="2" precision="FP32">
					<dim>1</dim>
					<dim>24</dim>
					<dim>42</dim>
					<dim>16</dim>
				</port>
			</output>
		</layer>
		<layer id="388" name="conv4_3_0_norm_mbox_loc_flat/Cast_119082_const701_const" type="Const" version="opset1">
			<data element_type="i64" offset="3950524" shape="2" size="16"/>
			<output>
				<port id="1" precision="I64">
					<dim>2</dim>
				</port>
			</output>
		</layer>
		<layer id="389" name="conv4_3_0_norm_mbox_loc_flat" type="Reshape" version="opset1">
			<data special_zero="True"/>
			<input>
				<port id="0">
					<dim>1</dim>
					<dim>24</dim>
					<dim>42</dim>
					<dim>16</dim>
				</port>
				<port id="1">
					<dim>2</dim>
				</port>
			</input>
			<output>
				<port id="2" precision="FP32">
					<dim>1</dim>
					<dim>16128</dim>
				</port>
			</output>
		</layer>
		<layer id="390" name="327/Output_0/Data__const703_const" type="Const" version="opset1">
			<data element_type="f32" offset="3950540" shape="16,264,3,3" size="152064"/>
			<output>
				<port id="1" precision="FP32">
					<dim>16</dim>
					<dim>264</dim>
					<dim>3</dim>
					<dim>3</dim>
				</port>
			</output>
		</layer>
		<layer id="391" name="27832787_const" type="Const" version="opset1">
			<data element_type="f32" offset="4102604" shape="16,1,1,1" size="64"/>
			<output>
				<port id="1" precision="FP32">
					<dim>16</dim>
					<dim>1</dim>
					<dim>1</dim>
					<dim>1</dim>
				</port>
			</output>
		</layer>
		<layer id="392" name="27842788_const" type="Const" version="opset1">
			<data element_type="f32" offset="4102668" shape="16,1,1,1" size="64"/>
			<output>
				<port id="1" precision="FP32">
					<dim>16</dim>
					<dim>1</dim>
					<dim>1</dim>
					<dim>1</dim>
				</port>
			</output>
		</layer>
		<layer id="393" name="27852789_const" type="Const" version="opset1">
			<data element_type="f32" offset="4102604" shape="16,1,1,1" size="64"/>
			<output>
				<port id="1" precision="FP32">
					<dim>16</dim>
					<dim>1</dim>
					<dim>1</dim>
					<dim>1</dim>
				</port>
			</output>
		</layer>
		<layer id="394" name="27862790_const" type="Const" version="opset1">
			<data element_type="f32" offset="4102668" shape="16,1,1,1" size="64"/>
			<output>
				<port id="1" precision="FP32">
					<dim>16</dim>
					<dim>1</dim>
					<dim>1</dim>
					<dim>1</dim>
				</port>
			</output>
		</layer>
		<layer id="395" name="conv4_3_norm_mbox_loc/WithoutBiases/fq_weights_1" type="FakeQuantize" version="opset1">
			<data levels="255"/>
			<input>
				<port id="0">
					<dim>16</dim>
					<dim>264</dim>
					<dim>3</dim>
					<dim>3</dim>
				</port>
				<port id="1">
					<dim>16</dim>
					<dim>1</dim>
					<dim>1</dim>
					<dim>1</dim>
				</port>
				<port id="2">
					<dim>16</dim>
					<dim>1</dim>
					<dim>1</dim>
					<dim>1</dim>
				</port>
				<port id="3">
					<dim>16</dim>
					<dim>1</dim>
					<dim>1</dim>
					<dim>1</dim>
				</port>
				<port id="4">
					<dim>16</dim>
					<dim>1</dim>
					<dim>1</dim>
					<dim>1</dim>
				</port>
			</input>
			<output>
				<port id="5" precision="FP32">
					<dim>16</dim>
					<dim>264</dim>
					<dim>3</dim>
					<dim>3</dim>
				</port>
			</output>
		</layer>
		<layer id="396" name="conv4_3_norm_mbox_loc/WithoutBiases" type="Convolution" version="opset1">
			<data dilations="1,1" output_padding="0,0" pads_begin="1,1" pads_end="1,1" strides="1,1"/>
			<input>
				<port id="0">
					<dim>1</dim>
					<dim>264</dim>
					<dim>24</dim>
					<dim>42</dim>
				</port>
				<port id="1">
					<dim>16</dim>
…
		<edge from-layer="410" from-port="2" to-layer="411" to-port="1"/>
		<edge from-layer="411" from-port="2" to-layer="413" to-port="0"/>
		<edge from-layer="412" from-port="1" to-layer="413" to-port="1"/>
		<edge from-layer="413" from-port="2" to-layer="414" to-port="0"/>
		<edge from-layer="414" from-port="1" to-layer="419" to-port="0"/>
		<edge from-layer="415" from-port="1" to-layer="419" to-port="1"/>
		<edge from-layer="416" from-port="1" to-layer="419" to-port="2"/>
		<edge from-layer="417" from-port="1" to-layer="419" to-port="3"/>
		<edge from-layer="418" from-port="1" to-layer="419" to-port="4"/>
		<edge from-layer="420" from-port="1" to-layer="425" to-port="0"/>
		<edge from-layer="421" from-port="1" to-layer="425" to-port="1"/>
		<edge from-layer="422" from-port="1" to-layer="425" to-port="2"/>
		<edge from-layer="423" from-port="1" to-layer="425" to-port="3"/>
		<edge from-layer="424" from-port="1" to-layer="425" to-port="4"/>
		<edge from-layer="419" from-port="5" to-layer="426" to-port="0"/>
		<edge from-layer="425" from-port="5" to-layer="426" to-port="1"/>
		<edge from-layer="426" from-port="2" to-layer="428" to-port="0"/>
		<edge from-layer="427" from-port="1" to-layer="428" to-port="1"/>
		<edge from-layer="428" from-port="2" to-layer="429" to-port="0"/>
		<edge from-layer="429" from-port="1" to-layer="434" to-port="0"/>
		<edge from-layer="430" from-port="1" to-layer="434" to-port="1"/>
		<edge from-layer="431" from-port="1" to-layer="434" to-port="2"/>
		<edge from-layer="432" from-port="1" to-layer="434" to-port="3"/>
		<edge from-layer="433" from-port="1" to-layer="434" to-port="4"/>
		<edge from-layer="435" from-port="1" to-layer="440" to-port="0"/>
		<edge from-layer="436" from-port="1" to-layer="440" to-port="1"/>
		<edge from-layer="437" from-port="1" to-layer="440" to-port="2"/>
		<edge from-layer="438" from-port="1" to-layer="440" to-port="3"/>
		<edge from-layer="439" from-port="1" to-layer="440" to-port="4"/>
		<edge from-layer="440" from-port="5" to-layer="442" to-port="0"/>
		<edge from-layer="441" from-port="1" to-layer="442" to-port="1"/>
		<edge from-layer="434" from-port="5" to-layer="443" to-port="0"/>
		<edge from-layer="442" from-port="2" to-layer="443" to-port="1"/>
		<edge from-layer="443" from-port="2" to-layer="445" to-port="0"/>
		<edge from-layer="444" from-port="1" to-layer="445" to-port="1"/>
		<edge from-layer="445" from-port="2" to-layer="446" to-port="0"/>
		<edge from-layer="446" from-port="1" to-layer="451" to-port="0"/>
		<edge from-layer="447" from-port="1" to-layer="451" to-port="1"/>
		<edge from-layer="448" from-port="1" to-layer="451" to-port="2"/>
		<edge from-layer="449" from-port="1" to-layer="451" to-port="3"/>
		<edge from-layer="450" from-port="1" to-layer="451" to-port="4"/>
		<edge from-layer="452" from-port="1" to-layer="457" to-port="0"/>
		<edge from-layer="453" from-port="1" to-layer="457" to-port="1"/>
		<edge from-layer="454" from-port="1" to-layer="457" to-port="2"/>
		<edge from-layer="455" from-port="1" to-layer="457" to-port="3"/>
		<edge from-layer="456" from-port="1" to-layer="457" to-port="4"/>
		<edge from-layer="451" from-port="5" to-layer="458" to-port="0"/>
		<edge from-layer="457" from-port="5" to-layer="458" to-port="1"/>
		<edge from-layer="458" from-port="2" to-layer="460" to-port="0"/>
		<edge from-layer="459" from-port="1" to-layer="460" to-port="1"/>
		<edge from-layer="460" from-port="2" to-layer="461" to-port="0"/>
		<edge from-layer="461" from-port="1" to-layer="466" to-port="0"/>
		<edge from-layer="462" from-port="1" to-layer="466" to-port="1"/>
		<edge from-layer="463" from-port="1" to-layer="466" to-port="2"/>
		<edge from-layer="464" from-port="1" to-layer="466" to-port="3"/>
		<edge from-layer="465" from-port="1" to-layer="466" to-port="4"/>
		<edge from-layer="467" from-port="1" to-layer="472" to-port="0"/>
		<edge from-layer="468" from-port="1" to-layer="472" to-port="1"/>
		<edge from-layer="469" from-port="1" to-layer="472" to-port="2"/>
		<edge from-layer="470" from-port="1" to-layer="472" to-port="3"/>
		<edge from-layer="471" from-port="1" to-layer="472" to-port="4"/>
		<edge from-layer="466" from-port="5" to-layer="473" to-port="0"/>
		<edge from-layer="472" from-port="5" to-layer="473" to-port="1"/>
		<edge from-layer="473" from-port="2" to-layer="475" to-port="0"/>
		<edge from-layer="474" from-port="1" to-layer="475" to-port="1"/>
		<edge from-layer="475" from-port="2" to-layer="477" to-port="0"/>
		<edge from-layer="476" from-port="1" to-layer="477" to-port="1"/>
		<edge from-layer="477" from-port="2" to-layer="479" to-port="0"/>
		<edge from-layer="478" from-port="1" to-layer="479" to-port="1"/>
		<edge from-layer="480" from-port="1" to-layer="485" to-port="0"/>
		<edge from-layer="481" from-port="1" to-layer="485" to-port="1"/>
		<edge from-layer="482" from-port="1" to-layer="485" to-port="2"/>
		<edge from-layer="483" from-port="1" to-layer="485" to-port="3"/>
		<edge from-layer="484" from-port="1" to-layer="485" to-port="4"/>
		<edge from-layer="466" from-port="5" to-layer="486" to-port="0"/>
		<edge from-layer="485" from-port="5" to-layer="486" to-port="1"/>
		<edge from-layer="486" from-port="2" to-layer="488" to-port="0"/>
		<edge from-layer="487" from-port="1" to-layer="488" to-port="1"/>
		<edge from-layer="488" from-port="2" to-layer="490" to-port="0"/>
		<edge from-layer="489" from-port="1" to-layer="490" to-port="1"/>
		<edge from-layer="490" from-port="2" to-layer="492" to-port="0"/>
		<edge from-layer="491" from-port="1" to-layer="492" to-port="1"/>
		<edge from-layer="493" from-port="1" to-layer="498" to-port="0"/>
		<edge from-layer="494" from-port="1" to-layer="498" to-port="1"/>
		<edge from-layer="495" from-port="1" to-layer="498" to-port="2"/>
		<edge from-layer="496" from-port="1" to-layer="498" to-port="3"/>
		<edge from-layer="497" from-port="1" to-layer="498" to-port="4"/>
		<edge from-layer="466" from-port="5" to-layer="499" to-port="0"/>
		<edge from-layer="498" from-port="5" to-layer="499" to-port="1"/>
		<edge from-layer="499" from-port="2" to-layer="501" to-port="0"/>
		<edge from-layer="500" from-port="1" to-layer="501" to-port="1"/>
		<edge from-layer="501" from-port="2" to-layer="502" to-port="0"/>
		<edge from-layer="502" from-port="1" to-layer="507" to-port="0"/>
		<edge from-layer="503" from-port="1" to-layer="507" to-port="1"/>
		<edge from-layer="504" from-port="1" to-layer="507" to-port="2"/>
		<edge from-layer="505" from-port="1" to-layer="507" to-port="3"/>
		<edge from-layer="506" from-port="1" to-layer="507" to-port="4"/>
		<edge from-layer="508" from-port="1" to-layer="513" to-port="0"/>
		<edge from-layer="509" from-port="1" to-layer="513" to-port="1"/>
		<edge from-layer="510" from-port="1" to-layer="513" to-port="2"/>
		<edge from-layer="511" from-port="1" to-layer="513" to-port="3"/>
		<edge from-layer="512" from-port="1" to-layer="513" to-port="4"/>
		<edge from-layer="513" from-port="5" to-layer="515" to-port="0"/>
		<edge from-layer="514" from-port="1" to-layer="515" to-port="1"/>
		<edge from-layer="507" from-port="5" to-layer="516" to-port="0"/>
		<edge from-layer="515" from-port="2" to-layer="516" to-port="1"/>
		<edge from-layer="516" from-port="2" to-layer="518" to-port="0"/>
		<edge from-layer="517" from-port="1" to-layer="518" to-port="1"/>
		<edge from-layer="518" from-port="2" to-layer="519" to-port="0"/>
		<edge from-layer="519" from-port="1" to-layer="524" to-port="0"/>
		<edge from-layer="520" from-port="1" to-layer="524" to-port="1"/>
		<edge from-layer="521" from-port="1" to-layer="524" to-port="2"/>
		<edge from-layer="522" from-port="1" to-layer="524" to-port="3"/>
		<edge from-layer="523" from-port="1" to-layer="524" to-port="4"/>
		<edge from-layer="525" from-port="1" to-layer="530" to-port="0"/>
		<edge from-layer="526" from-port="1" to-layer="530" to-port="1"/>
		<edge from-layer="527" from-port="1" to-layer="530" to-port="2"/>
		<edge from-layer="528" from-port="1" to-layer="530" to-port="3"/>
		<edge from-layer="529" from-port="1" to-layer="530" to-port="4"/>
		<edge from-layer="524" from-port="5" to-layer="531" to-port="0"/>
		<edge from-layer="530" from-port="5" to-layer="531" to-port="1"/>
		<edge from-layer="531" from-port="2" to-layer="533" to-port="0"/>
		<edge from-layer="532" from-port="1" to-layer="533" to-port="1"/>
		<edge from-layer="533" from-port="2" to-layer="534" to-port="0"/>
		<edge from-layer="534" from-port="1" to-layer="539" to-port="0"/>
		<edge from-layer="535" from-port="1" to-layer="539" to-port="1"/>
		<edge from-layer="536" from-port="1" to-layer="539" to-port="2"/>
		<edge from-layer="537" from-port="1" to-layer="539" to-port="3"/>
		<edge from-layer="538" from-port="1" to-layer="539" to-port="4"/>
		<edge from-layer="540" from-port="1" to-layer="545" to-port="0"/>
		<edge from-layer="541" from-port="1" to-layer="545" to-port="1"/>
		<edge from-layer="542" from-port="1" to-layer="545" to-port="2"/>
		<edge from-layer="543" from-port="1" to-layer="545" to-port="3"/>
		<edge from-layer="544" from-port="1" to-layer="545" to-port="4"/>
		<edge from-layer="539" from-port="5" to-layer="546" to-port="0"/>
		<edge from-layer="545" from-port="5" to-layer="546" to-port="1"/>
		<edge from-layer="546" from-port="2" to-layer="548" to-port="0"/>
		<edge from-layer="547" from-port="1" to-layer="548" to-port="1"/>
		<edge from-layer="548" from-port="2" to-layer="550" to-port="0"/>
		<edge from-layer="549" from-port="1" to-layer="550" to-port="1"/>
		<edge from-layer="550" from-port="2" to-layer="552" to-port="0"/>
		<edge from-layer="551" from-port="1" to-layer="552" to-port="1"/>
		<edge from-layer="553" from-port="1" to-layer="558" to-port="0"/>
		<edge from-layer="554" from-port="1" to-layer="558" to-port="1"/>
		<edge from-layer="555" from-port="1" to-layer="558" to-port="2"/>
		<edge from-layer="556" from-port="1" to-layer="558" to-port="3"/>
		<edge from-layer="557" from-port="1" to-layer="558" to-port="4"/>
		<edge from-layer="539" from-port="5" to-layer="559" to-port="0"/>
		<edge from-layer="558" from-port="5" to-layer="559" to-port="1"/>
		<edge from-layer="559" from-port="2" to-layer="561" to-port="0"/>
		<edge from-layer="560" from-port="1" to-layer="561" to-port="1"/>
		<edge from-layer="561" from-port="2" to-layer="563" to-port="0"/>
		<edge from-layer="562" from-port="1" to-layer="563" to-port="1"/>
		<edge from-layer="563" from-port="2" to-layer="565" to-port="0"/>
		<edge from-layer="564" from-port="1" to-layer="565" to-port="1"/>
		<edge from-layer="566" from-port="1" to-layer="571" to-port="0"/>
		<edge from-layer="567" from-port="1" to-layer="571" to-port="1"/>
		<edge from-layer="568" from-port="1" to-layer="571" to-port="2"/>
		<edge from-layer="569" from-port="1" to-layer="571" to-port="3"/>
		<edge from-layer="570" from-port="1" to-layer="571" to-port="4"/>
		<edge from-layer="539" from-port="5" to-layer="572" to-port="0"/>
		<edge from-layer="571" from-port="5" to-layer="572" to-port="1"/>
		<edge from-layer="572" from-port="2" to-layer="574" to-port="0"/>
		<edge from-layer="573" from-port="1" to-layer="574" to-port="1"/>
		<edge from-layer="574" from-port="2" to-layer="575" to-port="0"/>
		<edge from-layer="575" from-port="1" to-layer="580" to-port="0"/>
		<edge from-layer="576" from-port="1" to-layer="580" to-port="1"/>
		<edge from-layer="577" from-port="1" to-layer="580" to-port="2"/>
		<edge from-layer="578" from-port="1" to-layer="580" to-port="3"/>
		<edge from-layer="579" from-port="1" to-layer="580" to-port="4"/>
		<edge from-layer="581" from-port="1" to-layer="586" to-port="0"/>
		<edge from-layer="582" from-port="1" to-layer="586" to-port="1"/>
		<edge from-layer="583" from-port="1" to-layer="586" to-port="2"/>
		<edge from-layer="584" from-port="1" to-layer="586" to-port="3"/>
		<edge from-layer="585" from-port="1" to-layer="586" to-port="4"/>
		<edge from-layer="586" from-port="5" to-layer="588" to-port="0"/>
		<edge from-layer="587" from-port="1" to-layer="588" to-port="1"/>
		<edge from-layer="580" from-port="5" to-layer="589" to-port="0"/>
		<edge from-layer="588" from-port="2" to-layer="589" to-port="1"/>
		<edge from-layer="589" from-port="2" to-layer="591" to-port="0"/>
		<edge from-layer="590" from-port="1" to-layer="591" to-port="1"/>
		<edge from-layer="591" from-port="2" to-layer="592" to-port="0"/>
		<edge from-layer="592" from-port="1" to-layer="597" to-port="0"/>
		<edge from-layer="593" from-port="1" to-layer="597" to-port="1"/>
		<edge from-layer="594" from-port="1" to-layer="597" to-port="2"/>
		<edge from-layer="595" from-port="1" to-layer="597" to-port="3"/>
		<edge from-layer="596" from-port="1" to-layer="597" to-port="4"/>
		<edge from-layer="598" from-port="1" to-layer="603" to-port="0"/>
		<edge from-layer="599" from-port="1" to-layer="603" to-port="1"/>
		<edge from-layer="600" from-port="1" to-layer="603" to-port="2"/>
		<edge from-layer="601" from-port="1" to-layer="603" to-port="3"/>
		<edge from-layer="602" from-port="1" to-layer="603" to-port="4"/>
		<edge from-layer="597" from-port="5" to-layer="604" to-port="0"/>
		<edge from-layer="603" from-port="5" to-layer="604" to-port="1"/>
		<edge from-layer="604" from-port="2" to-layer="606" to-port="0"/>
		<edge from-layer="605" from-port="1" to-layer="606" to-port="1"/>
		<edge from-layer="606" from-port="2" to-layer="607" to-port="0"/>
		<edge from-layer="607" from-port="1" to-layer="612" to-port="0"/>
		<edge from-layer="608" from-port="1" to-layer="612" to-port="1"/>
		<edge from-layer="609" from-port="1" to-layer="612" to-port="2"/>
		<edge from-layer="610" from-port="1" to-layer="612" to-port="3"/>
		<edge from-layer="611" from-port="1" to-layer="612" to-port="4"/>
		<edge from-layer="613" from-port="1" to-layer="618" to-port="0"/>
		<edge from-layer="614" from-port="1" to-layer="618" to-port="1"/>
		<edge from-layer="615" from-port="1" to-layer="618" to-port="2"/>
		<edge from-layer="616" from-port="1" to-layer="618" to-port="3"/>
		<edge from-layer="617" from-port="1" to-layer="618" to-port="4"/>
		<edge from-layer="612" from-port="5" to-layer="619" to-port="0"/>
		<edge from-layer="618" from-port="5" to-layer="619" to-port="1"/>
		<edge from-layer="619" from-port="2" to-layer="621" to-port="0"/>
		<edge from-layer="620" from-port="1" to-layer="621" to-port="1"/>
		<edge from-layer="621" from-port="2" to-layer="623" to-port="0"/>
		<edge from-layer="622" from-port="1" to-layer="623" to-port="1"/>
		<edge from-layer="623" from-port="2" to-layer="625" to-port="0"/>
		<edge from-layer="624" from-port="1" to-layer="625" to-port="1"/>
		<edge from-layer="626" from-port="1" to-layer="631" to-port="0"/>
		<edge from-layer="627" from-port="1" to-layer="631" to-port="1"/>
		<edge from-layer="628" from-port="1" to-layer="631" to-port="2"/>
		<edge from-layer="629" from-port="1" to-layer="631" to-port="3"/>
		<edge from-layer="630" from-port="1" to-layer="631" to-port="4"/>
		<edge from-layer="612" from-port="5" to-layer="632" to-port="0"/>
		<edge from-layer="631" from-port="5" to-layer="632" to-port="1"/>
		<edge from-layer="632" from-port="2" to-layer="634" to-port="0"/>
		<edge from-layer="633" from-port="1" to-layer="634" to-port="1"/>
		<edge from-layer="634" from-port="2" to-layer="636" to-port="0"/>
		<edge from-layer="635" from-port="1" to-layer="636" to-port="1"/>
		<edge from-layer="636" from-port="2" to-layer="638" to-port="0"/>
		<edge from-layer="637" from-port="1" to-layer="638" to-port="1"/>
		<edge from-layer="639" from-port="1" to-layer="644" to-port="0"/>
		<edge from-layer="640" from-port="1" to-layer="644" to-port="1"/>
		<edge from-layer="641" from-port="1" to-layer="644" to-port="2"/>
		<edge from-layer="642" from-port="1" to-layer="644" to-port="3"/>
		<edge from-layer="643" from-port="1" to-layer="644" to-port="4"/>
		<edge from-layer="612" from-port="5" to-layer="645" to-port="0"/>
		<edge from-layer="644" from-port="5" to-layer="645" to-port="1"/>
		<edge from-layer="645" from-port="2" to-layer="647" to-port="0"/>
		<edge from-layer="646" from-port="1" to-layer="647" to-port="1"/>
		<edge from-layer="647" from-port="2" to-layer="648" to-port="0"/>
		<edge from-layer="648" from-port="1" to-layer="653" to-port="0"/>
		<edge from-layer="649" from-port="1" to-layer="653" to-port="1"/>
		<edge from-layer="650" from-port="1" to-layer="653" to-port="2"/>
		<edge from-layer="651" from-port="1" to-layer="653" to-port="3"/>
		<edge from-layer="652" from-port="1" to-layer="653" to-port="4"/>
		<edge from-layer="654" from-port="1" to-layer="659" to-port="0"/>
		<edge from-layer="655" from-port="1" to-layer="659" to-port="1"/>
		<edge from-layer="656" from-port="1" to-layer="659" to-port="2"/>
		<edge from-layer="657" from-port="1" to-layer="659" to-port="3"/>
		<edge from-layer="658" from-port="1" to-layer="659" to-port="4"/>
		<edge from-layer="659" from-port="5" to-layer="661" to-port="0"/>
		<edge from-layer="660" from-port="1" to-layer="661" to-port="1"/>
		<edge from-layer="653" from-port="5" to-layer="662" to-port="0"/>
		<edge from-layer="661" from-port="2" to-layer="662" to-port="1"/>
		<edge from-layer="662" from-port="2" to-layer="664" to-port="0"/>
		<edge from-layer="663" from-port="1" to-layer="664" to-port="1"/>
		<edge from-layer="664" from-port="2" to-layer="665" to-port="0"/>
		<edge from-layer="665" from-port="1" to-layer="670" to-port="0"/>
		<edge from-layer="666" from-port="1" to-layer="670" to-port="1"/>
		<edge from-layer="667" from-port="1" to-layer="670" to-port="2"/>
		<edge from-layer="668" from-port="1" to-layer="670" to-port="3"/>
		<edge from-layer="669" from-port="1" to-layer="670" to-port="4"/>
		<edge from-layer="671" from-port="1" to-layer="676" to-port="0"/>
		<edge from-layer="672" from-port="1" to-layer="676" to-port="1"/>
		<edge from-layer="673" from-port="1" to-layer="676" to-port="2"/>
		<edge from-layer="674" from-port="1" to-layer="676" to-port="3"/>
		<edge from-layer="675" from-port="1" to-layer="676" to-port="4"/>
		<edge from-layer="670" from-port="5" to-layer="677" to-port="0"/>
		<edge from-layer="676" from-port="5" to-layer="677" to-port="1"/>
		<edge from-layer="677" from-port="2" to-layer="679" to-port="0"/>
		<edge from-layer="678" from-port="1" to-layer="679" to-port="1"/>
		<edge from-layer="679" from-port="2" to-layer="680" to-port="0"/>
		<edge from-layer="680" from-port="1" to-layer="685" to-port="0"/>
		<edge from-layer="681" from-port="1" to-layer="685" to-port="1"/>
		<edge from-layer="682" from-port="1" to-layer="685" to-port="2"/>
		<edge from-layer="683" from-port="1" to-layer="685" to-port="3"/>
		<edge from-layer="684" from-port="1" to-layer="685" to-port="4"/>
		<edge from-layer="686" from-port="1" to-layer="691" to-port="0"/>
		<edge from-layer="687" from-port="1" to-layer="691" to-port="1"/>
		<edge from-layer="688" from-port="1" to-layer="691" to-port="2"/>
		<edge from-layer="689" from-port="1" to-layer="691" to-port="3"/>
		<edge from-layer="690" from-port="1" to-layer="691" to-port="4"/>
		<edge from-layer="685" from-port="5" to-layer="692" to-port="0"/>
		<edge from-layer="691" from-port="5" to-layer="692" to-port="1"/>
		<edge from-layer="692" from-port="2" to-layer="694" to-port="0"/>
		<edge from-layer="693" from-port="1" to-layer="694" to-port="1"/>
		<edge from-layer="694" from-port="2" to-layer="696" to-port="0"/>
		<edge from-layer="695" from-port="1" to-layer="696" to-port="1"/>
		<edge from-layer="696" from-port="2" to-layer="698" to-port="0"/>
		<edge from-layer="697" from-port="1" to-layer="698" to-port="1"/>
		<edge from-layer="699" from-port="1" to-layer="704" to-port="0"/>
		<edge from-layer="700" from-port="1" to-layer="704" to-port="1"/>
		<edge from-layer="701" from-port="1" to-layer="704" to-port="2"/>
		<edge from-layer="702" from-port="1" to-layer="704" to-port="3"/>
		<edge from-layer="703" from-port="1" to-layer="704" to-port="4"/>
		<edge from-layer="685" from-port="5" to-layer="705" to-port="0"/>
		<edge from-layer="704" from-port="5" to-layer="705" to-port="1"/>
		<edge from-layer="705" from-port="2" to-layer="707" to-port="0"/>
		<edge from-layer="706" from-port="1" to-layer="707" to-port="1"/>
		<edge from-layer="707" from-port="2" to-layer="708" to-port="0"/>
		<edge from-layer="708" from-port="1" to-layer="713" to-port="0"/>
		<edge from-layer="709" from-port="1" to-layer="713" to-port="1"/>
		<edge from-layer="710" from-port="1" to-layer="713" to-port="2"/>
		<edge from-layer="711" from-port="1" to-layer="713" to-port="3"/>
		<edge from-layer="712" from-port="1" to-layer="713" to-port="4"/>
		<edge from-layer="714" from-port="1" to-layer="719" to-port="0"/>
		<edge from-layer="715" from-port="1" to-layer="719" to-port="1"/>
		<edge from-layer="716" from-port="1" to-layer="719" to-port="2"/>
		<edge from-layer="717" from-port="1" to-layer="719" to-port="3"/>
		<edge from-layer="718" from-port="1" to-layer="719" to-port="4"/>
		<edge from-layer="719" from-port="5" to-layer="721" to-port="0"/>
		<edge from-layer="720" from-port="1" to-layer="721" to-port="1"/>
		<edge from-layer="713" from-port="5" to-layer="722" to-port="0"/>
		<edge from-layer="721" from-port="2" to-layer="722" to-port="1"/>
		<edge from-layer="722" from-port="2" to-layer="724" to-port="0"/>
		<edge from-layer="723" from-port="1" to-layer="724" to-port="1"/>
		<edge from-layer="724" from-port="2" to-layer="725" to-port="0"/>
		<edge from-layer="725" from-port="1" to-layer="730" to-port="0"/>
		<edge from-layer="726" from-port="1" to-layer="730" to-port="1"/>
		<edge from-layer="727" from-port="1" to-layer="730" to-port="2"/>
		<edge from-layer="728" from-port="1" to-layer="730" to-port="3"/>
		<edge from-layer="729" from-port="1" to-layer="730" to-port="4"/>
		<edge from-layer="731" from-port="1" to-layer="736" to-port="0"/>
		<edge from-layer="732" from-port="1" to-layer="736" to-port="1"/>
		<edge from-layer="733" from-port="1" to-layer="736" to-port="2"/>
		<edge from-layer="734" from-port="1" to-layer="736" to-port="3"/>
		<edge from-layer="735" from-port="1" to-layer="736" to-port="4"/>
		<edge from-layer="730" from-port="5" to-layer="737" to-port="0"/>
		<edge from-layer="736" from-port="5" to-layer="737" to-port="1"/>
		<edge from-layer="737" from-port="2" to-layer="739" to-port="0"/>
		<edge from-layer="738" from-port="1" to-layer="739" to-port="1"/>
		<edge from-layer="739" from-port="2" to-layer="740" to-port="0"/>
		<edge from-layer="740" from-port="1" to-layer="745" to-port="0"/>
		<edge from-layer="741" from-port="1" to-layer="745" to-port="1"/>
		<edge from-layer="742" from-port="1" to-layer="745" to-port="2"/>
		<edge from-layer="743" from-port="1" to-layer="745" to-port="3"/>
		<edge from-layer="744" from-port="1" to-layer="745" to-port="4"/>
		<edge from-layer="746" from-port="1" to-layer="751" to-port="0"/>
		<edge from-layer="747" from-port="1" to-layer="751" to-port="1"/>
		<edge from-layer="748" from-port="1" to-layer="751" to-port="2"/>
		<edge from-layer="749" from-port="1" to-layer="751" to-port="3"/>
		<edge from-layer="750" from-port="1" to-layer="751" to-port="4"/>
		<edge from-layer="745" from-port="5" to-layer="752" to-port="0"/>
		<edge from-layer="751" from-port="5" to-layer="752" to-port="1"/>
		<edge from-layer="752" from-port="2" to-layer="754" to-port="0"/>
		<edge from-layer="753" from-port="1" to-layer="754" to-port="1"/>
		<edge from-layer="754" from-port="2" to-layer="756" to-port="0"/>
		<edge from-layer="755" from-port="1" to-layer="756" to-port="1"/>
		<edge from-layer="756" from-port="2" to-layer="758" to-port="0"/>
		<edge from-layer="757" from-port="1" to-layer="758" to-port="1"/>
		<edge from-layer="389" from-port="2" to-layer="759" to-port="0"/>
		<edge from-layer="402" from-port="2" to-layer="759" to-port="1"/>
		<edge from-layer="479" from-port="2" to-layer="759" to-port="2"/>
		<edge from-layer="492" from-port="2" to-layer="759" to-port="3"/>
		<edge from-layer="552" from-port="2" to-layer="759" to-port="4"/>
		<edge from-layer="565" from-port="2" to-layer="759" to-port="5"/>
		<edge from-layer="625" from-port="2" to-layer="759" to-port="6"/>
		<edge from-layer="638" from-port="2" to-layer="759" to-port="7"/>
		<edge from-layer="698" from-port="2" to-layer="759" to-port="8"/>
		<edge from-layer="758" from-port="2" to-layer="759" to-port="9"/>
		<edge from-layer="760" from-port="1" to-layer="765" to-port="0"/>
		<edge from-layer="761" from-port="1" to-layer="765" to-port="1"/>
		<edge from-layer="762" from-port="1" to-layer="765" to-port="2"/>
		<edge from-layer="763" from-port="1" to-layer="765" to-port="3"/>
		<edge from-layer="764" from-port="1" to-layer="765" to-port="4"/>
		<edge from-layer="376" from-port="5" to-layer="766" to-port="0"/>
		<edge from-layer="765" from-port="5" to-layer="766" to-port="1"/>
		<edge from-layer="766" from-port="2" to-layer="768" to-port="0"/>
		<edge from-layer="767" from-port="1" to-layer="768" to-port="1"/>
		<edge from-layer="768" from-port="2" to-layer="770" to-port="0"/>
		<edge from-layer="769" from-port="1" to-layer="770" to-port="1"/>
		<edge from-layer="770" from-port="2" to-layer="772" to-port="0"/>
		<edge from-layer="771" from-port="1" to-layer="772" to-port="1"/>
		<edge from-layer="773" from-port="1" to-layer="778" to-port="0"/>
		<edge from-layer="774" from-port="1" to-layer="778" to-port="1"/>
		<edge from-layer="775" from-port="1" to-layer="778" to-port="2"/>
		<edge from-layer="776" from-port="1" to-layer="778" to-port="3"/>
		<edge from-layer="777" from-port="1" to-layer="778" to-port="4"/>
		<edge from-layer="376" from-port="5" to-layer="779" to-port="0"/>
		<edge from-layer="778" from-port="5" to-layer="779" to-port="1"/>
		<edge from-layer="779" from-port="2" to-layer="781" to-port="0"/>
		<edge from-layer="780" from-port="1" to-layer="781" to-port="1"/>
		<edge from-layer="781" from-port="2" to-layer="783" to-port="0"/>
		<edge from-layer="782" from-port="1" to-layer="783" to-port="1"/>
		<edge from-layer="783" from-port="2" to-layer="785" to-port="0"/>
		<edge from-layer="784" from-port="1" to-layer="785" to-port="1"/>
		<edge from-layer="786" from-port="1" to-layer="791" to-port="0"/>
		<edge from-layer="787" from-port="1" to-layer="791" to-port="1"/>
		<edge from-layer="788" from-port="1" to-layer="791" to-port="2"/>
		<edge from-layer="789" from-port="1" to-layer="791" to-port="3"/>
		<edge from-layer="790" from-port="1" to-layer="791" to-port="4"/>
		<edge from-layer="466" from-port="5" to-layer="792" to-port="0"/>
		<edge from-layer="791" from-port="5" to-layer="792" to-port="1"/>
		<edge from-layer="792" from-port="2" to-layer="794" to-port="0"/>
		<edge from-layer="793" from-port="1" to-layer="794" to-port="1"/>
		<edge from-layer="794" from-port="2" to-layer="796" to-port="0"/>
		<edge from-layer="795" from-port="1" to-layer="796" to-port="1"/>
		<edge from-layer="796" from-port="2" to-layer="798" to-port="0"/>
		<edge from-layer="797" from-port="1" to-layer="798" to-port="1"/>
		<edge from-layer="799" from-port="1" to-layer="804" to-port="0"/>
		<edge from-layer="800" from-port="1" to-layer="804" to-port="1"/>
		<edge from-layer="801" from-port="1" to-layer="804" to-port="2"/>
		<edge from-layer="802" from-port="1" to-layer="804" to-port="3"/>
		<edge from-layer="803" from-port="1" to-layer="804" to-port="4"/>
		<edge from-layer="466" from-port="5" to-layer="805" to-port="0"/>
		<edge from-layer="804" from-port="5" to-layer="805" to-port="1"/>
		<edge from-layer="805" from-port="2" to-layer="807" to-port="0"/>
		<edge from-layer="806" from-port="1" to-layer="807" to-port="1"/>
		<edge from-layer="807" from-port="2" to-layer="809" to-port="0"/>
		<edge from-layer="808" from-port="1" to-layer="809" to-port="1"/>
		<edge from-layer="809" from-port="2" to-layer="811" to-port="0"/>
		<edge from-layer="810" from-port="1" to-layer="811" to-port="1"/>
		<edge from-layer="812" from-port="1" to-layer="817" to-port="0"/>
		<edge from-layer="813" from-port="1" to-layer="817" to-port="1"/>
		<edge from-layer="814" from-port="1" to-layer="817" to-port="2"/>
		<edge from-layer="815" from-port="1" to-layer="817" to-port="3"/>
		<edge from-layer="816" from-port="1" to-layer="817" to-port="4"/>
		<edge from-layer="539" from-port="5" to-layer="818" to-port="0"/>
		<edge from-layer="817" from-port="5" to-layer="818" to-port="1"/>
		<edge from-layer="818" from-port="2" to-layer="820" to-port="0"/>
		<edge from-layer="819" from-port="1" to-layer="820" to-port="1"/>
		<edge from-layer="820" from-port="2" to-layer="822" to-port="0"/>
		<edge from-layer="821" from-port="1" to-layer="822" to-port="1"/>
		<edge from-layer="822" from-port="2" to-layer="824" to-port="0"/>
		<edge from-layer="823" from-port="1" to-layer="824" to-port="1"/>
		<edge from-layer="825" from-port="1" to-layer="830" to-port="0"/>
		<edge from-layer="826" from-port="1" to-layer="830" to-port="1"/>
		<edge from-layer="827" from-port="1" to-layer="830" to-port="2"/>
		<edge from-layer="828" from-port="1" to-layer="830" to-port="3"/>
		<edge from-layer="829" from-port="1" to-layer="830" to-port="4"/>
		<edge from-layer="539" from-port="5" to-layer="831" to-port="0"/>
		<edge from-layer="830" from-port="5" to-layer="831" to-port="1"/>
		<edge from-layer="831" from-port="2" to-layer="833" to-port="0"/>
		<edge from-layer="832" from-port="1" to-layer="833" to-port="1"/>
		<edge from-layer="833" from-port="2" to-layer="835" to-port="0"/>
		<edge from-layer="834" from-port="1" to-layer="835" to-port="1"/>
		<edge from-layer="835" from-port="2" to-layer="837" to-port="0"/>
		<edge from-layer="836" from-port="1" to-layer="837" to-port="1"/>
		<edge from-layer="838" from-port="1" to-layer="843" to-port="0"/>
		<edge from-layer="839" from-port="1" to-layer="843" to-port="1"/>
		<edge from-layer="840" from-port="1" to-layer="843" to-port="2"/>
		<edge from-layer="841" from-port="1" to-layer="843" to-port="3"/>
		<edge from-layer="842" from-port="1" to-layer="843" to-port="4"/>
		<edge from-layer="612" from-port="5" to-layer="844" to-port="0"/>
		<edge from-layer="843" from-port="5" to-layer="844" to-port="1"/>
		<edge from-layer="844" from-port="2" to-layer="846" to-port="0"/>
		<edge from-layer="845" from-port="1" to-layer="846" to-port="1"/>
		<edge from-layer="846" from-port="2" to-layer="848" to-port="0"/>
		<edge from-layer="847" from-port="1" to-layer="848" to-port="1"/>
		<edge from-layer="848" from-port="2" to-layer="850" to-port="0"/>
		<edge from-layer="849" from-port="1" to-layer="850" to-port="1"/>
		<edge from-layer="851" from-port="1" to-layer="856" to-port="0"/>
		<edge from-layer="852" from-port="1" to-layer="856" to-port="1"/>
		<edge from-layer="853" from-port="1" to-layer="856" to-port="2"/>
		<edge from-layer="854" from-port="1" to-layer="856" to-port="3"/>
		<edge from-layer="855" from-port="1" to-layer="856" to-port="4"/>
		<edge from-layer="612" from-port="5" to-layer="857" to-port="0"/>
		<edge from-layer="856" from-port="5" to-layer="857" to-port="1"/>
		<edge from-layer="857" from-port="2" to-layer="859" to-port="0"/>
		<edge from-layer="858" from-port="1" to-layer="859" to-port="1"/>
		<edge from-layer="859" from-port="2" to-layer="861" to-port="0"/>
		<edge from-layer="860" from-port="1" to-layer="861" to-port="1"/>
		<edge from-layer="861" from-port="2" to-layer="863" to-port="0"/>
		<edge from-layer="862" from-port="1" to-layer="863" to-port="1"/>
		<edge from-layer="864" from-port="1" to-layer="869" to-port="0"/>
		<edge from-layer="865" from-port="1" to-layer="869" to-port="1"/>
		<edge from-layer="866" from-port="1" to-layer="869" to-port="2"/>
		<edge from-layer="867" from-port="1" to-layer="869" to-port="3"/>
		<edge from-layer="868" from-port="1" to-layer="869" to-port="4"/>
		<edge from-layer="685" from-port="5" to-layer="870" to-port="0"/>
		<edge from-layer="869" from-port="5" to-layer="870" to-port="1"/>
		<edge from-layer="870" from-port="2" to-layer="872" to-port="0"/>
		<edge from-layer="871" from-port="1" to-layer="872" to-port="1"/>
		<edge from-layer="872" from-port="2" to-layer="874" to-port="0"/>
		<edge from-layer="873" from-port="1" to-layer="874" to-port="1"/>
		<edge from-layer="874" from-port="2" to-layer="876" to-port="0"/>
		<edge from-layer="875" from-port="1" to-layer="876" to-port="1"/>
		<edge from-layer="877" from-port="1" to-layer="882" to-port="0"/>
		<edge from-layer="878" from-port="1" to-layer="882" to-port="1"/>
		<edge from-layer="879" from-port="1" to-layer="882" to-port="2"/>
		<edge from-layer="880" from-port="1" to-layer="882" to-port="3"/>
		<edge from-layer="881" from-port="1" to-layer="882" to-port="4"/>
		<edge from-layer="745" from-port="5" to-layer="883" to-port="0"/>
		<edge from-layer="882" from-port="5" to-layer="883" to-port="1"/>
		<edge from-layer="883" from-port="2" to-layer="885" to-port="0"/>
		<edge from-layer="884" from-port="1" to-layer="885" to-port="1"/>
		<edge from-layer="885" from-port="2" to-layer="887" to-port="0"/>
		<edge from-layer="886" from-port="1" to-layer="887" to-port="1"/>
		<edge from-layer="887" from-port="2" to-layer="889" to-port="0"/>
		<edge from-layer="888" from-port="1" to-layer="889" to-port="1"/>
		<edge from-layer="772" from-port="2" to-layer="890" to-port="0"/>
		<edge from-layer="785" from-port="2" to-layer="890" to-port="1"/>
		<edge from-layer="798" from-port="2" to-layer="890" to-port="2"/>
		<edge from-layer="811" from-port="2" to-layer="890" to-port="3"/>
		<edge from-layer="824" from-port="2" to-layer="890" to-port="4"/>
		<edge from-layer="837" from-port="2" to-layer="890" to-port="5"/>
		<edge from-layer="850" from-port="2" to-layer="890" to-port="6"/>
		<edge from-layer="863" from-port="2" to-layer="890" to-port="7"/>
		<edge from-layer="876" from-port="2" to-layer="890" to-port="8"/>
		<edge from-layer="889" from-port="2" to-layer="890" to-port="9"/>
		<edge from-layer="890" from-port="10" to-layer="892" to-port="0"/>
		<edge from-layer="891" from-port="1" to-layer="892" to-port="1"/>
		<edge from-layer="892" from-port="2" to-layer="893" to-port="0"/>
		<edge from-layer="893" from-port="1" to-layer="895" to-port="0"/>
		<edge from-layer="894" from-port="1" to-layer="895" to-port="1"/>
		<edge from-layer="371" from-port="1" to-layer="896" to-port="0"/>
		<edge from-layer="896" from-port="1" to-layer="897" to-port="0"/>
		<edge from-layer="897" from-port="1" to-layer="901" to-port="0"/>
		<edge from-layer="898" from-port="1" to-layer="901" to-port="1"/>
		<edge from-layer="899" from-port="1" to-layer="901" to-port="2"/>
		<edge from-layer="900" from-port="1" to-layer="901" to-port="3"/>
		<edge from-layer="901" from-port="4" to-layer="902" to-port="0"/>
		<edge from-layer="4" from-port="2" to-layer="903" to-port="0"/>
		<edge from-layer="903" from-port="1" to-layer="904" to-port="0"/>
		<edge from-layer="904" from-port="1" to-layer="908" to-port="0"/>
		<edge from-layer="905" from-port="1" to-layer="908" to-port="1"/>
		<edge from-layer="906" from-port="1" to-layer="908" to-port="2"/>
		<edge from-layer="907" from-port="1" to-layer="908" to-port="3"/>
		<edge from-layer="908" from-port="4" to-layer="909" to-port="0"/>
		<edge from-layer="902" from-port="1" to-layer="910" to-port="0"/>
		<edge from-layer="909" from-port="1" to-layer="910" to-port="1"/>
		<edge from-layer="910" from-port="2" to-layer="912" to-port="0"/>
		<edge from-layer="911" from-port="1" to-layer="912" to-port="1"/>
		<edge from-layer="371" from-port="1" to-layer="913" to-port="0"/>
		<edge from-layer="913" from-port="1" to-layer="914" to-port="0"/>
		<edge from-layer="914" from-port="1" to-layer="918" to-port="0"/>
		<edge from-layer="915" from-port="1" to-layer="918" to-port="1"/>
		<edge from-layer="916" from-port="1" to-layer="918" to-port="2"/>
		<edge from-layer="917" from-port="1" to-layer="918" to-port="3"/>
		<edge from-layer="918" from-port="4" to-layer="919" to-port="0"/>
		<edge from-layer="4" from-port="2" to-layer="920" to-port="0"/>
		<edge from-layer="920" from-port="1" to-layer="921" to-port="0"/>
		<edge from-layer="921" from-port="1" to-layer="925" to-port="0"/>
		<edge from-layer="922" from-port="1" to-layer="925" to-port="1"/>
		<edge from-layer="923" from-port="1" to-layer="925" to-port="2"/>
		<edge from-layer="924" from-port="1" to-layer="925" to-port="3"/>
		<edge from-layer="925" from-port="4" to-layer="926" to-port="0"/>
		<edge from-layer="919" from-port="1" to-layer="927" to-port="0"/>
		<edge from-layer="926" from-port="1" to-layer="927" to-port="1"/>
		<edge from-layer="927" from-port="2" to-layer="929" to-port="0"/>
		<edge from-layer="928" from-port="1" to-layer="929" to-port="1"/>
		<edge from-layer="461" from-port="1" to-layer="930" to-port="0"/>
		<edge from-layer="930" from-port="1" to-layer="931" to-port="0"/>
		<edge from-layer="931" from-port="1" to-layer="935" to-port="0"/>
		<edge from-layer="932" from-port="1" to-layer="935" to-port="1"/>
		<edge from-layer="933" from-port="1" to-layer="935" to-port="2"/>
		<edge from-layer="934" from-port="1" to-layer="935" to-port="3"/>
		<edge from-layer="935" from-port="4" to-layer="936" to-port="0"/>
		<edge from-layer="4" from-port="2" to-layer="937" to-port="0"/>
		<edge from-layer="937" from-port="1" to-layer="938" to-port="0"/>
		<edge from-layer="938" from-port="1" to-layer="942" to-port="0"/>
		<edge from-layer="939" from-port="1" to-layer="942" to-port="1"/>
		<edge from-layer="940" from-port="1" to-layer="942" to-port="2"/>
		<edge from-layer="941" from-port="1" to-layer="942" to-port="3"/>
		<edge from-layer="942" from-port="4" to-layer="943" to-port="0"/>
		<edge from-layer="936" from-port="1" to-layer="944" to-port="0"/>
		<edge from-layer="943" from-port="1" to-layer="944" to-port="1"/>
		<edge from-layer="944" from-port="2" to-layer="946" to-port="0"/>
		<edge from-layer="945" from-port="1" to-layer="946" to-port="1"/>
		<edge from-layer="461" from-port="1" to-layer="947" to-port="0"/>
		<edge from-layer="947" from-port="1" to-layer="948" to-port="0"/>
		<edge from-layer="948" from-port="1" to-layer="952" to-port="0"/>
		<edge from-layer="949" from-port="1" to-layer="952" to-port="1"/>
		<edge from-layer="950" from-port="1" to-layer="952" to-port="2"/>
		<edge from-layer="951" from-port="1" to-layer="952" to-port="3"/>
		<edge from-layer="952" from-port="4" to-layer="953" to-port="0"/>
		<edge from-layer="4" from-port="2" to-layer="954" to-port="0"/>
		<edge from-layer="954" from-port="1" to-layer="955" to-port="0"/>
		<edge from-layer="955" from-port="1" to-layer="959" to-port="0"/>
		<edge from-layer="956" from-port="1" to-layer="959" to-port="1"/>
		<edge from-layer="957" from-port="1" to-layer="959" to-port="2"/>
		<edge from-layer="958" from-port="1" to-layer="959" to-port="3"/>
		<edge from-layer="959" from-port="4" to-layer="960" to-port="0"/>
		<edge from-layer="953" from-port="1" to-layer="961" to-port="0"/>
		<edge from-layer="960" from-port="1" to-layer="961" to-port="1"/>
		<edge from-layer="961" from-port="2" to-layer="963" to-port="0"/>
		<edge from-layer="962" from-port="1" to-layer="963" to-port="1"/>
		<edge from-layer="534" from-port="1" to-layer="964" to-port="0"/>
		<edge from-layer="964" from-port="1" to-layer="965" to-port="0"/>
		<edge from-layer="965" from-port="1" to-layer="969" to-port="0"/>
		<edge from-layer="966" from-port="1" to-layer="969" to-port="1"/>
		<edge from-layer="967" from-port="1" to-layer="969" to-port="2"/>
		<edge from-layer="968" from-port="1" to-layer="969" to-port="3"/>
		<edge from-layer="969" from-port="4" to-layer="970" to-port="0"/>
		<edge from-layer="4" from-port="2" to-layer="971" to-port="0"/>
		<edge from-layer="971" from-port="1" to-layer="972" to-port="0"/>
		<edge from-layer="972" from-port="1" to-layer="976" to-port="0"/>
		<edge from-layer="973" from-port="1" to-layer="976" to-port="1"/>
		<edge from-layer="974" from-port="1" to-layer="976" to-port="2"/>
		<edge from-layer="975" from-port="1" to-layer="976" to-port="3"/>
		<edge from-layer="976" from-port="4" to-layer="977" to-port="0"/>
		<edge from-layer="970" from-port="1" to-layer="978" to-port="0"/>
		<edge from-layer="977" from-port="1" to-layer="978" to-port="1"/>
		<edge from-layer="978" from-port="2" to-layer="980" to-port="0"/>
		<edge from-layer="979" from-port="1" to-layer="980" to-port="1"/>
		<edge from-layer="534" from-port="1" to-layer="981" to-port="0"/>
		<edge from-layer="981" from-port="1" to-layer="982" to-port="0"/>
		<edge from-layer="982" from-port="1" to-layer="986" to-port="0"/>
		<edge from-layer="983" from-port="1" to-layer="986" to-port="1"/>
		<edge from-layer="984" from-port="1" to-layer="986" to-port="2"/>
		<edge from-layer="985" from-port="1" to-layer="986" to-port="3"/>
		<edge from-layer="986" from-port="4" to-layer="987" to-port="0"/>
		<edge from-layer="4" from-port="2" to-layer="988" to-port="0"/>
		<edge from-layer="988" from-port="1" to-layer="989" to-port="0"/>
		<edge from-layer="989" from-port="1" to-layer="993" to-port="0"/>
		<edge from-layer="990" from-port="1" to-layer="993" to-port="1"/>
		<edge from-layer="991" from-port="1" to-layer="993" to-port="2"/>
		<edge from-layer="992" from-port="1" to-layer="993" to-port="3"/>
		<edge from-layer="993" from-port="4" to-layer="994" to-port="0"/>
		<edge from-layer="987" from-port="1" to-layer="995" to-port="0"/>
		<edge from-layer="994" from-port="1" to-layer="995" to-port="1"/>
		<edge from-layer="995" from-port="2" to-layer="997" to-port="0"/>
		<edge from-layer="996" from-port="1" to-layer="997" to-port="1"/>
		<edge from-layer="607" from-port="1" to-layer="998" to-port="0"/>
		<edge from-layer="998" from-port="1" to-layer="999" to-port="0"/>
		<edge from-layer="999" from-port="1" to-layer="1003" to-port="0"/>
		<edge from-layer="1000" from-port="1" to-layer="1003" to-port="1"/>
		<edge from-layer="1001" from-port="1" to-layer="1003" to-port="2"/>
		<edge from-layer="1002" from-port="1" to-layer="1003" to-port="3"/>
		<edge from-layer="1003" from-port="4" to-layer="1004" to-port="0"/>
		<edge from-layer="4" from-port="2" to-layer="1005" to-port="0"/>
		<edge from-layer="1005" from-port="1" to-layer="1006" to-port="0"/>
		<edge from-layer="1006" from-port="1" to-layer="1010" to-port="0"/>
		<edge from-layer="1007" from-port="1" to-layer="1010" to-port="1"/>
		<edge from-layer="1008" from-port="1" to-layer="1010" to-port="2"/>
		<edge from-layer="1009" from-port="1" to-layer="1010" to-port="3"/>
		<edge from-layer="1010" from-port="4" to-layer="1011" to-port="0"/>
		<edge from-layer="1004" from-port="1" to-layer="1012" to-port="0"/>
		<edge from-layer="1011" from-port="1" to-layer="1012" to-port="1"/>
		<edge from-layer="1012" from-port="2" to-layer="1014" to-port="0"/>
		<edge from-layer="1013" from-port="1" to-layer="1014" to-port="1"/>
		<edge from-layer="607" from-port="1" to-layer="1015" to-port="0"/>
		<edge from-layer="1015" from-port="1" to-layer="1016" to-port="0"/>
		<edge from-layer="1016" from-port="1" to-layer="1020" to-port="0"/>
		<edge from-layer="1017" from-port="1" to-layer="1020" to-port="1"/>
		<edge from-layer="1018" from-port="1" to-layer="1020" to-port="2"/>
		<edge from-layer="1019" from-port="1" to-layer="1020" to-port="3"/>
		<edge from-layer="1020" from-port="4" to-layer="1021" to-port="0"/>
		<edge from-layer="4" from-port="2" to-layer="1022" to-port="0"/>
		<edge from-layer="1022" from-port="1" to-layer="1023" to-port="0"/>
		<edge from-layer="1023" from-port="1" to-layer="1027" to-port="0"/>
		<edge from-layer="1024" from-port="1" to-layer="1027" to-port="1"/>
		<edge from-layer="1025" from-port="1" to-layer="1027" to-port="2"/>
		<edge from-layer="1026" from-port="1" to-layer="1027" to-port="3"/>
		<edge from-layer="1027" from-port="4" to-layer="1028" to-port="0"/>
		<edge from-layer="1021" from-port="1" to-layer="1029" to-port="0"/>
		<edge from-layer="1028" from-port="1" to-layer="1029" to-port="1"/>
		<edge from-layer="1029" from-port="2" to-layer="1031" to-port="0"/>
		<edge from-layer="1030" from-port="1" to-layer="1031" to-port="1"/>
		<edge from-layer="680" from-port="1" to-layer="1032" to-port="0"/>
		<edge from-layer="1032" from-port="1" to-layer="1033" to-port="0"/>
		<edge from-layer="1033" from-port="1" to-layer="1037" to-port="0"/>
		<edge from-layer="1034" from-port="1" to-layer="1037" to-port="1"/>
		<edge from-layer="1035" from-port="1" to-layer="1037" to-port="2"/>
		<edge from-layer="1036" from-port="1" to-layer="1037" to-port="3"/>
		<edge from-layer="1037" from-port="4" to-layer="1038" to-port="0"/>
		<edge from-layer="4" from-port="2" to-layer="1039" to-port="0"/>
		<edge from-layer="1039" from-port="1" to-layer="1040" to-port="0"/>
		<edge from-layer="1040" from-port="1" to-layer="1044" to-port="0"/>
		<edge from-layer="1041" from-port="1" to-layer="1044" to-port="1"/>
		<edge from-layer="1042" from-port="1" to-layer="1044" to-port="2"/>
		<edge from-layer="1043" from-port="1" to-layer="1044" to-port="3"/>
		<edge from-layer="1044" from-port="4" to-layer="1045" to-port="0"/>
		<edge from-layer="1038" from-port="1" to-layer="1046" to-port="0"/>
		<edge from-layer="1045" from-port="1" to-layer="1046" to-port="1"/>
		<edge from-layer="1046" from-port="2" to-layer="1048" to-port="0"/>
		<edge from-layer="1047" from-port="1" to-layer="1048" to-port="1"/>
		<edge from-layer="740" from-port="1" to-layer="1049" to-port="0"/>
		<edge from-layer="1049" from-port="1" to-layer="1050" to-port="0"/>
		<edge from-layer="1050" from-port="1" to-layer="1054" to-port="0"/>
		<edge from-layer="1051" from-port="1" to-layer="1054" to-port="1"/>
		<edge from-layer="1052" from-port="1" to-layer="1054" to-port="2"/>
		<edge from-layer="1053" from-port="1" to-layer="1054" to-port="3"/>
		<edge from-layer="1054" from-port="4" to-layer="1055" to-port="0"/>
		<edge from-layer="4" from-port="2" to-layer="1056" to-port="0"/>
		<edge from-layer="1056" from-port="1" to-layer="1057" to-port="0"/>
		<edge from-layer="1057" from-port="1" to-layer="1061" to-port="0"/>
		<edge from-layer="1058" from-port="1" to-layer="1061" to-port="1"/>
		<edge from-layer="1059" from-port="1" to-layer="1061" to-port="2"/>
		<edge from-layer="1060" from-port="1" to-layer="1061" to-port="3"/>
		<edge from-layer="1061" from-port="4" to-layer="1062" to-port="0"/>
		<edge from-layer="1055" from-port="1" to-layer="1063" to-port="0"/>
		<edge from-layer="1062" from-port="1" to-layer="1063" to-port="1"/>
		<edge from-layer="1063" from-port="2" to-layer="1065" to-port="0"/>
		<edge from-layer="1064" from-port="1" to-layer="1065" to-port="1"/>
		<edge from-layer="912" from-port="2" to-layer="1066" to-port="0"/>
		<edge from-layer="929" from-port="2" to-layer="1066" to-port="1"/>
		<edge from-layer="946" from-port="2" to-layer="1066" to-port="2"/>
		<edge from-layer="963" from-port="2" to-layer="1066" to-port="3"/>
		<edge from-layer="980" from-port="2" to-layer="1066" to-port="4"/>
		<edge from-layer="997" from-port="2" to-layer="1066" to-port="5"/>
		<edge from-layer="1014" from-port="2" to-layer="1066" to-port="6"/>
		<edge from-layer="1031" from-port="2" to-layer="1066" to-port="7"/>
		<edge from-layer="1048" from-port="2" to-layer="1066" to-port="8"/>
		<edge from-layer="1065" from-port="2" to-layer="1066" to-port="9"/>
		<edge from-layer="759" from-port="10" to-layer="1067" to-port="0"/>
		<edge from-layer="895" from-port="2" to-layer="1067" to-port="1"/>
		<edge from-layer="1066" from-port="10" to-layer="1067" to-port="2"/>
		<edge from-layer="1067" from-port="3" to-layer="1068" to-port="0"/>
	</edges>
	<meta_data>
		<MO_version value="unknown version"/>
		<cli_parameters>
			<blobs_as_inputs value="True"/>
			<caffe_parser_path value="DIR"/>
			<data_type value="FP32"/>
			<disable_nhwc_to_nchw value="False"/>
			<disable_omitting_optional value="False"/>
			<disable_resnet_optimization value="False"/>
			<enable_concat_optimization value="False"/>
			<enable_flattening_nested_params value="False"/>
			<enable_ssd_gluoncv value="False"/>
			<extensions value="DIR"/>
			<framework value="caffe"/>
			<freeze_placeholder_with_value value="{}"/>
			<generate_deprecated_IR_V2 value="False"/>
			<generate_deprecated_IR_V7 value="False"/>
			<generate_experimental_IR_V10 value="True"/>
			<input value="data"/>
			<input_model value="DIR/pedestrian-and-vehicle-detector-adas-0001.caffemodel"/>
			<input_model_is_text value="False"/>
			<input_proto value="DIR/pedestrian-and-vehicle-detector-adas-0001.prototxt"/>
			<input_shape value="[1,3,384,672]"/>
			<k value="DIR/CustomLayersMapping.xml"/>
			<keep_quantize_ops_in_IR value="True"/>
			<keep_shape_ops value="True"/>
			<legacy_mxnet_model value="False"/>
			<log_level value="ERROR"/>
			<mean_scale_values value="{'data': {'mean': array([104., 117., 123.]), 'scale': array([58.82352941])}}"/>
			<mean_values value="data[104.0,117.0,123.0]"/>
			<model_name value="pedestrian-and-vehicle-detector-adas-0001"/>
			<move_to_preprocess value="False"/>
			<output value="['detection_out']"/>
			<output_dir value="DIR"/>
			<placeholder_data_types value="{}"/>
			<placeholder_shapes value="{'data': array([  1,   3, 384, 672])}"/>
			<progress value="False"/>
			<remove_memory value="False"/>
			<remove_output_softmax value="False"/>
			<reverse_input_channels value="False"/>
			<save_params_from_nd value="False"/>
			<scale_values value="data[58.8235294117647]"/>
			<silent value="False"/>
			<stream_output value="False"/>
			<unset unset_cli_parameters="batch, counts, disable_fusing, disable_gfusing, finegrain_fusing, input_checkpoint, input_meta_graph, input_symbol, mean_file, mean_file_offsets, nd_prefix_name, pretrained_model_name, saved_model_dir, saved_model_tags, scale, tensorboard_logdir, tensorflow_custom_layer_libraries, tensorflow_custom_operations_config_update, tensorflow_object_detection_api_pipeline_config, tensorflow_operation_patterns, tensorflow_subgraph_patterns, tensorflow_use_custom_operations_config, transformations_config"/>
		</cli_parameters>
	</meta_data>
</net>
