<?xml version="1.0" ?>
<net name="RMNet_SSD" version="10">
	<layers>
		<layer id="0" name="data" type="Parameter" version="opset1">
			<data element_type="f32" shape="1,3,1024,1024"/>
			<output>
				<port id="0" precision="FP32">
					<dim>1</dim>
					<dim>3</dim>
					<dim>1024</dim>
					<dim>1024</dim>
				</port>
			</output>
		</layer>
		<layer id="1" name="data_add_/copy_const805_const" type="Const" version="opset1">
			<data element_type="f32" offset="0" shape="1,3,1,1" size="12"/>
			<output>
				<port id="1" precision="FP32">
					<dim>1</dim>
					<dim>3</dim>
					<dim>1</dim>
					<dim>1</dim>
				</port>
			</output>
		</layer>
		<layer id="2" name="Add_" type="Add" version="opset1">
			<input>
				<port id="0">
					<dim>1</dim>
					<dim>3</dim>
					<dim>1024</dim>
					<dim>1024</dim>
				</port>
				<port id="1">
					<dim>1</dim>
					<dim>3</dim>
					<dim>1</dim>
					<dim>1</dim>
				</port>
			</input>
			<output>
				<port id="2" precision="FP32">
					<dim>1</dim>
					<dim>3</dim>
					<dim>1024</dim>
					<dim>1024</dim>
				</port>
			</output>
		</layer>
		<layer id="3" name="38713875_const" type="Const" version="opset1">
			<data element_type="f32" offset="12" shape="" size="4"/>
			<output>
				<port id="1" precision="FP32"/>
			</output>
		</layer>
		<layer id="4" name="38723876_const" type="Const" version="opset1">
			<data element_type="f32" offset="16" shape="" size="4"/>
			<output>
				<port id="1" precision="FP32"/>
			</output>
		</layer>
		<layer id="5" name="38733877_const" type="Const" version="opset1">
			<data element_type="f32" offset="12" shape="" size="4"/>
			<output>
				<port id="1" precision="FP32"/>
			</output>
		</layer>
		<layer id="6" name="38743878_const" type="Const" version="opset1">
			<data element_type="f32" offset="16" shape="" size="4"/>
			<output>
				<port id="1" precision="FP32"/>
			</output>
		</layer>
		<layer id="7" name="Mul1_/Fused_Mul_/fq_input_0" type="FakeQuantize" version="opset1">
			<data levels="256"/>
			<input>
				<port id="0">
					<dim>1</dim>
					<dim>3</dim>
					<dim>1024</dim>
					<dim>1024</dim>
				</port>
				<port id="1"/>
				<port id="2"/>
				<port id="3"/>
				<port id="4"/>
			</input>
			<output>
				<port id="5" precision="FP32">
					<dim>1</dim>
					<dim>3</dim>
					<dim>1024</dim>
					<dim>1024</dim>
				</port>
			</output>
		</layer>
		<layer id="8" name="data_mul_25642/copy_const807_const" type="Const" version="opset1">
			<data element_type="f32" offset="20" shape="1,3,1,1" size="12"/>
			<output>
				<port id="1" precision="FP32">
					<dim>1</dim>
					<dim>3</dim>
					<dim>1</dim>
					<dim>1</dim>
				</port>
			</output>
		</layer>
		<layer id="9" name="Mul1_/Fused_Mul_" type="Multiply" version="opset1">
			<input>
				<port id="0">
					<dim>1</dim>
					<dim>3</dim>
					<dim>1024</dim>
					<dim>1024</dim>
				</port>
				<port id="1">
					<dim>1</dim>
					<dim>3</dim>
					<dim>1</dim>
					<dim>1</dim>
				</port>
			</input>
			<output>
				<port id="2" precision="FP32">
					<dim>1</dim>
					<dim>3</dim>
					<dim>1024</dim>
					<dim>1024</dim>
				</port>
			</output>
		</layer>
		<layer id="10" name="data_add_2563925644/copy_const809_const" type="Const" version="opset1">
			<data element_type="f32" offset="32" shape="1,3,1,1" size="12"/>
			<output>
				<port id="1" precision="FP32">
					<dim>1</dim>
					<dim>3</dim>
					<dim>1</dim>
					<dim>1</dim>
				</port>
			</output>
		</layer>
		<layer id="11" name="Add1_/Fused_Add_" type="Add" version="opset1">
			<input>
				<port id="0">
					<dim>1</dim>
					<dim>3</dim>
					<dim>1024</dim>
					<dim>1024</dim>
				</port>
				<port id="1">
					<dim>1</dim>
					<dim>3</dim>
					<dim>1</dim>
					<dim>1</dim>
				</port>
			</input>
			<output>
				<port id="2" precision="FP32">
					<dim>1</dim>
					<dim>3</dim>
					<dim>1024</dim>
					<dim>1024</dim>
				</port>
			</output>
		</layer>
		<layer id="12" name="25912595_const" type="Const" version="opset1">
			<data element_type="f32" offset="44" shape="" size="4"/>
			<output>
				<port id="1" precision="FP32"/>
			</output>
		</layer>
		<layer id="13" name="25922596_const" type="Const" version="opset1">
			<data element_type="f32" offset="48" shape="" size="4"/>
			<output>
				<port id="1" precision="FP32"/>
			</output>
		</layer>
		<layer id="14" name="25932597_const" type="Const" version="opset1">
			<data element_type="f32" offset="44" shape="" size="4"/>
			<output>
				<port id="1" precision="FP32"/>
			</output>
		</layer>
		<layer id="15" name="25942598_const" type="Const" version="opset1">
			<data element_type="f32" offset="48" shape="" size="4"/>
			<output>
				<port id="1" precision="FP32"/>
			</output>
		</layer>
		<layer id="16" name="conv0/WithoutBiases/fq_input_0" type="FakeQuantize" version="opset1">
			<data levels="256"/>
			<input>
				<port id="0">
					<dim>1</dim>
					<dim>3</dim>
					<dim>1024</dim>
					<dim>1024</dim>
				</port>
				<port id="1"/>
				<port id="2"/>
				<port id="3"/>
				<port id="4"/>
			</input>
			<output>
				<port id="5" precision="FP32">
					<dim>1</dim>
					<dim>3</dim>
					<dim>1024</dim>
					<dim>1024</dim>
				</port>
			</output>
		</layer>
		<layer id="17" name="Mul1_22138/Fused_Mul_2754827550_const811_const" type="Const" version="opset1">
			<data element_type="f32" offset="52" shape="3,3,7,7" size="1764"/>
			<output>
				<port id="1" precision="FP32">
					<dim>3</dim>
					<dim>3</dim>
					<dim>7</dim>
					<dim>7</dim>
				</port>
			</output>
		</layer>
		<layer id="18" name="26012605_const" type="Const" version="opset1">
			<data element_type="f32" offset="1816" shape="3,1,1,1" size="12"/>
			<output>
				<port id="1" precision="FP32">
					<dim>3</dim>
					<dim>1</dim>
					<dim>1</dim>
					<dim>1</dim>
				</port>
			</output>
		</layer>
		<layer id="19" name="26022606_const" type="Const" version="opset1">
			<data element_type="f32" offset="1828" shape="3,1,1,1" size="12"/>
			<output>
				<port id="1" precision="FP32">
					<dim>3</dim>
					<dim>1</dim>
					<dim>1</dim>
					<dim>1</dim>
				</port>
			</output>
		</layer>
		<layer id="20" name="26032607_const" type="Const" version="opset1">
			<data element_type="f32" offset="1840" shape="3,1,1,1" size="12"/>
			<output>
				<port id="1" precision="FP32">
					<dim>3</dim>
					<dim>1</dim>
					<dim>1</dim>
					<dim>1</dim>
				</port>
			</output>
		</layer>
		<layer id="21" name="26042608_const" type="Const" version="opset1">
			<data element_type="f32" offset="1852" shape="3,1,1,1" size="12"/>
			<output>
				<port id="1" precision="FP32">
					<dim>3</dim>
					<dim>1</dim>
					<dim>1</dim>
					<dim>1</dim>
				</port>
			</output>
		</layer>
		<layer id="22" name="conv0/WithoutBiases/fq_weights_1" type="FakeQuantize" version="opset1">
			<data levels="255"/>
			<input>
				<port id="0">
					<dim>3</dim>
					<dim>3</dim>
					<dim>7</dim>
					<dim>7</dim>
				</port>
				<port id="1">
					<dim>3</dim>
					<dim>1</dim>
					<dim>1</dim>
					<dim>1</dim>
				</port>
				<port id="2">
					<dim>3</dim>
					<dim>1</dim>
					<dim>1</dim>
					<dim>1</dim>
				</port>
				<port id="3">
					<dim>3</dim>
					<dim>1</dim>
					<dim>1</dim>
					<dim>1</dim>
				</port>
				<port id="4">
					<dim>3</dim>
					<dim>1</dim>
					<dim>1</dim>
					<dim>1</dim>
				</port>
			</input>
			<output>
				<port id="5" precision="FP32">
					<dim>3</dim>
					<dim>3</dim>
					<dim>7</dim>
					<dim>7</dim>
				</port>
			</output>
		</layer>
		<layer id="23" name="conv0/WithoutBiases" type="Convolution" version="opset1">
			<data dilations="1,1" output_padding="0,0" pads_begin="3,3" pads_end="3,3" strides="2,2"/>
			<input>
				<port id="0">
					<dim>1</dim>
					<dim>3</dim>
					<dim>1024</dim>
					<dim>1024</dim>
				</port>
				<port id="1">
					<dim>3</dim>
					<dim>3</dim>
					<dim>7</dim>
					<dim>7</dim>
				</port>
			</input>
			<output>
				<port id="2" precision="FP32">
					<dim>1</dim>
					<dim>3</dim>
					<dim>512</dim>
					<dim>512</dim>
				</port>
			</output>
		</layer>
		<layer id="24" name="data_add_2564725652/copy_const813_const" type="Const" version="opset1">
			<data element_type="f32" offset="1864" shape="1,3,1,1" size="12"/>
			<output>
				<port id="1" precision="FP32">
					<dim>1</dim>
					<dim>3</dim>
					<dim>1</dim>
					<dim>1</dim>
				</port>
			</output>
		</layer>
		<layer id="25" name="conv0/Fused_Add_" type="Add" version="opset1">
			<input>
				<port id="0">
					<dim>1</dim>
					<dim>3</dim>
					<dim>512</dim>
					<dim>512</dim>
				</port>
				<port id="1">
					<dim>1</dim>
					<dim>3</dim>
					<dim>1</dim>
					<dim>1</dim>
				</port>
			</input>
			<output>
				<port id="2" precision="FP32">
					<dim>1</dim>
					<dim>3</dim>
					<dim>512</dim>
					<dim>512</dim>
				</port>
			</output>
		</layer>
		<layer id="26" name="conv0_relu" type="ReLU" version="opset1">
			<input>
				<port id="0">
					<dim>1</dim>
					<dim>3</dim>
					<dim>512</dim>
					<dim>512</dim>
				</port>
			</input>
			<output>
				<port id="1" precision="FP32">
					<dim>1</dim>
					<dim>3</dim>
					<dim>512</dim>
					<dim>512</dim>
				</port>
			</output>
		</layer>
		<layer id="27" name="44614465_const" type="Const" version="opset1">
			<data element_type="f32" offset="1876" shape="" size="4"/>
			<output>
				<port id="1" precision="FP32"/>
			</output>
		</layer>
		<layer id="28" name="44624466_const" type="Const" version="opset1">
			<data element_type="f32" offset="1880" shape="" size="4"/>
			<output>
				<port id="1" precision="FP32"/>
			</output>
		</layer>
		<layer id="29" name="44634467_const" type="Const" version="opset1">
			<data element_type="f32" offset="1876" shape="" size="4"/>
			<output>
				<port id="1" precision="FP32"/>
			</output>
		</layer>
		<layer id="30" name="44644468_const" type="Const" version="opset1">
			<data element_type="f32" offset="1880" shape="" size="4"/>
			<output>
				<port id="1" precision="FP32"/>
			</output>
		</layer>
		<layer id="31" name="init_block1/dim_inc/conv/fq_input_0" type="FakeQuantize" version="opset1">
			<data levels="256"/>
			<input>
				<port id="0">
					<dim>1</dim>
					<dim>3</dim>
					<dim>512</dim>
					<dim>512</dim>
				</port>
				<port id="1"/>
				<port id="2"/>
				<port id="3"/>
				<port id="4"/>
			</input>
			<output>
				<port id="5" precision="FP32">
					<dim>1</dim>
					<dim>3</dim>
					<dim>512</dim>
					<dim>512</dim>
				</port>
			</output>
		</layer>
		<layer id="32" name="Mul1_22150/Fused_Mul_2755227554_const816_const" type="Const" version="opset1">
			<data element_type="f32" offset="1884" shape="32,3,3,3" size="3456"/>
			<output>
				<port id="1" precision="FP32">
					<dim>32</dim>
					<dim>3</dim>
					<dim>3</dim>
					<dim>3</dim>
				</port>
			</output>
		</layer>
		<layer id="33" name="44714475_const" type="Const" version="opset1">
			<data element_type="f32" offset="5340" shape="32,1,1,1" size="128"/>
			<output>
				<port id="1" precision="FP32">
					<dim>32</dim>
					<dim>1</dim>
					<dim>1</dim>
					<dim>1</dim>
				</port>
			</output>
		</layer>
		<layer id="34" name="44724476_const" type="Const" version="opset1">
			<data element_type="f32" offset="5468" shape="32,1,1,1" size="128"/>
			<output>
				<port id="1" precision="FP32">
					<dim>32</dim>
					<dim>1</dim>
					<dim>1</dim>
					<dim>1</dim>
				</port>
			</output>
		</layer>
		<layer id="35" name="44734477_const" type="Const" version="opset1">
			<data element_type="f32" offset="5340" shape="32,1,1,1" size="128"/>
			<output>
				<port id="1" precision="FP32">
					<dim>32</dim>
					<dim>1</dim>
					<dim>1</dim>
					<dim>1</dim>
				</port>
			</output>
		</layer>
		<layer id="36" name="44744478_const" type="Const" version="opset1">
			<data element_type="f32" offset="5468" shape="32,1,1,1" size="128"/>
			<output>
				<port id="1" precision="FP32">
					<dim>32</dim>
					<dim>1</dim>
					<dim>1</dim>
					<dim>1</dim>
				</port>
			</output>
		</layer>
		<layer id="37" name="init_block1/dim_inc/conv/fq_weights_1" type="FakeQuantize" version="opset1">
			<data levels="255"/>
			<input>
				<port id="0">
					<dim>32</dim>
					<dim>3</dim>
					<dim>3</dim>
					<dim>3</dim>
				</port>
				<port id="1">
					<dim>32</dim>
					<dim>1</dim>
					<dim>1</dim>
					<dim>1</dim>
				</port>
				<port id="2">
					<dim>32</dim>
					<dim>1</dim>
					<dim>1</dim>
					<dim>1</dim>
				</port>
				<port id="3">
					<dim>32</dim>
					<dim>1</dim>
					<dim>1</dim>
					<dim>1</dim>
				</port>
				<port id="4">
					<dim>32</dim>
					<dim>1</dim>
					<dim>1</dim>
					<dim>1</dim>
				</port>
			</input>
			<output>
				<port id="5" precision="FP32">
					<dim>32</dim>
					<dim>3</dim>
					<dim>3</dim>
					<dim>3</dim>
				</port>
			</output>
		</layer>
		<layer id="38" name="init_block1/dim_inc/conv" type="Convolution" version="opset1">
			<data dilations="1,1" output_padding="0,0" pads_begin="1,1" pads_end="1,1" strides="2,2"/>
			<input>
				<port id="0">
					<dim>1</dim>
					<dim>3</dim>
					<dim>512</dim>
					<dim>512</dim>
				</port>
				<port id="1">
					<dim>32</dim>
					<dim>3</dim>
					<dim>3</dim>
					<dim>3</dim>
				</port>
			</input>
			<output>
				<port id="2" precision="FP32">
					<dim>1</dim>
					<dim>32</dim>
					<dim>256</dim>
					<dim>256</dim>
				</port>
			</output>
		</layer>
		<layer id="39" name="data_add_2565525660/copy_const818_const" type="Const" version="opset1">
			<data element_type="f32" offset="5596" shape="1,32,1,1" size="128"/>
			<output>
				<port id="1" precision="FP32">
					<dim>1</dim>
					<dim>32</dim>
					<dim>1</dim>
					<dim>1</dim>
				</port>
			</output>
		</layer>
		<layer id="40" name="Add1_22151/Fused_Add_" type="Add" version="opset1">
			<input>
				<port id="0">
					<dim>1</dim>
					<dim>32</dim>
					<dim>256</dim>
					<dim>256</dim>
				</port>
				<port id="1">
					<dim>1</dim>
					<dim>32</dim>
					<dim>1</dim>
					<dim>1</dim>
				</port>
			</input>
			<output>
				<port id="2" precision="FP32">
					<dim>1</dim>
					<dim>32</dim>
					<dim>256</dim>
					<dim>256</dim>
				</port>
			</output>
		</layer>
		<layer id="41" name="init_block1/dim_inc/fn" type="ReLU" version="opset1">
			<input>
				<port id="0">
					<dim>1</dim>
					<dim>32</dim>
					<dim>256</dim>
					<dim>256</dim>
				</port>
			</input>
			<output>
				<port id="1" precision="FP32">
					<dim>1</dim>
					<dim>32</dim>
					<dim>256</dim>
					<dim>256</dim>
				</port>
			</output>
		</layer>
		<layer id="42" name="46514655_const" type="Const" version="opset1">
			<data element_type="f32" offset="1876" shape="" size="4"/>
			<output>
				<port id="1" precision="FP32"/>
			</output>
		</layer>
		<layer id="43" name="46524656_const" type="Const" version="opset1">
			<data element_type="f32" offset="5724" shape="" size="4"/>
			<output>
				<port id="1" precision="FP32"/>
			</output>
		</layer>
		<layer id="44" name="46534657_const" type="Const" version="opset1">
			<data element_type="f32" offset="1876" shape="" size="4"/>
			<output>
				<port id="1" precision="FP32"/>
			</output>
		</layer>
		<layer id="45" name="46544658_const" type="Const" version="opset1">
			<data element_type="f32" offset="5724" shape="" size="4"/>
			<output>
				<port id="1" precision="FP32"/>
			</output>
		</layer>
		<layer id="46" name="bottleneck1_1/add/fq_input_0" type="FakeQuantize" version="opset1">
			<data levels="256"/>
			<input>
				<port id="0">
					<dim>1</dim>
					<dim>32</dim>
					<dim>256</dim>
					<dim>256</dim>
				</port>
				<port id="1"/>
				<port id="2"/>
				<port id="3"/>
				<port id="4"/>
			</input>
			<output>
				<port id="5" precision="FP32">
					<dim>1</dim>
					<dim>32</dim>
					<dim>256</dim>
					<dim>256</dim>
				</port>
			</output>
		</layer>
		<layer id="47" name="Mul1_22162/Fused_Mul_2755627558_const821_const" type="Const" version="opset1">
			<data element_type="f32" offset="5728" shape="8,32,1,1" size="1024"/>
			<output>
				<port id="1" precision="FP32">
					<dim>8</dim>
					<dim>32</dim>
					<dim>1</dim>
					<dim>1</dim>
				</port>
			</output>
		</layer>
		<layer id="48" name="51015105_const" type="Const" version="opset1">
			<data element_type="f32" offset="6752" shape="8,1,1,1" size="32"/>
			<output>
				<port id="1" precision="FP32">
					<dim>8</dim>
					<dim>1</dim>
					<dim>1</dim>
					<dim>1</dim>
				</port>
			</output>
		</layer>
		<layer id="49" name="51025106_const" type="Const" version="opset1">
			<data element_type="f32" offset="6784" shape="8,1,1,1" size="32"/>
			<output>
				<port id="1" precision="FP32">
					<dim>8</dim>
					<dim>1</dim>
					<dim>1</dim>
					<dim>1</dim>
				</port>
			</output>
		</layer>
		<layer id="50" name="51035107_const" type="Const" version="opset1">
			<data element_type="f32" offset="6752" shape="8,1,1,1" size="32"/>
			<output>
				<port id="1" precision="FP32">
					<dim>8</dim>
					<dim>1</dim>
					<dim>1</dim>
					<dim>1</dim>
				</port>
			</output>
		</layer>
		<layer id="51" name="51045108_const" type="Const" version="opset1">
			<data element_type="f32" offset="6784" shape="8,1,1,1" size="32"/>
			<output>
				<port id="1" precision="FP32">
					<dim>8</dim>
					<dim>1</dim>
					<dim>1</dim>
					<dim>1</dim>
				</port>
			</output>
		</layer>
		<layer id="52" name="bottleneck1_1/dim_red/conv/fq_weights_1" type="FakeQuantize" version="opset1">
			<data levels="255"/>
			<input>
				<port id="0">
					<dim>8</dim>
					<dim>32</dim>
					<dim>1</dim>
					<dim>1</dim>
				</port>
				<port id="1">
					<dim>8</dim>
					<dim>1</dim>
					<dim>1</dim>
					<dim>1</dim>
				</port>
				<port id="2">
					<dim>8</dim>
					<dim>1</dim>
					<dim>1</dim>
					<dim>1</dim>
				</port>
				<port id="3">
					<dim>8</dim>
					<dim>1</dim>
					<dim>1</dim>
					<dim>1</dim>
				</port>
				<port id="4">
					<dim>8</dim>
					<dim>1</dim>
					<dim>1</dim>
					<dim>1</dim>
				</port>
			</input>
			<output>
				<port id="5" precision="FP32">
					<dim>8</dim>
					<dim>32</dim>
					<dim>1</dim>
					<dim>1</dim>
				</port>
			</output>
		</layer>
		<layer id="53" name="bottleneck1_1/dim_red/conv" type="Convolution" version="opset1">
			<data dilations="1,1" output_padding="0,0" pads_begin="0,0" pads_end="0,0" strides="1,1"/>
			<input>
				<port id="0">
					<dim>1</dim>
					<dim>32</dim>
					<dim>256</dim>
					<dim>256</dim>
				</port>
				<port id="1">
					<dim>8</dim>
					<dim>32</dim>
					<dim>1</dim>
					<dim>1</dim>
				</port>
			</input>
			<output>
				<port id="2" precision="FP32">
					<dim>1</dim>
					<dim>8</dim>
					<dim>256</dim>
					<dim>256</dim>
				</port>
			</output>
		</layer>
		<layer id="54" name="data_add_2566325668/copy_const823_const" type="Const" version="opset1">
			<data element_type="f32" offset="6816" shape="1,8,1,1" size="32"/>
			<output>
				<port id="1" precision="FP32">
					<dim>1</dim>
					<dim>8</dim>
					<dim>1</dim>
					<dim>1</dim>
				</port>
			</output>
		</layer>
		<layer id="55" name="Add1_22163/Fused_Add_" type="Add" version="opset1">
			<input>
				<port id="0">
					<dim>1</dim>
					<dim>8</dim>
					<dim>256</dim>
					<dim>256</dim>
				</port>
				<port id="1">
					<dim>1</dim>
					<dim>8</dim>
					<dim>1</dim>
					<dim>1</dim>
				</port>
			</input>
			<output>
				<port id="2" precision="FP32">
					<dim>1</dim>
					<dim>8</dim>
					<dim>256</dim>
					<dim>256</dim>
				</port>
			</output>
		</layer>
		<layer id="56" name="bottleneck1_1/dim_red/fn" type="Elu" version="opset1">
			<data alpha="1.0"/>
			<input>
				<port id="0">
					<dim>1</dim>
					<dim>8</dim>
					<dim>256</dim>
					<dim>256</dim>
				</port>
			</input>
			<output>
				<port id="1" precision="FP32">
					<dim>1</dim>
					<dim>8</dim>
					<dim>256</dim>
					<dim>256</dim>
				</port>
			</output>
		</layer>
		<layer id="57" name="36913695_const" type="Const" version="opset1">
			<data element_type="f32" offset="6848" shape="1,8,1,1" size="32"/>
			<output>
				<port id="1" precision="FP32">
					<dim>1</dim>
					<dim>8</dim>
					<dim>1</dim>
					<dim>1</dim>
				</port>
			</output>
		</layer>
		<layer id="58" name="36923696_const" type="Const" version="opset1">
			<data element_type="f32" offset="6880" shape="1,8,1,1" size="32"/>
			<output>
				<port id="1" precision="FP32">
					<dim>1</dim>
					<dim>8</dim>
					<dim>1</dim>
					<dim>1</dim>
				</port>
			</output>
		</layer>
		<layer id="59" name="36933697_const" type="Const" version="opset1">
			<data element_type="f32" offset="6848" shape="1,8,1,1" size="32"/>
			<output>
				<port id="1" precision="FP32">
					<dim>1</dim>
					<dim>8</dim>
					<dim>1</dim>
					<dim>1</dim>
				</port>
			</output>
		</layer>
		<layer id="60" name="36943698_const" type="Const" version="opset1">
			<data element_type="f32" offset="6880" shape="1,8,1,1" size="32"/>
			<output>
				<port id="1" precision="FP32">
					<dim>1</dim>
					<dim>8</dim>
					<dim>1</dim>
					<dim>1</dim>
				</port>
			</output>
		</layer>
		<layer id="61" name="bottleneck1_1/inner/dw1/conv/fq_input_0" type="FakeQuantize" version="opset1">
			<data levels="256"/>
			<input>
				<port id="0">
					<dim>1</dim>
					<dim>8</dim>
					<dim>256</dim>
					<dim>256</dim>
				</port>
				<port id="1">
					<dim>1</dim>
					<dim>8</dim>
					<dim>1</dim>
					<dim>1</dim>
				</port>
				<port id="2">
					<dim>1</dim>
					<dim>8</dim>
					<dim>1</dim>
					<dim>1</dim>
				</port>
				<port id="3">
					<dim>1</dim>
					<dim>8</dim>
					<dim>1</dim>
					<dim>1</dim>
				</port>
				<port id="4">
					<dim>1</dim>
					<dim>8</dim>
					<dim>1</dim>
					<dim>1</dim>
				</port>
			</input>
			<output>
				<port id="5" precision="FP32">
					<dim>1</dim>
					<dim>8</dim>
					<dim>256</dim>
					<dim>256</dim>
				</port>
			</output>
		</layer>
		<layer id="62" name="17441534_const" type="Const" version="opset1">
			<data element_type="f32" offset="6912" shape="8,1,3,3" size="288"/>
			<output>
				<port id="1" precision="FP32">
					<dim>8</dim>
					<dim>1</dim>
					<dim>3</dim>
					<dim>3</dim>
				</port>
			</output>
		</layer>
		<layer id="63" name="37013705_const" type="Const" version="opset1">
			<data element_type="f32" offset="7200" shape="8,1,1,1" size="32"/>
			<output>
				<port id="1" precision="FP32">
					<dim>8</dim>
					<dim>1</dim>
					<dim>1</dim>
					<dim>1</dim>
				</port>
			</output>
		</layer>
		<layer id="64" name="37023706_const" type="Const" version="opset1">
			<data element_type="f32" offset="7232" shape="8,1,1,1" size="32"/>
			<output>
				<port id="1" precision="FP32">
					<dim>8</dim>
					<dim>1</dim>
					<dim>1</dim>
					<dim>1</dim>
				</port>
			</output>
		</layer>
		<layer id="65" name="37033707_const" type="Const" version="opset1">
			<data element_type="f32" offset="7200" shape="8,1,1,1" size="32"/>
			<output>
				<port id="1" precision="FP32">
					<dim>8</dim>
					<dim>1</dim>
					<dim>1</dim>
					<dim>1</dim>
				</port>
			</output>
		</layer>
		<layer id="66" name="37043708_const" type="Const" version="opset1">
			<data element_type="f32" offset="7232" shape="8,1,1,1" size="32"/>
			<output>
				<port id="1" precision="FP32">
					<dim>8</dim>
					<dim>1</dim>
					<dim>1</dim>
					<dim>1</dim>
				</port>
			</output>
		</layer>
		<layer id="67" name="bottleneck1_1/inner/dw1/conv/fq_weights_1" type="FakeQuantize" version="opset1">
			<data levels="255"/>
			<input>
				<port id="0">
					<dim>8</dim>
					<dim>1</dim>
					<dim>3</dim>
					<dim>3</dim>
				</port>
				<port id="1">
					<dim>8</dim>
					<dim>1</dim>
					<dim>1</dim>
					<dim>1</dim>
				</port>
				<port id="2">
					<dim>8</dim>
					<dim>1</dim>
					<dim>1</dim>
					<dim>1</dim>
				</port>
				<port id="3">
					<dim>8</dim>
					<dim>1</dim>
					<dim>1</dim>
					<dim>1</dim>
				</port>
				<port id="4">
					<dim>8</dim>
					<dim>1</dim>
					<dim>1</dim>
					<dim>1</dim>
				</port>
			</input>
			<output>
				<port id="5" precision="FP32">
					<dim>8</dim>
					<dim>1</dim>
					<dim>3</dim>
					<dim>3</dim>
				</port>
			</output>
		</layer>
		<layer id="68" name="9946/value9948_const" type="Const" version="opset1">
			<data element_type="i64" offset="7264" shape="5" size="40"/>
			<output>
				<port id="1" precision="I64">
					<dim>5</dim>
				</port>
			</output>
		</layer>
		<layer id="69" name="9946" type="Reshape" version="opset1">
			<data special_zero="True"/>
			<input>
				<port id="0">
					<dim>8</dim>
					<dim>1</dim>
					<dim>3</dim>
					<dim>3</dim>
				</port>
				<port id="1">
					<dim>5</dim>
				</port>
			</input>
			<output>
				<port id="2" precision="FP32">
					<dim>8</dim>
					<dim>1</dim>
					<dim>1</dim>
					<dim>3</dim>
					<dim>3</dim>
				</port>
			</output>
		</layer>
		<layer id="70" name="bottleneck1_1/inner/dw1/conv" type="GroupConvolution" version="opset1">
			<data dilations="1,1" output_padding="0,0" pads_begin="1,1" pads_end="1,1" strides="1,1"/>
			<input>
				<port id="0">
					<dim>1</dim>
					<dim>8</dim>
					<dim>256</dim>
					<dim>256</dim>
				</port>
				<port id="1">
					<dim>8</dim>
					<dim>1</dim>
					<dim>1</dim>
					<dim>3</dim>
					<dim>3</dim>
				</port>
			</input>
			<output>
				<port id="2" precision="FP32">
					<dim>1</dim>
					<dim>8</dim>
					<dim>256</dim>
					<dim>256</dim>
				</port>
			</output>
		</layer>
		<layer id="71" name="data_add_2567125676/copy_const828_const" type="Const" version="opset1">
			<data element_type="f32" offset="7304" shape="1,8,1,1" size="32"/>
			<output>
				<port id="1" precision="FP32">
					<dim>1</dim>
					<dim>8</dim>
					<dim>1</dim>
					<dim>1</dim>
				</port>
			</output>
		</layer>
		<layer id="72" name="Add1_22175/Fused_Add_" type="Add" version="opset1">
			<input>
				<port id="0">
					<dim>1</dim>
					<dim>8</dim>
					<dim>256</dim>
					<dim>256</dim>
				</port>
				<port id="1">
					<dim>1</dim>
					<dim>8</dim>
					<dim>1</dim>
					<dim>1</dim>
				</port>
			</input>
			<output>
				<port id="2" precision="FP32">
					<dim>1</dim>
					<dim>8</dim>
					<dim>256</dim>
					<dim>256</dim>
				</port>
			</output>
		</layer>
		<layer id="73" name="bottleneck1_1/inner/dw1/fn" type="Elu" version="opset1">
			<data alpha="1.0"/>
			<input>
				<port id="0">
					<dim>1</dim>
					<dim>8</dim>
					<dim>256</dim>
					<dim>256</dim>
				</port>
			</input>
			<output>
				<port id="1" precision="FP32">
					<dim>1</dim>
					<dim>8</dim>
					<dim>256</dim>
					<dim>256</dim>
				</port>
			</output>
		</layer>
		<layer id="74" name="41014105_const" type="Const" version="opset1">
			<data element_type="f32" offset="7336" shape="" size="4"/>
			<output>
				<port id="1" precision="FP32"/>
			</output>
		</layer>
		<layer id="75" name="41024106_const" type="Const" version="opset1">
			<data element_type="f32" offset="7340" shape="" size="4"/>
			<output>
				<port id="1" precision="FP32"/>
			</output>
		</layer>
		<layer id="76" name="41034107_const" type="Const" version="opset1">
			<data element_type="f32" offset="7336" shape="" size="4"/>
			<output>
				<port id="1" precision="FP32"/>
			</output>
		</layer>
		<layer id="77" name="41044108_const" type="Const" version="opset1">
			<data element_type="f32" offset="7340" shape="" size="4"/>
			<output>
				<port id="1" precision="FP32"/>
			</output>
		</layer>
		<layer id="78" name="bottleneck1_1/dim_inc/conv/fq_input_0" type="FakeQuantize" version="opset1">
			<data levels="256"/>
			<input>
				<port id="0">
					<dim>1</dim>
					<dim>8</dim>
					<dim>256</dim>
					<dim>256</dim>
				</port>
				<port id="1"/>
				<port id="2"/>
				<port id="3"/>
				<port id="4"/>
			</input>
			<output>
				<port id="5" precision="FP32">
					<dim>1</dim>
					<dim>8</dim>
					<dim>256</dim>
					<dim>256</dim>
				</port>
			</output>
		</layer>
		<layer id="79" name="Mul1_22186/Fused_Mul_2756427566_const831_const" type="Const" version="opset1">
			<data element_type="f32" offset="7344" shape="32,8,1,1" size="1024"/>
			<output>
				<port id="1" precision="FP32">
					<dim>32</dim>
					<dim>8</dim>
					<dim>1</dim>
					<dim>1</dim>
				</port>
			</output>
		</layer>
		<layer id="80" name="41114115_const" type="Const" version="opset1">
			<data element_type="f32" offset="8368" shape="32,1,1,1" size="128"/>
			<output>
				<port id="1" precision="FP32">
					<dim>32</dim>
					<dim>1</dim>
					<dim>1</dim>
					<dim>1</dim>
				</port>
			</output>
		</layer>
		<layer id="81" name="41124116_const" type="Const" version="opset1">
			<data element_type="f32" offset="8496" shape="32,1,1,1" size="128"/>
			<output>
				<port id="1" precision="FP32">
					<dim>32</dim>
					<dim>1</dim>
					<dim>1</dim>
					<dim>1</dim>
				</port>
			</output>
		</layer>
		<layer id="82" name="41134117_const" type="Const" version="opset1">
			<data element_type="f32" offset="8368" shape="32,1,1,1" size="128"/>
			<output>
				<port id="1" precision="FP32">
					<dim>32</dim>
					<dim>1</dim>
					<dim>1</dim>
					<dim>1</dim>
				</port>
			</output>
		</layer>
		<layer id="83" name="41144118_const" type="Const" version="opset1">
			<data element_type="f32" offset="8496" shape="32,1,1,1" size="128"/>
			<output>
				<port id="1" precision="FP32">
					<dim>32</dim>
					<dim>1</dim>
					<dim>1</dim>
					<dim>1</dim>
				</port>
			</output>
		</layer>
		<layer id="84" name="bottleneck1_1/dim_inc/conv/fq_weights_1" type="FakeQuantize" version="opset1">
			<data levels="255"/>
			<input>
				<port id="0">
					<dim>32</dim>
					<dim>8</dim>
					<dim>1</dim>
					<dim>1</dim>
				</port>
				<port id="1">
					<dim>32</dim>
					<dim>1</dim>
					<dim>1</dim>
					<dim>1</dim>
				</port>
				<port id="2">
					<dim>32</dim>
					<dim>1</dim>
					<dim>1</dim>
					<dim>1</dim>
				</port>
				<port id="3">
					<dim>32</dim>
					<dim>1</dim>
					<dim>1</dim>
					<dim>1</dim>
				</port>
				<port id="4">
					<dim>32</dim>
					<dim>1</dim>
					<dim>1</dim>
					<dim>1</dim>
				</port>
			</input>
			<output>
				<port id="5" precision="FP32">
					<dim>32</dim>
					<dim>8</dim>
					<dim>1</dim>
					<dim>1</dim>
				</port>
			</output>
		</layer>
		<layer id="85" name="bottleneck1_1/dim_inc/conv" type="Convolution" version="opset1">
			<data dilations="1,1" output_padding="0,0" pads_begin="0,0" pads_end="0,0" strides="1,1"/>
			<input>
				<port id="0">
					<dim>1</dim>
					<dim>8</dim>
					<dim>256</dim>
					<dim>256</dim>
				</port>
				<port id="1">
					<dim>32</dim>
					<dim>8</dim>
					<dim>1</dim>
					<dim>1</dim>
				</port>
			</input>
			<output>
				<port id="2" precision="FP32">
					<dim>1</dim>
					<dim>32</dim>
					<dim>256</dim>
					<dim>256</dim>
				</port>
			</output>
		</layer>
		<layer id="86" name="data_add_2567925684/copy_const833_const" type="Const" version="opset1">
			<data element_type="f32" offset="8624" shape="1,32,1,1" size="128"/>
			<output>
				<port id="1" precision="FP32">
					<dim>1</dim>
					<dim>32</dim>
					<dim>1</dim>
					<dim>1</dim>
				</port>
			</output>
		</layer>
		<layer id="87" name="Add1_22187/Fused_Add_" type="Add" version="opset1">
			<input>
				<port id="0">
					<dim>1</dim>
					<dim>32</dim>
					<dim>256</dim>
					<dim>256</dim>
				</port>
				<port id="1">
					<dim>1</dim>
					<dim>32</dim>
					<dim>1</dim>
					<dim>1</dim>
				</port>
			</input>
			<output>
				<port id="2" precision="FP32">
					<dim>1</dim>
					<dim>32</dim>
					<dim>256</dim>
					<dim>256</dim>
				</port>
			</output>
		</layer>
		<layer id="88" name="46614665_const" type="Const" version="opset1">
			<data element_type="f32" offset="8752" shape="" size="4"/>
			<output>
				<port id="1" precision="FP32"/>
			</output>
		</layer>
		<layer id="89" name="46624666_const" type="Const" version="opset1">
			<data element_type="f32" offset="8756" shape="" size="4"/>
			<output>
				<port id="1" precision="FP32"/>
			</output>
		</layer>
		<layer id="90" name="46634667_const" type="Const" version="opset1">
			<data element_type="f32" offset="8752" shape="" size="4"/>
			<output>
				<port id="1" precision="FP32"/>
			</output>
		</layer>
		<layer id="91" name="46644668_const" type="Const" version="opset1">
			<data element_type="f32" offset="8756" shape="" size="4"/>
			<output>
				<port id="1" precision="FP32"/>
			</output>
		</layer>
		<layer id="92" name="bottleneck1_1/add/fq_input_1" type="FakeQuantize" version="opset1">
			<data levels="256"/>
			<input>
				<port id="0">
					<dim>1</dim>
					<dim>32</dim>
					<dim>256</dim>
					<dim>256</dim>
				</port>
				<port id="1"/>
				<port id="2"/>
				<port id="3"/>
				<port id="4"/>
			</input>
			<output>
				<port id="5" precision="FP32">
					<dim>1</dim>
					<dim>32</dim>
					<dim>256</dim>
					<dim>256</dim>
				</port>
			</output>
		</layer>
		<layer id="93" name="bottleneck1_1/add" type="Add" version="opset1">
			<input>
				<port id="0">
					<dim>1</dim>
					<dim>32</dim>
					<dim>256</dim>
					<dim>256</dim>
				</port>
				<port id="1">
					<dim>1</dim>
					<dim>32</dim>
					<dim>256</dim>
					<dim>256</dim>
				</port>
			</input>
			<output>
				<port id="2" precision="FP32">
					<dim>1</dim>
					<dim>32</dim>
					<dim>256</dim>
					<dim>256</dim>
				</port>
			</output>
		</layer>
		<layer id="94" name="bottleneck1_1/fn" type="Elu" version="opset1">
			<data alpha="1.0"/>
			<input>
				<port id="0">
					<dim>1</dim>
					<dim>32</dim>
					<dim>256</dim>
					<dim>256</dim>
				</port>
			</input>
			<output>
				<port id="1" precision="FP32">
					<dim>1</dim>
					<dim>32</dim>
					<dim>256</dim>
					<dim>256</dim>
				</port>
			</output>
		</layer>
		<layer id="95" name="40014005_const" type="Const" version="opset1">
			<data element_type="f32" offset="8760" shape="" size="4"/>
			<output>
				<port id="1" precision="FP32"/>
			</output>
		</layer>
		<layer id="96" name="40024006_const" type="Const" version="opset1">
			<data element_type="f32" offset="8764" shape="" size="4"/>
			<output>
				<port id="1" precision="FP32"/>
			</output>
		</layer>
		<layer id="97" name="40034007_const" type="Const" version="opset1">
			<data element_type="f32" offset="8760" shape="" size="4"/>
			<output>
				<port id="1" precision="FP32"/>
			</output>
		</layer>
		<layer id="98" name="40044008_const" type="Const" version="opset1">
			<data element_type="f32" offset="8764" shape="" size="4"/>
			<output>
				<port id="1" precision="FP32"/>
			</output>
		</layer>
		<layer id="99" name="bottleneck1_2/add/fq_input_0" type="FakeQuantize" version="opset1">
			<data levels="256"/>
			<input>
				<port id="0">
					<dim>1</dim>
					<dim>32</dim>
					<dim>256</dim>
					<dim>256</dim>
				</port>
				<port id="1"/>
				<port id="2"/>
				<port id="3"/>
				<port id="4"/>
			</input>
			<output>
				<port id="5" precision="FP32">
					<dim>1</dim>
					<dim>32</dim>
					<dim>256</dim>
					<dim>256</dim>
				</port>
			</output>
		</layer>
		<layer id="100" name="Mul1_22198/Fused_Mul_2756827570_const837_const" type="Const" version="opset1">
			<data element_type="f32" offset="8768" shape="8,32,1,1" size="1024"/>
			<output>
				<port id="1" precision="FP32">
					<dim>8</dim>
					<dim>32</dim>
					<dim>1</dim>
					<dim>1</dim>
				</port>
			</output>
		</layer>
		<layer id="101" name="36213625_const" type="Const" version="opset1">
			<data element_type="f32" offset="9792" shape="8,1,1,1" size="32"/>
			<output>
				<port id="1" precision="FP32">
					<dim>8</dim>
					<dim>1</dim>
					<dim>1</dim>
					<dim>1</dim>
				</port>
			</output>
		</layer>
		<layer id="102" name="36223626_const" type="Const" version="opset1">
			<data element_type="f32" offset="9824" shape="8,1,1,1" size="32"/>
			<output>
				<port id="1" precision="FP32">
					<dim>8</dim>
					<dim>1</dim>
					<dim>1</dim>
					<dim>1</dim>
				</port>
			</output>
		</layer>
		<layer id="103" name="36233627_const" type="Const" version="opset1">
			<data element_type="f32" offset="9792" shape="8,1,1,1" size="32"/>
			<output>
				<port id="1" precision="FP32">
					<dim>8</dim>
					<dim>1</dim>
					<dim>1</dim>
					<dim>1</dim>
				</port>
			</output>
		</layer>
		<layer id="104" name="36243628_const" type="Const" version="opset1">
			<data element_type="f32" offset="9824" shape="8,1,1,1" size="32"/>
			<output>
				<port id="1" precision="FP32">
					<dim>8</dim>
					<dim>1</dim>
					<dim>1</dim>
					<dim>1</dim>
				</port>
			</output>
		</layer>
		<layer id="105" name="bottleneck1_2/dim_red/conv/fq_weights_1" type="FakeQuantize" version="opset1">
			<data levels="255"/>
			<input>
				<port id="0">
					<dim>8</dim>
					<dim>32</dim>
					<dim>1</dim>
					<dim>1</dim>
				</port>
				<port id="1">
					<dim>8</dim>
					<dim>1</dim>
					<dim>1</dim>
					<dim>1</dim>
				</port>
				<port id="2">
					<dim>8</dim>
					<dim>1</dim>
					<dim>1</dim>
					<dim>1</dim>
				</port>
				<port id="3">
					<dim>8</dim>
					<dim>1</dim>
					<dim>1</dim>
					<dim>1</dim>
				</port>
				<port id="4">
					<dim>8</dim>
					<dim>1</dim>
					<dim>1</dim>
					<dim>1</dim>
				</port>
			</input>
			<output>
				<port id="5" precision="FP32">
					<dim>8</dim>
					<dim>32</dim>
					<dim>1</dim>
					<dim>1</dim>
				</port>
			</output>
		</layer>
		<layer id="106" name="bottleneck1_2/dim_red/conv" type="Convolution" version="opset1">
			<data dilations="1,1" output_padding="0,0" pads_begin="0,0" pads_end="0,0" strides="1,1"/>
			<input>
				<port id="0">
					<dim>1</dim>
					<dim>32</dim>
					<dim>256</dim>
					<dim>256</dim>
				</port>
				<port id="1">
					<dim>8</dim>
					<dim>32</dim>
					<dim>1</dim>
					<dim>1</dim>
				</port>
			</input>
			<output>
				<port id="2" precision="FP32">
					<dim>1</dim>
					<dim>8</dim>
					<dim>256</dim>
					<dim>256</dim>
				</port>
			</output>
		</layer>
		<layer id="107" name="data_add_2568725692/copy_const839_const" type="Const" version="opset1">
			<data element_type="f32" offset="9856" shape="1,8,1,1" size="32"/>
			<output>
				<port id="1" precision="FP32">
					<dim>1</dim>
					<dim>8</dim>
					<dim>1</dim>
					<dim>1</dim>
				</port>
			</output>
		</layer>
		<layer id="108" name="Add1_22199/Fused_Add_" type="Add" version="opset1">
			<input>
				<port id="0">
					<dim>1</dim>
					<dim>8</dim>
					<dim>256</dim>
					<dim>256</dim>
				</port>
				<port id="1">
					<dim>1</dim>
					<dim>8</dim>
					<dim>1</dim>
					<dim>1</dim>
				</port>
			</input>
			<output>
				<port id="2" precision="FP32">
					<dim>1</dim>
					<dim>8</dim>
					<dim>256</dim>
					<dim>256</dim>
				</port>
			</output>
		</layer>
		<layer id="109" name="bottleneck1_2/dim_red/fn" type="Elu" version="opset1">
			<data alpha="1.0"/>
			<input>
				<port id="0">
					<dim>1</dim>
					<dim>8</dim>
					<dim>256</dim>
					<dim>256</dim>
				</port>
			</input>
			<output>
				<port id="1" precision="FP32">
					<dim>1</dim>
					<dim>8</dim>
					<dim>256</dim>
					<dim>256</dim>
				</port>
			</output>
		</layer>
		<layer id="110" name="53115315_const" type="Const" version="opset1">
			<data element_type="f32" offset="9888" shape="1,8,1,1" size="32"/>
			<output>
				<port id="1" precision="FP32">
					<dim>1</dim>
					<dim>8</dim>
					<dim>1</dim>
					<dim>1</dim>
				</port>
			</output>
		</layer>
		<layer id="111" name="53125316_const" type="Const" version="opset1">
			<data element_type="f32" offset="9920" shape="1,8,1,1" size="32"/>
			<output>
				<port id="1" precision="FP32">
					<dim>1</dim>
					<dim>8</dim>
					<dim>1</dim>
					<dim>1</dim>
				</port>
			</output>
		</layer>
		<layer id="112" name="53135317_const" type="Const" version="opset1">
			<data element_type="f32" offset="9888" shape="1,8,1,1" size="32"/>
			<output>
				<port id="1" precision="FP32">
					<dim>1</dim>
					<dim>8</dim>
					<dim>1</dim>
					<dim>1</dim>
				</port>
			</output>
		</layer>
		<layer id="113" name="53145318_const" type="Const" version="opset1">
			<data element_type="f32" offset="9920" shape="1,8,1,1" size="32"/>
			<output>
				<port id="1" precision="FP32">
					<dim>1</dim>
					<dim>8</dim>
					<dim>1</dim>
					<dim>1</dim>
				</port>
			</output>
		</layer>
		<layer id="114" name="bottleneck1_2/inner/dw1/conv/fq_input_0" type="FakeQuantize" version="opset1">
			<data levels="256"/>
			<input>
				<port id="0">
					<dim>1</dim>
					<dim>8</dim>
					<dim>256</dim>
					<dim>256</dim>
				</port>
				<port id="1">
					<dim>1</dim>
					<dim>8</dim>
					<dim>1</dim>
					<dim>1</dim>
				</port>
				<port id="2">
					<dim>1</dim>
					<dim>8</dim>
					<dim>1</dim>
					<dim>1</dim>
				</port>
				<port id="3">
					<dim>1</dim>
					<dim>8</dim>
					<dim>1</dim>
					<dim>1</dim>
				</port>
				<port id="4">
					<dim>1</dim>
					<dim>8</dim>
					<dim>1</dim>
					<dim>1</dim>
				</port>
			</input>
			<output>
				<port id="5" precision="FP32">
					<dim>1</dim>
					<dim>8</dim>
					<dim>256</dim>
					<dim>256</dim>
				</port>
			</output>
		</layer>
		<layer id="115" name="17481536_const" type="Const" version="opset1">
			<data element_type="f32" offset="9952" shape="8,1,3,3" size="288"/>
			<output>
				<port id="1" precision="FP32">
					<dim>8</dim>
					<dim>1</dim>
					<dim>3</dim>
					<dim>3</dim>
				</port>
			</output>
		</layer>
		<layer id="116" name="53215325_const" type="Const" version="opset1">
			<data element_type="f32" offset="10240" shape="8,1,1,1" size="32"/>
			<output>
				<port id="1" precision="FP32">
					<dim>8</dim>
					<dim>1</dim>
					<dim>1</dim>
					<dim>1</dim>
				</port>
			</output>
		</layer>
		<layer id="117" name="53225326_const" type="Const" version="opset1">
			<data element_type="f32" offset="10272" shape="8,1,1,1" size="32"/>
			<output>
				<port id="1" precision="FP32">
					<dim>8</dim>
					<dim>1</dim>
					<dim>1</dim>
					<dim>1</dim>
				</port>
			</output>
		</layer>
		<layer id="118" name="53235327_const" type="Const" version="opset1">
			<data element_type="f32" offset="10240" shape="8,1,1,1" size="32"/>
			<output>
				<port id="1" precision="FP32">
					<dim>8</dim>
					<dim>1</dim>
					<dim>1</dim>
					<dim>1</dim>
				</port>
			</output>
		</layer>
		<layer id="119" name="53245328_const" type="Const" version="opset1">
			<data element_type="f32" offset="10272" shape="8,1,1,1" size="32"/>
			<output>
				<port id="1" precision="FP32">
					<dim>8</dim>
					<dim>1</dim>
					<dim>1</dim>
					<dim>1</dim>
				</port>
			</output>
		</layer>
		<layer id="120" name="bottleneck1_2/inner/dw1/conv/fq_weights_1" type="FakeQuantize" version="opset1">
			<data levels="255"/>
			<input>
				<port id="0">
					<dim>8</dim>
					<dim>1</dim>
					<dim>3</dim>
					<dim>3</dim>
				</port>
				<port id="1">
					<dim>8</dim>
					<dim>1</dim>
					<dim>1</dim>
					<dim>1</dim>
				</port>
				<port id="2">
					<dim>8</dim>
					<dim>1</dim>
					<dim>1</dim>
					<dim>1</dim>
				</port>
				<port id="3">
					<dim>8</dim>
					<dim>1</dim>
					<dim>1</dim>
					<dim>1</dim>
				</port>
				<port id="4">
					<dim>8</dim>
					<dim>1</dim>
					<dim>1</dim>
					<dim>1</dim>
				</port>
			</input>
			<output>
				<port id="5" precision="FP32">
					<dim>8</dim>
					<dim>1</dim>
					<dim>3</dim>
					<dim>3</dim>
				</port>
			</output>
		</layer>
		<layer id="121" name="10018/value10020_const" type="Const" version="opset1">
			<data element_type="i64" offset="7264" shape="5" size="40"/>
			<output>
				<port id="1" precision="I64">
					<dim>5</dim>
				</port>
			</output>
		</layer>
		<layer id="122" name="10018" type="Reshape" version="opset1">
			<data special_zero="True"/>
			<input>
				<port id="0">
					<dim>8</dim>
					<dim>1</dim>
					<dim>3</dim>
					<dim>3</dim>
				</port>
				<port id="1">
					<dim>5</dim>
				</port>
			</input>
			<output>
				<port id="2" precision="FP32">
					<dim>8</dim>
					<dim>1</dim>
					<dim>1</dim>
					<dim>3</dim>
					<dim>3</dim>
				</port>
			</output>
		</layer>
		<layer id="123" name="bottleneck1_2/inner/dw1/conv" type="GroupConvolution" version="opset1">
			<data dilations="1,1" output_padding="0,0" pads_begin="1,1" pads_end="1,1" strides="1,1"/>
			<input>
				<port id="0">
					<dim>1</dim>
					<dim>8</dim>
					<dim>256</dim>
					<dim>256</dim>
				</port>
				<port id="1">
					<dim>8</dim>
					<dim>1</dim>
					<dim>1</dim>
					<dim>3</dim>
					<dim>3</dim>
				</port>
			</input>
			<output>
				<port id="2" precision="FP32">
					<dim>1</dim>
					<dim>8</dim>
					<dim>256</dim>
					<dim>256</dim>
				</port>
			</output>
		</layer>
		<layer id="124" name="data_add_2569525700/copy_const844_const" type="Const" version="opset1">
			<data element_type="f32" offset="10304" shape="1,8,1,1" size="32"/>
			<output>
				<port id="1" precision="FP32">
					<dim>1</dim>
					<dim>8</dim>
					<dim>1</dim>
					<dim>1</dim>
				</port>
			</output>
		</layer>
		<layer id="125" name="Add1_22211/Fused_Add_" type="Add" version="opset1">
			<input>
				<port id="0">
					<dim>1</dim>
					<dim>8</dim>
					<dim>256</dim>
					<dim>256</dim>
				</port>
				<port id="1">
					<dim>1</dim>
					<dim>8</dim>
					<dim>1</dim>
					<dim>1</dim>
				</port>
			</input>
			<output>
				<port id="2" precision="FP32">
					<dim>1</dim>
					<dim>8</dim>
					<dim>256</dim>
					<dim>256</dim>
				</port>
			</output>
		</layer>
		<layer id="126" name="bottleneck1_2/inner/dw1/fn" type="Elu" version="opset1">
			<data alpha="1.0"/>
			<input>
				<port id="0">
					<dim>1</dim>
					<dim>8</dim>
					<dim>256</dim>
					<dim>256</dim>
				</port>
			</input>
			<output>
				<port id="1" precision="FP32">
					<dim>1</dim>
					<dim>8</dim>
					<dim>256</dim>
					<dim>256</dim>
				</port>
			</output>
		</layer>
		<layer id="127" name="35913595_const" type="Const" version="opset1">
			<data element_type="f32" offset="10336" shape="" size="4"/>
			<output>
				<port id="1" precision="FP32"/>
			</output>
		</layer>
		<layer id="128" name="35923596_const" type="Const" version="opset1">
			<data element_type="f32" offset="10340" shape="" size="4"/>
			<output>
				<port id="1" precision="FP32"/>
			</output>
		</layer>
		<layer id="129" name="35933597_const" type="Const" version="opset1">
			<data element_type="f32" offset="10336" shape="" size="4"/>
			<output>
				<port id="1" precision="FP32"/>
			</output>
		</layer>
		<layer id="130" name="35943598_const" type="Const" version="opset1">
			<data element_type="f32" offset="10340" shape="" size="4"/>
			<output>
				<port id="1" precision="FP32"/>
			</output>
		</layer>
		<layer id="131" name="bottleneck1_2/dim_inc/conv/fq_input_0" type="FakeQuantize" version="opset1">
			<data levels="256"/>
			<input>
				<port id="0">
					<dim>1</dim>
					<dim>8</dim>
					<dim>256</dim>
					<dim>256</dim>
				</port>
				<port id="1"/>
				<port id="2"/>
				<port id="3"/>
				<port id="4"/>
			</input>
			<output>
				<port id="5" precision="FP32">
					<dim>1</dim>
					<dim>8</dim>
					<dim>256</dim>
					<dim>256</dim>
				</port>
			</output>
		</layer>
		<layer id="132" name="Mul1_22222/Fused_Mul_2757627578_const847_const" type="Const" version="opset1">
			<data element_type="f32" offset="10344" shape="32,8,1,1" size="1024"/>
			<output>
				<port id="1" precision="FP32">
					<dim>32</dim>
					<dim>8</dim>
					<dim>1</dim>
					<dim>1</dim>
				</port>
			</output>
		</layer>
		<layer id="133" name="36013605_const" type="Const" version="opset1">
			<data element_type="f32" offset="11368" shape="32,1,1,1" size="128"/>
			<output>
				<port id="1" precision="FP32">
					<dim>32</dim>
					<dim>1</dim>
					<dim>1</dim>
					<dim>1</dim>
				</port>
			</output>
		</layer>
		<layer id="134" name="36023606_const" type="Const" version="opset1">
			<data element_type="f32" offset="11496" shape="32,1,1,1" size="128"/>
			<output>
				<port id="1" precision="FP32">
					<dim>32</dim>
					<dim>1</dim>
					<dim>1</dim>
					<dim>1</dim>
				</port>
			</output>
		</layer>
		<layer id="135" name="36033607_const" type="Const" version="opset1">
			<data element_type="f32" offset="11368" shape="32,1,1,1" size="128"/>
			<output>
				<port id="1" precision="FP32">
					<dim>32</dim>
					<dim>1</dim>
					<dim>1</dim>
					<dim>1</dim>
				</port>
			</output>
		</layer>
		<layer id="136" name="36043608_const" type="Const" version="opset1">
			<data element_type="f32" offset="11496" shape="32,1,1,1" size="128"/>
			<output>
				<port id="1" precision="FP32">
					<dim>32</dim>
					<dim>1</dim>
					<dim>1</dim>
					<dim>1</dim>
				</port>
			</output>
		</layer>
		<layer id="137" name="bottleneck1_2/dim_inc/conv/fq_weights_1" type="FakeQuantize" version="opset1">
			<data levels="255"/>
			<input>
				<port id="0">
					<dim>32</dim>
					<dim>8</dim>
					<dim>1</dim>
					<dim>1</dim>
				</port>
				<port id="1">
					<dim>32</dim>
					<dim>1</dim>
					<dim>1</dim>
					<dim>1</dim>
				</port>
				<port id="2">
					<dim>32</dim>
					<dim>1</dim>
					<dim>1</dim>
					<dim>1</dim>
				</port>
				<port id="3">
					<dim>32</dim>
					<dim>1</dim>
					<dim>1</dim>
					<dim>1</dim>
				</port>
				<port id="4">
					<dim>32</dim>
					<dim>1</dim>
					<dim>1</dim>
					<dim>1</dim>
				</port>
			</input>
			<output>
				<port id="5" precision="FP32">
					<dim>32</dim>
					<dim>8</dim>
					<dim>1</dim>
					<dim>1</dim>
				</port>
			</output>
		</layer>
		<layer id="138" name="bottleneck1_2/dim_inc/conv" type="Convolution" version="opset1">
			<data dilations="1,1" output_padding="0,0" pads_begin="0,0" pads_end="0,0" strides="1,1"/>
			<input>
				<port id="0">
					<dim>1</dim>
					<dim>8</dim>
					<dim>256</dim>
					<dim>256</dim>
				</port>
				<port id="1">
					<dim>32</dim>
					<dim>8</dim>
					<dim>1</dim>
					<dim>1</dim>
				</port>
			</input>
			<output>
				<port id="2" precision="FP32">
					<dim>1</dim>
					<dim>32</dim>
					<dim>256</dim>
					<dim>256</dim>
				</port>
			</output>
		</layer>
		<layer id="139" name="data_add_2570325708/copy_const849_const" type="Const" version="opset1">
			<data element_type="f32" offset="11624" shape="1,32,1,1" size="128"/>
			<output>
				<port id="1" precision="FP32">
					<dim>1</dim>
					<dim>32</dim>
					<dim>1</dim>
					<dim>1</dim>
				</port>
			</output>
		</layer>
		<layer id="140" name="Add1_22223/Fused_Add_" type="Add" version="opset1">
			<input>
				<port id="0">
					<dim>1</dim>
					<dim>32</dim>
					<dim>256</dim>
					<dim>256</dim>
				</port>
				<port id="1">
					<dim>1</dim>
					<dim>32</dim>
					<dim>1</dim>
					<dim>1</dim>
				</port>
			</input>
			<output>
				<port id="2" precision="FP32">
					<dim>1</dim>
					<dim>32</dim>
					<dim>256</dim>
					<dim>256</dim>
				</port>
			</output>
		</layer>
		<layer id="141" name="40114015_const" type="Const" version="opset1">
			<data element_type="f32" offset="11752" shape="" size="4"/>
			<output>
				<port id="1" precision="FP32"/>
			</output>
		</layer>
		<layer id="142" name="40124016_const" type="Const" version="opset1">
			<data element_type="f32" offset="11756" shape="" size="4"/>
			<output>
				<port id="1" precision="FP32"/>
			</output>
		</layer>
		<layer id="143" name="40134017_const" type="Const" version="opset1">
			<data element_type="f32" offset="11752" shape="" size="4"/>
			<output>
				<port id="1" precision="FP32"/>
			</output>
		</layer>
		<layer id="144" name="40144018_const" type="Const" version="opset1">
			<data element_type="f32" offset="11756" shape="" size="4"/>
			<output>
				<port id="1" precision="FP32"/>
			</output>
		</layer>
		<layer id="145" name="bottleneck1_2/add/fq_input_1" type="FakeQuantize" version="opset1">
			<data levels="256"/>
			<input>
				<port id="0">
					<dim>1</dim>
					<dim>32</dim>
					<dim>256</dim>
					<dim>256</dim>
				</port>
				<port id="1"/>
				<port id="2"/>
				<port id="3"/>
				<port id="4"/>
			</input>
			<output>
				<port id="5" precision="FP32">
					<dim>1</dim>
					<dim>32</dim>
					<dim>256</dim>
					<dim>256</dim>
				</port>
			</output>
		</layer>
		<layer id="146" name="bottleneck1_2/add" type="Add" version="opset1">
			<input>
				<port id="0">
					<dim>1</dim>
					<dim>32</dim>
					<dim>256</dim>
					<dim>256</dim>
				</port>
				<port id="1">
					<dim>1</dim>
					<dim>32</dim>
					<dim>256</dim>
					<dim>256</dim>
				</port>
			</input>
			<output>
				<port id="2" precision="FP32">
					<dim>1</dim>
					<dim>32</dim>
					<dim>256</dim>
					<dim>256</dim>
				</port>
			</output>
		</layer>
		<layer id="147" name="bottleneck1_2/fn" type="Elu" version="opset1">
			<data alpha="1.0"/>
			<input>
				<port id="0">
					<dim>1</dim>
					<dim>32</dim>
					<dim>256</dim>
					<dim>256</dim>
				</port>
			</input>
			<output>
				<port id="1" precision="FP32">
					<dim>1</dim>
					<dim>32</dim>
					<dim>256</dim>
					<dim>256</dim>
				</port>
			</output>
		</layer>
		<layer id="148" name="38513855_const" type="Const" version="opset1">
			<data element_type="f32" offset="11760" shape="" size="4"/>
			<output>
				<port id="1" precision="FP32"/>
			</output>
		</layer>
		<layer id="149" name="38523856_const" type="Const" version="opset1">
			<data element_type="f32" offset="11764" shape="" size="4"/>
			<output>
				<port id="1" precision="FP32"/>
			</output>
		</layer>
		<layer id="150" name="38533857_const" type="Const" version="opset1">
			<data element_type="f32" offset="11760" shape="" size="4"/>
			<output>
				<port id="1" precision="FP32"/>
			</output>
		</layer>
		<layer id="151" name="38543858_const" type="Const" version="opset1">
			<data element_type="f32" offset="11764" shape="" size="4"/>
			<output>
				<port id="1" precision="FP32"/>
			</output>
		</layer>
		<layer id="152" name="bottleneck1_3/add/fq_input_0" type="FakeQuantize" version="opset1">
			<data levels="256"/>
			<input>
				<port id="0">
					<dim>1</dim>
					<dim>32</dim>
					<dim>256</dim>
					<dim>256</dim>
				</port>
				<port id="1"/>
				<port id="2"/>
				<port id="3"/>
				<port id="4"/>
			</input>
			<output>
				<port id="5" precision="FP32">
					<dim>1</dim>
					<dim>32</dim>
					<dim>256</dim>
					<dim>256</dim>
				</port>
			</output>
		</layer>
		<layer id="153" name="Mul1_22234/Fused_Mul_2758027582_const853_const" type="Const" version="opset1">
			<data element_type="f32" offset="11768" shape="8,32,1,1" size="1024"/>
			<output>
				<port id="1" precision="FP32">
					<dim>8</dim>
					<dim>32</dim>
					<dim>1</dim>
					<dim>1</dim>
				</port>
			</output>
		</layer>
		<layer id="154" name="33413345_const" type="Const" version="opset1">
			<data element_type="f32" offset="12792" shape="8,1,1,1" size="32"/>
			<output>
				<port id="1" precision="FP32">
					<dim>8</dim>
					<dim>1</dim>
					<dim>1</dim>
					<dim>1</dim>
				</port>
			</output>
		</layer>
		<layer id="155" name="33423346_const" type="Const" version="opset1">
			<data element_type="f32" offset="12824" shape="8,1,1,1" size="32"/>
			<output>
				<port id="1" precision="FP32">
					<dim>8</dim>
					<dim>1</dim>
					<dim>1</dim>
					<dim>1</dim>
				</port>
			</output>
		</layer>
		<layer id="156" name="33433347_const" type="Const" version="opset1">
			<data element_type="f32" offset="12792" shape="8,1,1,1" size="32"/>
			<output>
				<port id="1" precision="FP32">
					<dim>8</dim>
					<dim>1</dim>
					<dim>1</dim>
					<dim>1</dim>
				</port>
			</output>
		</layer>
		<layer id="157" name="33443348_const" type="Const" version="opset1">
			<data element_type="f32" offset="12824" shape="8,1,1,1" size="32"/>
			<output>
				<port id="1" precision="FP32">
					<dim>8</dim>
					<dim>1</dim>
					<dim>1</dim>
					<dim>1</dim>
				</port>
			</output>
		</layer>
		<layer id="158" name="bottleneck1_3/dim_red/conv/fq_weights_1" type="FakeQuantize" version="opset1">
			<data levels="255"/>
			<input>
				<port id="0">
					<dim>8</dim>
					<dim>32</dim>
					<dim>1</dim>
					<dim>1</dim>
				</port>
				<port id="1">
					<dim>8</dim>
					<dim>1</dim>
					<dim>1</dim>
					<dim>1</dim>
				</port>
				<port id="2">
					<dim>8</dim>
					<dim>1</dim>
					<dim>1</dim>
					<dim>1</dim>
				</port>
				<port id="3">
					<dim>8</dim>
					<dim>1</dim>
					<dim>1</dim>
					<dim>1</dim>
				</port>
				<port id="4">
					<dim>8</dim>
					<dim>1</dim>
					<dim>1</dim>
					<dim>1</dim>
				</port>
			</input>
			<output>
				<port id="5" precision="FP32">
					<dim>8</dim>
					<dim>32</dim>
					<dim>1</dim>
					<dim>1</dim>
				</port>
			</output>
		</layer>
		<layer id="159" name="bottleneck1_3/dim_red/conv" type="Convolution" version="opset1">
			<data dilations="1,1" output_padding="0,0" pads_begin="0,0" pads_end="0,0" strides="1,1"/>
			<input>
				<port id="0">
					<dim>1</dim>
					<dim>32</dim>
					<dim>256</dim>
					<dim>256</dim>
				</port>
				<port id="1">
					<dim>8</dim>
					<dim>32</dim>
					<dim>1</dim>
					<dim>1</dim>
				</port>
			</input>
			<output>
				<port id="2" precision="FP32">
					<dim>1</dim>
					<dim>8</dim>
					<dim>256</dim>
					<dim>256</dim>
				</port>
			</output>
		</layer>
		<layer id="160" name="data_add_2571125716/copy_const855_const" type="Const" version="opset1">
			<data element_type="f32" offset="12856" shape="1,8,1,1" size="32"/>
			<output>
				<port id="1" precision="FP32">
					<dim>1</dim>
					<dim>8</dim>
					<dim>1</dim>
					<dim>1</dim>
				</port>
			</output>
		</layer>
		<layer id="161" name="Add1_22235/Fused_Add_" type="Add" version="opset1">
			<input>
				<port id="0">
					<dim>1</dim>
					<dim>8</dim>
					<dim>256</dim>
					<dim>256</dim>
				</port>
				<port id="1">
					<dim>1</dim>
					<dim>8</dim>
					<dim>1</dim>
					<dim>1</dim>
				</port>
			</input>
			<output>
				<port id="2" precision="FP32">
					<dim>1</dim>
					<dim>8</dim>
					<dim>256</dim>
					<dim>256</dim>
				</port>
			</output>
		</layer>
		<layer id="162" name="bottleneck1_3/dim_red/fn" type="Elu" version="opset1">
			<data alpha="1.0"/>
			<input>
				<port id="0">
					<dim>1</dim>
					<dim>8</dim>
					<dim>256</dim>
					<dim>256</dim>
				</port>
			</input>
			<output>
				<port id="1" precision="FP32">
					<dim>1</dim>
					<dim>8</dim>
					<dim>256</dim>
					<dim>256</dim>
				</port>
			</output>
		</layer>
		<layer id="163" name="42214225_const" type="Const" version="opset1">
			<data element_type="f32" offset="12888" shape="1,8,1,1" size="32"/>
			<output>
				<port id="1" precision="FP32">
					<dim>1</dim>
					<dim>8</dim>
					<dim>1</dim>
					<dim>1</dim>
				</port>
			</output>
		</layer>
		<layer id="164" name="42224226_const" type="Const" version="opset1">
			<data element_type="f32" offset="12920" shape="1,8,1,1" size="32"/>
			<output>
				<port id="1" precision="FP32">
					<dim>1</dim>
					<dim>8</dim>
					<dim>1</dim>
					<dim>1</dim>
				</port>
			</output>
		</layer>
		<layer id="165" name="42234227_const" type="Const" version="opset1">
			<data element_type="f32" offset="12888" shape="1,8,1,1" size="32"/>
			<output>
				<port id="1" precision="FP32">
					<dim>1</dim>
					<dim>8</dim>
					<dim>1</dim>
					<dim>1</dim>
				</port>
			</output>
		</layer>
		<layer id="166" name="42244228_const" type="Const" version="opset1">
			<data element_type="f32" offset="12920" shape="1,8,1,1" size="32"/>
			<output>
				<port id="1" precision="FP32">
					<dim>1</dim>
					<dim>8</dim>
					<dim>1</dim>
					<dim>1</dim>
				</port>
			</output>
		</layer>
		<layer id="167" name="bottleneck1_3/inner/dw1/conv/fq_input_0" type="FakeQuantize" version="opset1">
			<data levels="256"/>
			<input>
				<port id="0">
					<dim>1</dim>
					<dim>8</dim>
					<dim>256</dim>
					<dim>256</dim>
				</port>
				<port id="1">
					<dim>1</dim>
					<dim>8</dim>
					<dim>1</dim>
					<dim>1</dim>
				</port>
				<port id="2">
					<dim>1</dim>
					<dim>8</dim>
					<dim>1</dim>
					<dim>1</dim>
				</port>
				<port id="3">
					<dim>1</dim>
					<dim>8</dim>
					<dim>1</dim>
					<dim>1</dim>
				</port>
				<port id="4">
					<dim>1</dim>
					<dim>8</dim>
					<dim>1</dim>
					<dim>1</dim>
				</port>
			</input>
			<output>
				<port id="5" precision="FP32">
					<dim>1</dim>
					<dim>8</dim>
					<dim>256</dim>
					<dim>256</dim>
				</port>
			</output>
		</layer>
		<layer id="168" name="17521538_const" type="Const" version="opset1">
			<data element_type="f32" offset="12952" shape="8,1,3,3" size="288"/>
			<output>
				<port id="1" precision="FP32">
					<dim>8</dim>
					<dim>1</dim>
					<dim>3</dim>
					<dim>3</dim>
				</port>
			</output>
		</layer>
		<layer id="169" name="42314235_const" type="Const" version="opset1">
			<data element_type="f32" offset="13240" shape="8,1,1,1" size="32"/>
			<output>
				<port id="1" precision="FP32">
					<dim>8</dim>
					<dim>1</dim>
					<dim>1</dim>
					<dim>1</dim>
				</port>
			</output>
		</layer>
		<layer id="170" name="42324236_const" type="Const" version="opset1">
			<data element_type="f32" offset="13272" shape="8,1,1,1" size="32"/>
			<output>
				<port id="1" precision="FP32">
					<dim>8</dim>
					<dim>1</dim>
					<dim>1</dim>
					<dim>1</dim>
				</port>
			</output>
		</layer>
		<layer id="171" name="42334237_const" type="Const" version="opset1">
			<data element_type="f32" offset="13240" shape="8,1,1,1" size="32"/>
			<output>
				<port id="1" precision="FP32">
					<dim>8</dim>
					<dim>1</dim>
					<dim>1</dim>
					<dim>1</dim>
				</port>
			</output>
		</layer>
		<layer id="172" name="42344238_const" type="Const" version="opset1">
			<data element_type="f32" offset="13272" shape="8,1,1,1" size="32"/>
			<output>
				<port id="1" precision="FP32">
					<dim>8</dim>
					<dim>1</dim>
					<dim>1</dim>
					<dim>1</dim>
				</port>
			</output>
		</layer>
		<layer id="173" name="bottleneck1_3/inner/dw1/conv/fq_weights_1" type="FakeQuantize" version="opset1">
			<data levels="255"/>
			<input>
				<port id="0">
					<dim>8</dim>
					<dim>1</dim>
					<dim>3</dim>
					<dim>3</dim>
				</port>
				<port id="1">
					<dim>8</dim>
					<dim>1</dim>
					<dim>1</dim>
					<dim>1</dim>
				</port>
				<port id="2">
					<dim>8</dim>
					<dim>1</dim>
					<dim>1</dim>
					<dim>1</dim>
				</port>
				<port id="3">
					<dim>8</dim>
					<dim>1</dim>
					<dim>1</dim>
					<dim>1</dim>
				</port>
				<port id="4">
					<dim>8</dim>
					<dim>1</dim>
					<dim>1</dim>
					<dim>1</dim>
				</port>
			</input>
			<output>
				<port id="5" precision="FP32">
					<dim>8</dim>
					<dim>1</dim>
					<dim>3</dim>
					<dim>3</dim>
				</port>
			</output>
		</layer>
		<layer id="174" name="9970/value9972_const" type="Const" version="opset1">
			<data element_type="i64" offset="7264" shape="5" size="40"/>
			<output>
				<port id="1" precision="I64">
					<dim>5</dim>
				</port>
			</output>
		</layer>
		<layer id="175" name="9970" type="Reshape" version="opset1">
			<data special_zero="True"/>
			<input>
				<port id="0">
					<dim>8</dim>
					<dim>1</dim>
					<dim>3</dim>
					<dim>3</dim>
				</port>
				<port id="1">
					<dim>5</dim>
				</port>
			</input>
			<output>
				<port id="2" precision="FP32">
					<dim>8</dim>
					<dim>1</dim>
					<dim>1</dim>
					<dim>3</dim>
					<dim>3</dim>
				</port>
			</output>
		</layer>
		<layer id="176" name="bottleneck1_3/inner/dw1/conv" type="GroupConvolution" version="opset1">
			<data dilations="1,1" output_padding="0,0" pads_begin="1,1" pads_end="1,1" strides="1,1"/>
			<input>
				<port id="0">
					<dim>1</dim>
					<dim>8</dim>
					<dim>256</dim>
					<dim>256</dim>
				</port>
				<port id="1">
					<dim>8</dim>
					<dim>1</dim>
					<dim>1</dim>
					<dim>3</dim>
					<dim>3</dim>
				</port>
			</input>
			<output>
				<port id="2" precision="FP32">
					<dim>1</dim>
					<dim>8</dim>
					<dim>256</dim>
					<dim>256</dim>
				</port>
			</output>
		</layer>
		<layer id="177" name="data_add_2571925724/copy_const860_const" type="Const" version="opset1">
			<data element_type="f32" offset="13304" shape="1,8,1,1" size="32"/>
			<output>
				<port id="1" precision="FP32">
					<dim>1</dim>
					<dim>8</dim>
					<dim>1</dim>
					<dim>1</dim>
				</port>
			</output>
		</layer>
		<layer id="178" name="Add1_22247/Fused_Add_" type="Add" version="opset1">
			<input>
				<port id="0">
					<dim>1</dim>
					<dim>8</dim>
					<dim>256</dim>
					<dim>256</dim>
				</port>
				<port id="1">
					<dim>1</dim>
					<dim>8</dim>
					<dim>1</dim>
					<dim>1</dim>
				</port>
			</input>
			<output>
				<port id="2" precision="FP32">
					<dim>1</dim>
					<dim>8</dim>
					<dim>256</dim>
					<dim>256</dim>
				</port>
			</output>
		</layer>
		<layer id="179" name="bottleneck1_3/inner/dw1/fn" type="Elu" version="opset1">
			<data alpha="1.0"/>
			<input>
				<port id="0">
					<dim>1</dim>
					<dim>8</dim>
					<dim>256</dim>
					<dim>256</dim>
				</port>
			</input>
			<output>
				<port id="1" precision="FP32">
					<dim>1</dim>
					<dim>8</dim>
					<dim>256</dim>
					<dim>256</dim>
				</port>
			</output>
		</layer>
		<layer id="180" name="33113315_const" type="Const" version="opset1">
			<data element_type="f32" offset="13336" shape="" size="4"/>
			<output>
				<port id="1" precision="FP32"/>
			</output>
		</layer>
		<layer id="181" name="33123316_const" type="Const" version="opset1">
			<data element_type="f32" offset="13340" shape="" size="4"/>
			<output>
				<port id="1" precision="FP32"/>
			</output>
		</layer>
		<layer id="182" name="33133317_const" type="Const" version="opset1">
			<data element_type="f32" offset="13336" shape="" size="4"/>
			<output>
				<port id="1" precision="FP32"/>
			</output>
		</layer>
		<layer id="183" name="33143318_const" type="Const" version="opset1">
			<data element_type="f32" offset="13340" shape="" size="4"/>
			<output>
				<port id="1" precision="FP32"/>
			</output>
		</layer>
		<layer id="184" name="bottleneck1_3/dim_inc/conv/fq_input_0" type="FakeQuantize" version="opset1">
			<data levels="256"/>
			<input>
				<port id="0">
					<dim>1</dim>
					<dim>8</dim>
					<dim>256</dim>
					<dim>256</dim>
				</port>
				<port id="1"/>
				<port id="2"/>
				<port id="3"/>
				<port id="4"/>
			</input>
			<output>
				<port id="5" precision="FP32">
					<dim>1</dim>
					<dim>8</dim>
					<dim>256</dim>
					<dim>256</dim>
				</port>
			</output>
		</layer>
		<layer id="185" name="Mul1_22258/Fused_Mul_2758827590_const863_const" type="Const" version="opset1">
			<data element_type="f32" offset="13344" shape="32,8,1,1" size="1024"/>
			<output>
				<port id="1" precision="FP32">
					<dim>32</dim>
					<dim>8</dim>
					<dim>1</dim>
					<dim>1</dim>
				</port>
			</output>
		</layer>
		<layer id="186" name="33213325_const" type="Const" version="opset1">
			<data element_type="f32" offset="14368" shape="32,1,1,1" size="128"/>
			<output>
				<port id="1" precision="FP32">
					<dim>32</dim>
					<dim>1</dim>
					<dim>1</dim>
					<dim>1</dim>
				</port>
			</output>
		</layer>
		<layer id="187" name="33223326_const" type="Const" version="opset1">
			<data element_type="f32" offset="14496" shape="32,1,1,1" size="128"/>
			<output>
				<port id="1" precision="FP32">
					<dim>32</dim>
					<dim>1</dim>
					<dim>1</dim>
					<dim>1</dim>
				</port>
			</output>
		</layer>
		<layer id="188" name="33233327_const" type="Const" version="opset1">
			<data element_type="f32" offset="14368" shape="32,1,1,1" size="128"/>
			<output>
				<port id="1" precision="FP32">
					<dim>32</dim>
					<dim>1</dim>
					<dim>1</dim>
					<dim>1</dim>
				</port>
			</output>
		</layer>
		<layer id="189" name="33243328_const" type="Const" version="opset1">
			<data element_type="f32" offset="14496" shape="32,1,1,1" size="128"/>
			<output>
				<port id="1" precision="FP32">
					<dim>32</dim>
					<dim>1</dim>
					<dim>1</dim>
					<dim>1</dim>
				</port>
			</output>
		</layer>
		<layer id="190" name="bottleneck1_3/dim_inc/conv/fq_weights_1" type="FakeQuantize" version="opset1">
			<data levels="255"/>
			<input>
				<port id="0">
					<dim>32</dim>
					<dim>8</dim>
					<dim>1</dim>
					<dim>1</dim>
				</port>
				<port id="1">
					<dim>32</dim>
					<dim>1</dim>
					<dim>1</dim>
					<dim>1</dim>
				</port>
				<port id="2">
					<dim>32</dim>
					<dim>1</dim>
					<dim>1</dim>
					<dim>1</dim>
				</port>
				<port id="3">
					<dim>32</dim>
					<dim>1</dim>
					<dim>1</dim>
					<dim>1</dim>
				</port>
				<port id="4">
					<dim>32</dim>
					<dim>1</dim>
					<dim>1</dim>
					<dim>1</dim>
				</port>
			</input>
			<output>
				<port id="5" precision="FP32">
					<dim>32</dim>
					<dim>8</dim>
					<dim>1</dim>
					<dim>1</dim>
				</port>
			</output>
		</layer>
		<layer id="191" name="bottleneck1_3/dim_inc/conv" type="Convolution" version="opset1">
			<data dilations="1,1" output_padding="0,0" pads_begin="0,0" pads_end="0,0" strides="1,1"/>
			<input>
				<port id="0">
					<dim>1</dim>
					<dim>8</dim>
					<dim>256</dim>
					<dim>256</dim>
				</port>
				<port id="1">
					<dim>32</dim>
					<dim>8</dim>
					<dim>1</dim>
					<dim>1</dim>
				</port>
			</input>
			<output>
				<port id="2" precision="FP32">
					<dim>1</dim>
					<dim>32</dim>
					<dim>256</dim>
					<dim>256</dim>
				</port>
			</output>
		</layer>
		<layer id="192" name="data_add_2572725732/copy_const865_const" type="Const" version="opset1">
			<data element_type="f32" offset="14624" shape="1,32,1,1" size="128"/>
			<output>
				<port id="1" precision="FP32">
					<dim>1</dim>
					<dim>32</dim>
					<dim>1</dim>
					<dim>1</dim>
				</port>
			</output>
		</layer>
		<layer id="193" name="Add1_22259/Fused_Add_" type="Add" version="opset1">
			<input>
				<port id="0">
					<dim>1</dim>
					<dim>32</dim>
					<dim>256</dim>
					<dim>256</dim>
				</port>
				<port id="1">
					<dim>1</dim>
					<dim>32</dim>
					<dim>1</dim>
					<dim>1</dim>
				</port>
			</input>
			<output>
				<port id="2" precision="FP32">
					<dim>1</dim>
					<dim>32</dim>
					<dim>256</dim>
					<dim>256</dim>
				</port>
			</output>
		</layer>
		<layer id="194" name="38613865_const" type="Const" version="opset1">
			<data element_type="f32" offset="14752" shape="" size="4"/>
			<output>
				<port id="1" precision="FP32"/>
			</output>
		</layer>
		<layer id="195" name="38623866_const" type="Const" version="opset1">
			<data element_type="f32" offset="14756" shape="" size="4"/>
			<output>
				<port id="1" precision="FP32"/>
			</output>
		</layer>
		<layer id="196" name="38633867_const" type="Const" version="opset1">
			<data element_type="f32" offset="14752" shape="" size="4"/>
			<output>
				<port id="1" precision="FP32"/>
			</output>
		</layer>
		<layer id="197" name="38643868_const" type="Const" version="opset1">
			<data element_type="f32" offset="14756" shape="" size="4"/>
			<output>
				<port id="1" precision="FP32"/>
			</output>
		</layer>
		<layer id="198" name="bottleneck1_3/add/fq_input_1" type="FakeQuantize" version="opset1">
			<data levels="256"/>
			<input>
				<port id="0">
					<dim>1</dim>
					<dim>32</dim>
					<dim>256</dim>
					<dim>256</dim>
				</port>
				<port id="1"/>
				<port id="2"/>
				<port id="3"/>
				<port id="4"/>
			</input>
			<output>
				<port id="5" precision="FP32">
					<dim>1</dim>
					<dim>32</dim>
					<dim>256</dim>
					<dim>256</dim>
				</port>
			</output>
		</layer>
		<layer id="199" name="bottleneck1_3/add" type="Add" version="opset1">
			<input>
				<port id="0">
					<dim>1</dim>
					<dim>32</dim>
					<dim>256</dim>
					<dim>256</dim>
				</port>
				<port id="1">
					<dim>1</dim>
					<dim>32</dim>
					<dim>256</dim>
					<dim>256</dim>
				</port>
			</input>
			<output>
				<port id="2" precision="FP32">
					<dim>1</dim>
					<dim>32</dim>
					<dim>256</dim>
					<dim>256</dim>
				</port>
			</output>
		</layer>
		<layer id="200" name="bottleneck1_3/fn" type="Elu" version="opset1">
			<data alpha="1.0"/>
			<input>
				<port id="0">
					<dim>1</dim>
					<dim>32</dim>
					<dim>256</dim>
					<dim>256</dim>
				</port>
			</input>
			<output>
				<port id="1" precision="FP32">
					<dim>1</dim>
					<dim>32</dim>
					<dim>256</dim>
					<dim>256</dim>
				</port>
			</output>
		</layer>
		<layer id="201" name="23312335_const" type="Const" version="opset1">
			<data element_type="f32" offset="14760" shape="" size="4"/>
			<output>
				<port id="1" precision="FP32"/>
			</output>
		</layer>
		<layer id="202" name="23322336_const" type="Const" version="opset1">
			<data element_type="f32" offset="14764" shape="" size="4"/>
			<output>
				<port id="1" precision="FP32"/>
			</output>
		</layer>
		<layer id="203" name="23332337_const" type="Const" version="opset1">
			<data element_type="f32" offset="14760" shape="" size="4"/>
			<output>
				<port id="1" precision="FP32"/>
			</output>
		</layer>
		<layer id="204" name="23342338_const" type="Const" version="opset1">
			<data element_type="f32" offset="14764" shape="" size="4"/>
			<output>
				<port id="1" precision="FP32"/>
			</output>
		</layer>
		<layer id="205" name="bottleneck1_4/add/fq_input_0" type="FakeQuantize" version="opset1">
			<data levels="256"/>
			<input>
				<port id="0">
					<dim>1</dim>
					<dim>32</dim>
					<dim>256</dim>
					<dim>256</dim>
				</port>
				<port id="1"/>
				<port id="2"/>
				<port id="3"/>
				<port id="4"/>
			</input>
			<output>
				<port id="5" precision="FP32">
					<dim>1</dim>
					<dim>32</dim>
					<dim>256</dim>
					<dim>256</dim>
				</port>
			</output>
		</layer>
		<layer id="206" name="Mul1_22270/Fused_Mul_2759227594_const869_const" type="Const" version="opset1">
			<data element_type="f32" offset="14768" shape="8,32,1,1" size="1024"/>
			<output>
				<port id="1" precision="FP32">
					<dim>8</dim>
					<dim>32</dim>
					<dim>1</dim>
					<dim>1</dim>
				</port>
			</output>
		</layer>
		<layer id="207" name="35613565_const" type="Const" version="opset1">
			<data element_type="f32" offset="15792" shape="8,1,1,1" size="32"/>
			<output>
				<port id="1" precision="FP32">
					<dim>8</dim>
					<dim>1</dim>
					<dim>1</dim>
					<dim>1</dim>
				</port>
			</output>
		</layer>
		<layer id="208" name="35623566_const" type="Const" version="opset1">
			<data element_type="f32" offset="15824" shape="8,1,1,1" size="32"/>
			<output>
				<port id="1" precision="FP32">
					<dim>8</dim>
					<dim>1</dim>
					<dim>1</dim>
					<dim>1</dim>
				</port>
			</output>
		</layer>
		<layer id="209" name="35633567_const" type="Const" version="opset1">
			<data element_type="f32" offset="15792" shape="8,1,1,1" size="32"/>
			<output>
				<port id="1" precision="FP32">
					<dim>8</dim>
					<dim>1</dim>
					<dim>1</dim>
					<dim>1</dim>
				</port>
			</output>
		</layer>
		<layer id="210" name="35643568_const" type="Const" version="opset1">
			<data element_type="f32" offset="15824" shape="8,1,1,1" size="32"/>
			<output>
				<port id="1" precision="FP32">
					<dim>8</dim>
					<dim>1</dim>
					<dim>1</dim>
					<dim>1</dim>
				</port>
			</output>
		</layer>
		<layer id="211" name="bottleneck1_4/dim_red/conv/fq_weights_1" type="FakeQuantize" version="opset1">
			<data levels="255"/>
			<input>
				<port id="0">
					<dim>8</dim>
					<dim>32</dim>
					<dim>1</dim>
					<dim>1</dim>
				</port>
				<port id="1">
					<dim>8</dim>
					<dim>1</dim>
					<dim>1</dim>
					<dim>1</dim>
				</port>
				<port id="2">
					<dim>8</dim>
					<dim>1</dim>
					<dim>1</dim>
					<dim>1</dim>
				</port>
				<port id="3">
					<dim>8</dim>
					<dim>1</dim>
					<dim>1</dim>
					<dim>1</dim>
				</port>
				<port id="4">
					<dim>8</dim>
					<dim>1</dim>
					<dim>1</dim>
					<dim>1</dim>
				</port>
			</input>
			<output>
				<port id="5" precision="FP32">
					<dim>8</dim>
					<dim>32</dim>
					<dim>1</dim>
					<dim>1</dim>
				</port>
			</output>
		</layer>
		<layer id="212" name="bottleneck1_4/dim_red/conv" type="Convolution" version="opset1">
			<data dilations="1,1" output_padding="0,0" pads_begin="0,0" pads_end="0,0" strides="1,1"/>
			<input>
				<port id="0">
					<dim>1</dim>
					<dim>32</dim>
					<dim>256</dim>
					<dim>256</dim>
				</port>
				<port id="1">
					<dim>8</dim>
					<dim>32</dim>
					<dim>1</dim>
					<dim>1</dim>
				</port>
			</input>
			<output>
				<port id="2" precision="FP32">
					<dim>1</dim>
					<dim>8</dim>
					<dim>256</dim>
					<dim>256</dim>
				</port>
			</output>
		</layer>
		<layer id="213" name="data_add_2573525740/copy_const871_const" type="Const" version="opset1">
			<data element_type="f32" offset="15856" shape="1,8,1,1" size="32"/>
			<output>
				<port id="1" precision="FP32">
					<dim>1</dim>
					<dim>8</dim>
					<dim>1</dim>
					<dim>1</dim>
				</port>
			</output>
		</layer>
		<layer id="214" name="Add1_22271/Fused_Add_" type="Add" version="opset1">
			<input>
				<port id="0">
					<dim>1</dim>
					<dim>8</dim>
					<dim>256</dim>
					<dim>256</dim>
				</port>
				<port id="1">
					<dim>1</dim>
					<dim>8</dim>
					<dim>1</dim>
					<dim>1</dim>
				</port>
			</input>
			<output>
				<port id="2" precision="FP32">
					<dim>1</dim>
					<dim>8</dim>
					<dim>256</dim>
					<dim>256</dim>
				</port>
			</output>
		</layer>
		<layer id="215" name="bottleneck1_4/dim_red/fn" type="Elu" version="opset1">
			<data alpha="1.0"/>
			<input>
				<port id="0">
					<dim>1</dim>
					<dim>8</dim>
					<dim>256</dim>
					<dim>256</dim>
				</port>
			</input>
			<output>
				<port id="1" precision="FP32">
					<dim>1</dim>
					<dim>8</dim>
					<dim>256</dim>
					<dim>256</dim>
				</port>
			</output>
		</layer>
		<layer id="216" name="31113115_const" type="Const" version="opset1">
			<data element_type="f32" offset="15888" shape="1,8,1,1" size="32"/>
			<output>
				<port id="1" precision="FP32">
					<dim>1</dim>
					<dim>8</dim>
					<dim>1</dim>
					<dim>1</dim>
				</port>
			</output>
		</layer>
		<layer id="217" name="31123116_const" type="Const" version="opset1">
			<data element_type="f32" offset="15920" shape="1,8,1,1" size="32"/>
			<output>
				<port id="1" precision="FP32">
					<dim>1</dim>
					<dim>8</dim>
					<dim>1</dim>
					<dim>1</dim>
				</port>
			</output>
		</layer>
		<layer id="218" name="31133117_const" type="Const" version="opset1">
			<data element_type="f32" offset="15888" shape="1,8,1,1" size="32"/>
			<output>
				<port id="1" precision="FP32">
					<dim>1</dim>
					<dim>8</dim>
					<dim>1</dim>
					<dim>1</dim>
				</port>
			</output>
		</layer>
		<layer id="219" name="31143118_const" type="Const" version="opset1">
			<data element_type="f32" offset="15920" shape="1,8,1,1" size="32"/>
			<output>
				<port id="1" precision="FP32">
					<dim>1</dim>
					<dim>8</dim>
					<dim>1</dim>
					<dim>1</dim>
				</port>
			</output>
		</layer>
		<layer id="220" name="bottleneck1_4/inner/dw1/conv/fq_input_0" type="FakeQuantize" version="opset1">
			<data levels="256"/>
			<input>
				<port id="0">
					<dim>1</dim>
					<dim>8</dim>
					<dim>256</dim>
					<dim>256</dim>
				</port>
				<port id="1">
					<dim>1</dim>
					<dim>8</dim>
					<dim>1</dim>
					<dim>1</dim>
				</port>
				<port id="2">
					<dim>1</dim>
					<dim>8</dim>
					<dim>1</dim>
					<dim>1</dim>
				</port>
				<port id="3">
					<dim>1</dim>
					<dim>8</dim>
					<dim>1</dim>
					<dim>1</dim>
				</port>
				<port id="4">
					<dim>1</dim>
					<dim>8</dim>
					<dim>1</dim>
					<dim>1</dim>
				</port>
			</input>
			<output>
				<port id="5" precision="FP32">
					<dim>1</dim>
					<dim>8</dim>
					<dim>256</dim>
					<dim>256</dim>
				</port>
			</output>
		</layer>
		<layer id="221" name="17561540_const" type="Const" version="opset1">
			<data element_type="f32" offset="15952" shape="8,1,3,3" size="288"/>
			<output>
				<port id="1" precision="FP32">
					<dim>8</dim>
					<dim>1</dim>
					<dim>3</dim>
					<dim>3</dim>
				</port>
			</output>
		</layer>
		<layer id="222" name="31213125_const" type="Const" version="opset1">
			<data element_type="f32" offset="16240" shape="8,1,1,1" size="32"/>
			<output>
				<port id="1" precision="FP32">
					<dim>8</dim>
					<dim>1</dim>
					<dim>1</dim>
					<dim>1</dim>
				</port>
			</output>
		</layer>
		<layer id="223" name="31223126_const" type="Const" version="opset1">
			<data element_type="f32" offset="16272" shape="8,1,1,1" size="32"/>
			<output>
				<port id="1" precision="FP32">
					<dim>8</dim>
					<dim>1</dim>
					<dim>1</dim>
					<dim>1</dim>
				</port>
			</output>
		</layer>
		<layer id="224" name="31233127_const" type="Const" version="opset1">
			<data element_type="f32" offset="16240" shape="8,1,1,1" size="32"/>
			<output>
				<port id="1" precision="FP32">
					<dim>8</dim>
					<dim>1</dim>
					<dim>1</dim>
					<dim>1</dim>
				</port>
			</output>
		</layer>
		<layer id="225" name="31243128_const" type="Const" version="opset1">
			<data element_type="f32" offset="16272" shape="8,1,1,1" size="32"/>
			<output>
				<port id="1" precision="FP32">
					<dim>8</dim>
					<dim>1</dim>
					<dim>1</dim>
					<dim>1</dim>
				</port>
			</output>
		</layer>
		<layer id="226" name="bottleneck1_4/inner/dw1/conv/fq_weights_1" type="FakeQuantize" version="opset1">
			<data levels="255"/>
			<input>
				<port id="0">
					<dim>8</dim>
					<dim>1</dim>
					<dim>3</dim>
					<dim>3</dim>
				</port>
				<port id="1">
					<dim>8</dim>
					<dim>1</dim>
					<dim>1</dim>
					<dim>1</dim>
				</port>
				<port id="2">
					<dim>8</dim>
					<dim>1</dim>
					<dim>1</dim>
					<dim>1</dim>
				</port>
				<port id="3">
					<dim>8</dim>
					<dim>1</dim>
					<dim>1</dim>
					<dim>1</dim>
				</port>
				<port id="4">
					<dim>8</dim>
					<dim>1</dim>
					<dim>1</dim>
					<dim>1</dim>
				</port>
			</input>
			<output>
				<port id="5" precision="FP32">
					<dim>8</dim>
					<dim>1</dim>
					<dim>3</dim>
					<dim>3</dim>
				</port>
			</output>
		</layer>
		<layer id="227" name="9926/value9928_const" type="Const" version="opset1">
			<data element_type="i64" offset="7264" shape="5" size="40"/>
			<output>
				<port id="1" precision="I64">
					<dim>5</dim>
				</port>
			</output>
		</layer>
		<layer id="228" name="9926" type="Reshape" version="opset1">
			<data special_zero="True"/>
			<input>
				<port id="0">
					<dim>8</dim>
					<dim>1</dim>
					<dim>3</dim>
					<dim>3</dim>
				</port>
				<port id="1">
					<dim>5</dim>
				</port>
			</input>
			<output>
				<port id="2" precision="FP32">
					<dim>8</dim>
					<dim>1</dim>
					<dim>1</dim>
					<dim>3</dim>
					<dim>3</dim>
				</port>
			</output>
		</layer>
		<layer id="229" name="bottleneck1_4/inner/dw1/conv" type="GroupConvolution" version="opset1">
			<data dilations="1,1" output_padding="0,0" pads_begin="1,1" pads_end="1,1" strides="1,1"/>
			<input>
				<port id="0">
					<dim>1</dim>
					<dim>8</dim>
					<dim>256</dim>
					<dim>256</dim>
				</port>
				<port id="1">
					<dim>8</dim>
					<dim>1</dim>
					<dim>1</dim>
					<dim>3</dim>
					<dim>3</dim>
				</port>
			</input>
			<output>
				<port id="2" precision="FP32">
					<dim>1</dim>
					<dim>8</dim>
					<dim>256</dim>
					<dim>256</dim>
				</port>
			</output>
		</layer>
		<layer id="230" name="data_add_2574325748/copy_const876_const" type="Const" version="opset1">
			<data element_type="f32" offset="16304" shape="1,8,1,1" size="32"/>
			<output>
				<port id="1" precision="FP32">
					<dim>1</dim>
					<dim>8</dim>
					<dim>1</dim>
					<dim>1</dim>
				</port>
			</output>
		</layer>
		<layer id="231" name="Add1_22283/Fused_Add_" type="Add" version="opset1">
			<input>
				<port id="0">
					<dim>1</dim>
					<dim>8</dim>
					<dim>256</dim>
					<dim>256</dim>
				</port>
				<port id="1">
					<dim>1</dim>
					<dim>8</dim>
					<dim>1</dim>
					<dim>1</dim>
				</port>
			</input>
			<output>
				<port id="2" precision="FP32">
					<dim>1</dim>
					<dim>8</dim>
					<dim>256</dim>
					<dim>256</dim>
				</port>
			</output>
		</layer>
		<layer id="232" name="bottleneck1_4/inner/dw1/fn" type="Elu" version="opset1">
			<data alpha="1.0"/>
			<input>
				<port id="0">
					<dim>1</dim>
					<dim>8</dim>
					<dim>256</dim>
					<dim>256</dim>
				</port>
			</input>
			<output>
				<port id="1" precision="FP32">
					<dim>1</dim>
					<dim>8</dim>
					<dim>256</dim>
					<dim>256</dim>
				</port>
			</output>
		</layer>
		<layer id="233" name="47114715_const" type="Const" version="opset1">
			<data element_type="f32" offset="16336" shape="" size="4"/>
			<output>
				<port id="1" precision="FP32"/>
			</output>
		</layer>
		<layer id="234" name="47124716_const" type="Const" version="opset1">
			<data element_type="f32" offset="16340" shape="" size="4"/>
			<output>
				<port id="1" precision="FP32"/>
			</output>
		</layer>
		<layer id="235" name="47134717_const" type="Const" version="opset1">
			<data element_type="f32" offset="16336" shape="" size="4"/>
			<output>
				<port id="1" precision="FP32"/>
			</output>
		</layer>
		<layer id="236" name="47144718_const" type="Const" version="opset1">
			<data element_type="f32" offset="16340" shape="" size="4"/>
			<output>
				<port id="1" precision="FP32"/>
			</output>
		</layer>
		<layer id="237" name="bottleneck1_4/dim_inc/conv/fq_input_0" type="FakeQuantize" version="opset1">
			<data levels="256"/>
			<input>
				<port id="0">
					<dim>1</dim>
					<dim>8</dim>
					<dim>256</dim>
					<dim>256</dim>
				</port>
				<port id="1"/>
				<port id="2"/>
				<port id="3"/>
				<port id="4"/>
			</input>
			<output>
				<port id="5" precision="FP32">
					<dim>1</dim>
					<dim>8</dim>
					<dim>256</dim>
					<dim>256</dim>
				</port>
			</output>
		</layer>
		<layer id="238" name="Mul1_22294/Fused_Mul_2760027602_const879_const" type="Const" version="opset1">
			<data element_type="f32" offset="16344" shape="32,8,1,1" size="1024"/>
			<output>
				<port id="1" precision="FP32">
					<dim>32</dim>
					<dim>8</dim>
					<dim>1</dim>
					<dim>1</dim>
				</port>
			</output>
		</layer>
		<layer id="239" name="47214725_const" type="Const" version="opset1">
			<data element_type="f32" offset="17368" shape="32,1,1,1" size="128"/>
			<output>
				<port id="1" precision="FP32">
					<dim>32</dim>
					<dim>1</dim>
					<dim>1</dim>
					<dim>1</dim>
				</port>
			</output>
		</layer>
		<layer id="240" name="47224726_const" type="Const" version="opset1">
			<data element_type="f32" offset="17496" shape="32,1,1,1" size="128"/>
			<output>
				<port id="1" precision="FP32">
					<dim>32</dim>
					<dim>1</dim>
					<dim>1</dim>
					<dim>1</dim>
				</port>
			</output>
		</layer>
		<layer id="241" name="47234727_const" type="Const" version="opset1">
			<data element_type="f32" offset="17368" shape="32,1,1,1" size="128"/>
			<output>
				<port id="1" precision="FP32">
					<dim>32</dim>
					<dim>1</dim>
					<dim>1</dim>
					<dim>1</dim>
				</port>
			</output>
		</layer>
		<layer id="242" name="47244728_const" type="Const" version="opset1">
			<data element_type="f32" offset="17496" shape="32,1,1,1" size="128"/>
			<output>
				<port id="1" precision="FP32">
					<dim>32</dim>
					<dim>1</dim>
					<dim>1</dim>
					<dim>1</dim>
				</port>
			</output>
		</layer>
		<layer id="243" name="bottleneck1_4/dim_inc/conv/fq_weights_1" type="FakeQuantize" version="opset1">
			<data levels="255"/>
			<input>
				<port id="0">
					<dim>32</dim>
					<dim>8</dim>
					<dim>1</dim>
					<dim>1</dim>
				</port>
				<port id="1">
					<dim>32</dim>
					<dim>1</dim>
					<dim>1</dim>
					<dim>1</dim>
				</port>
				<port id="2">
					<dim>32</dim>
					<dim>1</dim>
					<dim>1</dim>
					<dim>1</dim>
				</port>
				<port id="3">
					<dim>32</dim>
					<dim>1</dim>
					<dim>1</dim>
					<dim>1</dim>
				</port>
				<port id="4">
					<dim>32</dim>
					<dim>1</dim>
					<dim>1</dim>
					<dim>1</dim>
				</port>
			</input>
			<output>
				<port id="5" precision="FP32">
					<dim>32</dim>
					<dim>8</dim>
					<dim>1</dim>
					<dim>1</dim>
				</port>
			</output>
		</layer>
		<layer id="244" name="bottleneck1_4/dim_inc/conv" type="Convolution" version="opset1">
			<data dilations="1,1" output_padding="0,0" pads_begin="0,0" pads_end="0,0" strides="1,1"/>
			<input>
				<port id="0">
					<dim>1</dim>
					<dim>8</dim>
					<dim>256</dim>
					<dim>256</dim>
				</port>
				<port id="1">
					<dim>32</dim>
					<dim>8</dim>
					<dim>1</dim>
					<dim>1</dim>
				</port>
			</input>
			<output>
				<port id="2" precision="FP32">
					<dim>1</dim>
					<dim>32</dim>
					<dim>256</dim>
					<dim>256</dim>
				</port>
			</output>
		</layer>
		<layer id="245" name="data_add_2575125756/copy_const881_const" type="Const" version="opset1">
			<data element_type="f32" offset="17624" shape="1,32,1,1" size="128"/>
			<output>
				<port id="1" precision="FP32">
					<dim>1</dim>
					<dim>32</dim>
					<dim>1</dim>
					<dim>1</dim>
				</port>
			</output>
		</layer>
		<layer id="246" name="Add1_22295/Fused_Add_" type="Add" version="opset1">
			<input>
				<port id="0">
					<dim>1</dim>
					<dim>32</dim>
					<dim>256</dim>
					<dim>256</dim>
				</port>
				<port id="1">
					<dim>1</dim>
					<dim>32</dim>
					<dim>1</dim>
					<dim>1</dim>
				</port>
			</input>
			<output>
				<port id="2" precision="FP32">
					<dim>1</dim>
					<dim>32</dim>
					<dim>256</dim>
					<dim>256</dim>
				</port>
			</output>
		</layer>
		<layer id="247" name="23412345_const" type="Const" version="opset1">
			<data element_type="f32" offset="17752" shape="" size="4"/>
			<output>
				<port id="1" precision="FP32"/>
			</output>
		</layer>
		<layer id="248" name="23422346_const" type="Const" version="opset1">
			<data element_type="f32" offset="17756" shape="" size="4"/>
			<output>
				<port id="1" precision="FP32"/>
			</output>
		</layer>
		<layer id="249" name="23432347_const" type="Const" version="opset1">
			<data element_type="f32" offset="17752" shape="" size="4"/>
			<output>
				<port id="1" precision="FP32"/>
			</output>
		</layer>
		<layer id="250" name="23442348_const" type="Const" version="opset1">
			<data element_type="f32" offset="17756" shape="" size="4"/>
			<output>
				<port id="1" precision="FP32"/>
			</output>
		</layer>
		<layer id="251" name="bottleneck1_4/add/fq_input_1" type="FakeQuantize" version="opset1">
			<data levels="256"/>
			<input>
				<port id="0">
					<dim>1</dim>
					<dim>32</dim>
					<dim>256</dim>
					<dim>256</dim>
				</port>
				<port id="1"/>
				<port id="2"/>
				<port id="3"/>
				<port id="4"/>
			</input>
			<output>
				<port id="5" precision="FP32">
					<dim>1</dim>
					<dim>32</dim>
					<dim>256</dim>
					<dim>256</dim>
				</port>
			</output>
		</layer>
		<layer id="252" name="bottleneck1_4/add" type="Add" version="opset1">
			<input>
				<port id="0">
					<dim>1</dim>
					<dim>32</dim>
					<dim>256</dim>
					<dim>256</dim>
				</port>
				<port id="1">
					<dim>1</dim>
					<dim>32</dim>
					<dim>256</dim>
					<dim>256</dim>
				</port>
			</input>
			<output>
				<port id="2" precision="FP32">
					<dim>1</dim>
					<dim>32</dim>
					<dim>256</dim>
					<dim>256</dim>
				</port>
			</output>
		</layer>
		<layer id="253" name="bottleneck1_4/fn" type="Elu" version="opset1">
			<data alpha="1.0"/>
			<input>
				<port id="0">
					<dim>1</dim>
					<dim>32</dim>
					<dim>256</dim>
					<dim>256</dim>
				</port>
			</input>
			<output>
				<port id="1" precision="FP32">
					<dim>1</dim>
					<dim>32</dim>
					<dim>256</dim>
					<dim>256</dim>
				</port>
			</output>
		</layer>
		<layer id="254" name="48314835_const" type="Const" version="opset1">
			<data element_type="f32" offset="17760" shape="" size="4"/>
			<output>
				<port id="1" precision="FP32"/>
			</output>
		</layer>
		<layer id="255" name="48324836_const" type="Const" version="opset1">
			<data element_type="f32" offset="17764" shape="" size="4"/>
			<output>
				<port id="1" precision="FP32"/>
			</output>
		</layer>
		<layer id="256" name="48334837_const" type="Const" version="opset1">
			<data element_type="f32" offset="17760" shape="" size="4"/>
			<output>
				<port id="1" precision="FP32"/>
			</output>
		</layer>
		<layer id="257" name="48344838_const" type="Const" version="opset1">
			<data element_type="f32" offset="17764" shape="" size="4"/>
			<output>
				<port id="1" precision="FP32"/>
			</output>
		</layer>
		<layer id="258" name="bottleneck2_0/dim_red/conv/fq_input_0" type="FakeQuantize" version="opset1">
			<data levels="256"/>
			<input>
				<port id="0">
					<dim>1</dim>
					<dim>32</dim>
					<dim>256</dim>
					<dim>256</dim>
				</port>
				<port id="1"/>
				<port id="2"/>
				<port id="3"/>
				<port id="4"/>
			</input>
			<output>
				<port id="5" precision="FP32">
					<dim>1</dim>
					<dim>32</dim>
					<dim>256</dim>
					<dim>256</dim>
				</port>
			</output>
		</layer>
		<layer id="259" name="bottleneck2_0/skip/pooling" type="MaxPool" version="opset1">
			<data kernel="2,2" pads_begin="0,0" pads_end="0,0" rounding_type="ceil" strides="2,2"/>
			<input>
				<port id="0">
					<dim>1</dim>
					<dim>32</dim>
					<dim>256</dim>
					<dim>256</dim>
				</port>
			</input>
			<output>
				<port id="1" precision="FP32">
					<dim>1</dim>
					<dim>32</dim>
					<dim>128</dim>
					<dim>128</dim>
				</port>
			</output>
		</layer>
		<layer id="260" name="Mul1_22342/Fused_Mul_2760427606_const886_const" type="Const" version="opset1">
			<data element_type="f32" offset="17768" shape="64,32,1,1" size="8192"/>
			<output>
				<port id="1" precision="FP32">
					<dim>64</dim>
					<dim>32</dim>
					<dim>1</dim>
					<dim>1</dim>
				</port>
			</output>
		</layer>
		<layer id="261" name="23012305_const" type="Const" version="opset1">
			<data element_type="f32" offset="25960" shape="64,1,1,1" size="256"/>
			<output>
				<port id="1" precision="FP32">
					<dim>64</dim>
					<dim>1</dim>
					<dim>1</dim>
					<dim>1</dim>
				</port>
			</output>
		</layer>
		<layer id="262" name="23022306_const" type="Const" version="opset1">
			<data element_type="f32" offset="26216" shape="64,1,1,1" size="256"/>
			<output>
				<port id="1" precision="FP32">
					<dim>64</dim>
					<dim>1</dim>
					<dim>1</dim>
					<dim>1</dim>
				</port>
			</output>
		</layer>
		<layer id="263" name="23032307_const" type="Const" version="opset1">
			<data element_type="f32" offset="25960" shape="64,1,1,1" size="256"/>
			<output>
				<port id="1" precision="FP32">
					<dim>64</dim>
					<dim>1</dim>
					<dim>1</dim>
					<dim>1</dim>
				</port>
			</output>
		</layer>
		<layer id="264" name="23042308_const" type="Const" version="opset1">
			<data element_type="f32" offset="26216" shape="64,1,1,1" size="256"/>
			<output>
				<port id="1" precision="FP32">
					<dim>64</dim>
					<dim>1</dim>
					<dim>1</dim>
					<dim>1</dim>
				</port>
			</output>
		</layer>
		<layer id="265" name="bottleneck2_0/skip/conv/fq_weights_1" type="FakeQuantize" version="opset1">
			<data levels="255"/>
			<input>
				<port id="0">
					<dim>64</dim>
					<dim>32</dim>
					<dim>1</dim>
					<dim>1</dim>
				</port>
				<port id="1">
					<dim>64</dim>
					<dim>1</dim>
					<dim>1</dim>
					<dim>1</dim>
				</port>
				<port id="2">
					<dim>64</dim>
					<dim>1</dim>
					<dim>1</dim>
					<dim>1</dim>
				</port>
				<port id="3">
					<dim>64</dim>
					<dim>1</dim>
					<dim>1</dim>
					<dim>1</dim>
				</port>
				<port id="4">
					<dim>64</dim>
					<dim>1</dim>
					<dim>1</dim>
					<dim>1</dim>
				</port>
			</input>
			<output>
				<port id="5" precision="FP32">
					<dim>64</dim>
					<dim>32</dim>
					<dim>1</dim>
					<dim>1</dim>
				</port>
			</output>
		</layer>
		<layer id="266" name="bottleneck2_0/skip/conv" type="Convolution" version="opset1">
			<data dilations="1,1" output_padding="0,0" pads_begin="0,0" pads_end="0,0" strides="1,1"/>
			<input>
				<port id="0">
					<dim>1</dim>
					<dim>32</dim>
					<dim>128</dim>
					<dim>128</dim>
				</port>
				<port id="1">
					<dim>64</dim>
					<dim>32</dim>
					<dim>1</dim>
					<dim>1</dim>
				</port>
			</input>
			<output>
				<port id="2" precision="FP32">
					<dim>1</dim>
					<dim>64</dim>
					<dim>128</dim>
					<dim>128</dim>
				</port>
			</output>
		</layer>
		<layer id="267" name="data_add_2575925764/copy_const888_const" type="Const" version="opset1">
			<data element_type="f32" offset="26472" shape="1,64,1,1" size="256"/>
			<output>
				<port id="1" precision="FP32">
					<dim>1</dim>
					<dim>64</dim>
					<dim>1</dim>
					<dim>1</dim>
				</port>
			</output>
		</layer>
		<layer id="268" name="Add1_22343/Fused_Add_" type="Add" version="opset1">
			<input>
				<port id="0">
					<dim>1</dim>
					<dim>64</dim>
					<dim>128</dim>
					<dim>128</dim>
				</port>
				<port id="1">
					<dim>1</dim>
					<dim>64</dim>
					<dim>1</dim>
					<dim>1</dim>
				</port>
			</input>
			<output>
				<port id="2" precision="FP32">
					<dim>1</dim>
					<dim>64</dim>
					<dim>128</dim>
					<dim>128</dim>
				</port>
			</output>
		</layer>
		<layer id="269" name="43814385_const" type="Const" version="opset1">
			<data element_type="f32" offset="26728" shape="" size="4"/>
			<output>
				<port id="1" precision="FP32"/>
			</output>
		</layer>
		<layer id="270" name="43824386_const" type="Const" version="opset1">
			<data element_type="f32" offset="26732" shape="" size="4"/>
			<output>
				<port id="1" precision="FP32"/>
			</output>
		</layer>
		<layer id="271" name="43834387_const" type="Const" version="opset1">
			<data element_type="f32" offset="26728" shape="" size="4"/>
			<output>
				<port id="1" precision="FP32"/>
			</output>
		</layer>
		<layer id="272" name="43844388_const" type="Const" version="opset1">
			<data element_type="f32" offset="26732" shape="" size="4"/>
			<output>
				<port id="1" precision="FP32"/>
			</output>
		</layer>
		<layer id="273" name="bottleneck2_0/add/fq_input_0" type="FakeQuantize" version="opset1">
			<data levels="256"/>
			<input>
				<port id="0">
					<dim>1</dim>
					<dim>64</dim>
					<dim>128</dim>
					<dim>128</dim>
				</port>
				<port id="1"/>
				<port id="2"/>
				<port id="3"/>
				<port id="4"/>
			</input>
			<output>
				<port id="5" precision="FP32">
					<dim>1</dim>
					<dim>64</dim>
					<dim>128</dim>
					<dim>128</dim>
				</port>
			</output>
		</layer>
		<layer id="274" name="Mul1_22306/Fused_Mul_2760827610_const890_const" type="Const" version="opset1">
			<data element_type="f32" offset="26736" shape="16,32,1,1" size="2048"/>
			<output>
				<port id="1" precision="FP32">
					<dim>16</dim>
					<dim>32</dim>
					<dim>1</dim>
					<dim>1</dim>
				</port>
			</output>
		</layer>
		<layer id="275" name="48414845_const" type="Const" version="opset1">
			<data element_type="f32" offset="28784" shape="16,1,1,1" size="64"/>
			<output>
				<port id="1" precision="FP32">
					<dim>16</dim>
					<dim>1</dim>
					<dim>1</dim>
					<dim>1</dim>
				</port>
			</output>
		</layer>
		<layer id="276" name="48424846_const" type="Const" version="opset1">
			<data element_type="f32" offset="28848" shape="16,1,1,1" size="64"/>
			<output>
				<port id="1" precision="FP32">
					<dim>16</dim>
					<dim>1</dim>
					<dim>1</dim>
					<dim>1</dim>
				</port>
			</output>
		</layer>
		<layer id="277" name="48434847_const" type="Const" version="opset1">
			<data element_type="f32" offset="28784" shape="16,1,1,1" size="64"/>
			<output>
				<port id="1" precision="FP32">
					<dim>16</dim>
					<dim>1</dim>
					<dim>1</dim>
					<dim>1</dim>
				</port>
			</output>
		</layer>
		<layer id="278" name="48444848_const" type="Const" version="opset1">
			<data element_type="f32" offset="28848" shape="16,1,1,1" size="64"/>
			<output>
				<port id="1" precision="FP32">
					<dim>16</dim>
					<dim>1</dim>
					<dim>1</dim>
					<dim>1</dim>
				</port>
			</output>
		</layer>
		<layer id="279" name="bottleneck2_0/dim_red/conv/fq_weights_1" type="FakeQuantize" version="opset1">
			<data levels="255"/>
			<input>
				<port id="0">
					<dim>16</dim>
					<dim>32</dim>
					<dim>1</dim>
					<dim>1</dim>
				</port>
				<port id="1">
					<dim>16</dim>
					<dim>1</dim>
					<dim>1</dim>
					<dim>1</dim>
				</port>
				<port id="2">
					<dim>16</dim>
					<dim>1</dim>
					<dim>1</dim>
					<dim>1</dim>
				</port>
				<port id="3">
					<dim>16</dim>
					<dim>1</dim>
					<dim>1</dim>
					<dim>1</dim>
				</port>
				<port id="4">
					<dim>16</dim>
					<dim>1</dim>
					<dim>1</dim>
					<dim>1</dim>
				</port>
			</input>
			<output>
				<port id="5" precision="FP32">
					<dim>16</dim>
					<dim>32</dim>
					<dim>1</dim>
					<dim>1</dim>
				</port>
			</output>
		</layer>
		<layer id="280" name="bottleneck2_0/dim_red/conv" type="Convolution" version="opset1">
			<data dilations="1,1" output_padding="0,0" pads_begin="0,0" pads_end="0,0" strides="1,1"/>
			<input>
				<port id="0">
					<dim>1</dim>
					<dim>32</dim>
					<dim>256</dim>
					<dim>256</dim>
				</port>
				<port id="1">
					<dim>16</dim>
					<dim>32</dim>
					<dim>1</dim>
					<dim>1</dim>
				</port>
			</input>
			<output>
				<port id="2" precision="FP32">
					<dim>1</dim>
					<dim>16</dim>
					<dim>256</dim>
					<dim>256</dim>
				</port>
			</output>
		</layer>
		<layer id="281" name="data_add_2576725772/copy_const892_const" type="Const" version="opset1">
			<data element_type="f32" offset="28912" shape="1,16,1,1" size="64"/>
			<output>
				<port id="1" precision="FP32">
					<dim>1</dim>
					<dim>16</dim>
					<dim>1</dim>
					<dim>1</dim>
				</port>
			</output>
		</layer>
		<layer id="282" name="Add1_22307/Fused_Add_" type="Add" version="opset1">
			<input>
				<port id="0">
					<dim>1</dim>
					<dim>16</dim>
					<dim>256</dim>
					<dim>256</dim>
				</port>
				<port id="1">
					<dim>1</dim>
					<dim>16</dim>
					<dim>1</dim>
					<dim>1</dim>
				</port>
			</input>
			<output>
				<port id="2" precision="FP32">
					<dim>1</dim>
					<dim>16</dim>
					<dim>256</dim>
					<dim>256</dim>
				</port>
			</output>
		</layer>
		<layer id="283" name="bottleneck2_0/dim_red/fn" type="Elu" version="opset1">
			<data alpha="1.0"/>
			<input>
				<port id="0">
					<dim>1</dim>
					<dim>16</dim>
					<dim>256</dim>
					<dim>256</dim>
				</port>
			</input>
			<output>
				<port id="1" precision="FP32">
					<dim>1</dim>
					<dim>16</dim>
					<dim>256</dim>
					<dim>256</dim>
				</port>
			</output>
		</layer>
		<layer id="284" name="31713175_const" type="Const" version="opset1">
			<data element_type="f32" offset="28976" shape="1,16,1,1" size="64"/>
			<output>
				<port id="1" precision="FP32">
					<dim>1</dim>
					<dim>16</dim>
					<dim>1</dim>
					<dim>1</dim>
				</port>
			</output>
		</layer>
		<layer id="285" name="31723176_const" type="Const" version="opset1">
			<data element_type="f32" offset="29040" shape="1,16,1,1" size="64"/>
			<output>
				<port id="1" precision="FP32">
					<dim>1</dim>
					<dim>16</dim>
					<dim>1</dim>
					<dim>1</dim>
				</port>
			</output>
		</layer>
		<layer id="286" name="31733177_const" type="Const" version="opset1">
			<data element_type="f32" offset="28976" shape="1,16,1,1" size="64"/>
			<output>
				<port id="1" precision="FP32">
					<dim>1</dim>
					<dim>16</dim>
					<dim>1</dim>
					<dim>1</dim>
				</port>
			</output>
		</layer>
		<layer id="287" name="31743178_const" type="Const" version="opset1">
			<data element_type="f32" offset="29040" shape="1,16,1,1" size="64"/>
			<output>
				<port id="1" precision="FP32">
					<dim>1</dim>
					<dim>16</dim>
					<dim>1</dim>
					<dim>1</dim>
				</port>
			</output>
		</layer>
		<layer id="288" name="bottleneck2_0/inner/dw1/conv/fq_input_0" type="FakeQuantize" version="opset1">
			<data levels="256"/>
			<input>
				<port id="0">
					<dim>1</dim>
					<dim>16</dim>
					<dim>256</dim>
					<dim>256</dim>
				</port>
				<port id="1">
					<dim>1</dim>
					<dim>16</dim>
					<dim>1</dim>
					<dim>1</dim>
				</port>
				<port id="2">
					<dim>1</dim>
					<dim>16</dim>
					<dim>1</dim>
					<dim>1</dim>
				</port>
				<port id="3">
					<dim>1</dim>
					<dim>16</dim>
					<dim>1</dim>
					<dim>1</dim>
				</port>
				<port id="4">
					<dim>1</dim>
					<dim>16</dim>
					<dim>1</dim>
					<dim>1</dim>
				</port>
			</input>
			<output>
				<port id="5" precision="FP32">
					<dim>1</dim>
					<dim>16</dim>
					<dim>256</dim>
					<dim>256</dim>
				</port>
			</output>
		</layer>
		<layer id="289" name="17601542_const" type="Const" version="opset1">
			<data element_type="f32" offset="29104" shape="16,1,3,3" size="576"/>
			<output>
				<port id="1" precision="FP32">
					<dim>16</dim>
					<dim>1</dim>
					<dim>3</dim>
					<dim>3</dim>
				</port>
			</output>
		</layer>
		<layer id="290" name="31813185_const" type="Const" version="opset1">
			<data element_type="f32" offset="29680" shape="16,1,1,1" size="64"/>
			<output>
				<port id="1" precision="FP32">
					<dim>16</dim>
					<dim>1</dim>
					<dim>1</dim>
					<dim>1</dim>
				</port>
			</output>
		</layer>
		<layer id="291" name="31823186_const" type="Const" version="opset1">
			<data element_type="f32" offset="29744" shape="16,1,1,1" size="64"/>
			<output>
				<port id="1" precision="FP32">
					<dim>16</dim>
					<dim>1</dim>
					<dim>1</dim>
					<dim>1</dim>
				</port>
			</output>
		</layer>
		<layer id="292" name="31833187_const" type="Const" version="opset1">
			<data element_type="f32" offset="29680" shape="16,1,1,1" size="64"/>
			<output>
				<port id="1" precision="FP32">
					<dim>16</dim>
					<dim>1</dim>
					<dim>1</dim>
					<dim>1</dim>
				</port>
			</output>
		</layer>
		<layer id="293" name="31843188_const" type="Const" version="opset1">
			<data element_type="f32" offset="29744" shape="16,1,1,1" size="64"/>
			<output>
				<port id="1" precision="FP32">
					<dim>16</dim>
					<dim>1</dim>
					<dim>1</dim>
					<dim>1</dim>
				</port>
			</output>
		</layer>
		<layer id="294" name="bottleneck2_0/inner/dw1/conv/fq_weights_1" type="FakeQuantize" version="opset1">
			<data levels="255"/>
			<input>
				<port id="0">
					<dim>16</dim>
					<dim>1</dim>
					<dim>3</dim>
					<dim>3</dim>
				</port>
				<port id="1">
					<dim>16</dim>
					<dim>1</dim>
					<dim>1</dim>
					<dim>1</dim>
				</port>
				<port id="2">
					<dim>16</dim>
					<dim>1</dim>
					<dim>1</dim>
					<dim>1</dim>
				</port>
				<port id="3">
					<dim>16</dim>
					<dim>1</dim>
					<dim>1</dim>
					<dim>1</dim>
				</port>
				<port id="4">
					<dim>16</dim>
					<dim>1</dim>
					<dim>1</dim>
					<dim>1</dim>
				</port>
			</input>
			<output>
				<port id="5" precision="FP32">
					<dim>16</dim>
					<dim>1</dim>
					<dim>3</dim>
					<dim>3</dim>
				</port>
			</output>
		</layer>
		<layer id="295" name="9934/value9936_const" type="Const" version="opset1">
			<data element_type="i64" offset="29808" shape="5" size="40"/>
			<output>
				<port id="1" precision="I64">
					<dim>5</dim>
				</port>
			</output>
		</layer>
		<layer id="296" name="9934" type="Reshape" version="opset1">
			<data special_zero="True"/>
			<input>
				<port id="0">
					<dim>16</dim>
					<dim>1</dim>
					<dim>3</dim>
					<dim>3</dim>
				</port>
				<port id="1">
					<dim>5</dim>
				</port>
			</input>
			<output>
				<port id="2" precision="FP32">
					<dim>16</dim>
					<dim>1</dim>
					<dim>1</dim>
					<dim>3</dim>
					<dim>3</dim>
				</port>
			</output>
		</layer>
		<layer id="297" name="bottleneck2_0/inner/dw1/conv" type="GroupConvolution" version="opset1">
			<data dilations="1,1" output_padding="0,0" pads_begin="1,1" pads_end="1,1" strides="2,2"/>
			<input>
				<port id="0">
					<dim>1</dim>
					<dim>16</dim>
					<dim>256</dim>
					<dim>256</dim>
				</port>
				<port id="1">
					<dim>16</dim>
					<dim>1</dim>
					<dim>1</dim>
					<dim>3</dim>
					<dim>3</dim>
				</port>
			</input>
			<output>
				<port id="2" precision="FP32">
					<dim>1</dim>
					<dim>16</dim>
					<dim>128</dim>
					<dim>128</dim>
				</port>
			</output>
		</layer>
		<layer id="298" name="data_add_2577525780/copy_const897_const" type="Const" version="opset1">
			<data element_type="f32" offset="29848" shape="1,16,1,1" size="64"/>
			<output>
				<port id="1" precision="FP32">
					<dim>1</dim>
					<dim>16</dim>
					<dim>1</dim>
					<dim>1</dim>
				</port>
			</output>
		</layer>
		<layer id="299" name="Add1_22319/Fused_Add_" type="Add" version="opset1">
			<input>
				<port id="0">
					<dim>1</dim>
					<dim>16</dim>
					<dim>128</dim>
					<dim>128</dim>
				</port>
				<port id="1">
					<dim>1</dim>
					<dim>16</dim>
					<dim>1</dim>
					<dim>1</dim>
				</port>
			</input>
			<output>
				<port id="2" precision="FP32">
					<dim>1</dim>
					<dim>16</dim>
					<dim>128</dim>
					<dim>128</dim>
				</port>
			</output>
		</layer>
		<layer id="300" name="bottleneck2_0/inner/dw1/fn" type="Elu" version="opset1">
			<data alpha="1.0"/>
			<input>
				<port id="0">
					<dim>1</dim>
					<dim>16</dim>
					<dim>128</dim>
					<dim>128</dim>
				</port>
			</input>
			<output>
				<port id="1" precision="FP32">
					<dim>1</dim>
					<dim>16</dim>
					<dim>128</dim>
					<dim>128</dim>
				</port>
			</output>
		</layer>
		<layer id="301" name="45714575_const" type="Const" version="opset1">
			<data element_type="f32" offset="29912" shape="" size="4"/>
			<output>
				<port id="1" precision="FP32"/>
			</output>
		</layer>
		<layer id="302" name="45724576_const" type="Const" version="opset1">
			<data element_type="f32" offset="29916" shape="" size="4"/>
			<output>
				<port id="1" precision="FP32"/>
			</output>
		</layer>
		<layer id="303" name="45734577_const" type="Const" version="opset1">
			<data element_type="f32" offset="29912" shape="" size="4"/>
			<output>
				<port id="1" precision="FP32"/>
			</output>
		</layer>
		<layer id="304" name="45744578_const" type="Const" version="opset1">
			<data element_type="f32" offset="29916" shape="" size="4"/>
			<output>
				<port id="1" precision="FP32"/>
			</output>
		</layer>
		<layer id="305" name="bottleneck2_0/dim_inc/conv/fq_input_0" type="FakeQuantize" version="opset1">
			<data levels="256"/>
			<input>
				<port id="0">
					<dim>1</dim>
					<dim>16</dim>
					<dim>128</dim>
					<dim>128</dim>
				</port>
				<port id="1"/>
				<port id="2"/>
				<port id="3"/>
				<port id="4"/>
			</input>
			<output>
				<port id="5" precision="FP32">
					<dim>1</dim>
					<dim>16</dim>
					<dim>128</dim>
					<dim>128</dim>
				</port>
			</output>
		</layer>
		<layer id="306" name="Mul1_22330/Fused_Mul_2761627618_const900_const" type="Const" version="opset1">
			<data element_type="f32" offset="29920" shape="64,16,1,1" size="4096"/>
			<output>
				<port id="1" precision="FP32">
					<dim>64</dim>
					<dim>16</dim>
					<dim>1</dim>
					<dim>1</dim>
				</port>
			</output>
		</layer>
		<layer id="307" name="45814585_const" type="Const" version="opset1">
			<data element_type="f32" offset="34016" shape="64,1,1,1" size="256"/>
			<output>
				<port id="1" precision="FP32">
					<dim>64</dim>
					<dim>1</dim>
					<dim>1</dim>
					<dim>1</dim>
				</port>
			</output>
		</layer>
		<layer id="308" name="45824586_const" type="Const" version="opset1">
			<data element_type="f32" offset="34272" shape="64,1,1,1" size="256"/>
			<output>
				<port id="1" precision="FP32">
					<dim>64</dim>
					<dim>1</dim>
					<dim>1</dim>
					<dim>1</dim>
				</port>
			</output>
		</layer>
		<layer id="309" name="45834587_const" type="Const" version="opset1">
			<data element_type="f32" offset="34016" shape="64,1,1,1" size="256"/>
			<output>
				<port id="1" precision="FP32">
					<dim>64</dim>
					<dim>1</dim>
					<dim>1</dim>
					<dim>1</dim>
				</port>
			</output>
		</layer>
		<layer id="310" name="45844588_const" type="Const" version="opset1">
			<data element_type="f32" offset="34272" shape="64,1,1,1" size="256"/>
			<output>
				<port id="1" precision="FP32">
					<dim>64</dim>
					<dim>1</dim>
					<dim>1</dim>
					<dim>1</dim>
				</port>
			</output>
		</layer>
		<layer id="311" name="bottleneck2_0/dim_inc/conv/fq_weights_1" type="FakeQuantize" version="opset1">
			<data levels="255"/>
			<input>
				<port id="0">
					<dim>64</dim>
					<dim>16</dim>
					<dim>1</dim>
					<dim>1</dim>
				</port>
				<port id="1">
					<dim>64</dim>
					<dim>1</dim>
					<dim>1</dim>
					<dim>1</dim>
				</port>
				<port id="2">
					<dim>64</dim>
					<dim>1</dim>
					<dim>1</dim>
					<dim>1</dim>
				</port>
				<port id="3">
					<dim>64</dim>
					<dim>1</dim>
					<dim>1</dim>
					<dim>1</dim>
				</port>
				<port id="4">
					<dim>64</dim>
					<dim>1</dim>
					<dim>1</dim>
					<dim>1</dim>
				</port>
			</input>
			<output>
				<port id="5" precision="FP32">
					<dim>64</dim>
					<dim>16</dim>
					<dim>1</dim>
					<dim>1</dim>
				</port>
			</output>
		</layer>
		<layer id="312" name="bottleneck2_0/dim_inc/conv" type="Convolution" version="opset1">
			<data dilations="1,1" output_padding="0,0" pads_begin="0,0" pads_end="0,0" strides="1,1"/>
			<input>
				<port id="0">
					<dim>1</dim>
					<dim>16</dim>
					<dim>128</dim>
					<dim>128</dim>
				</port>
				<port id="1">
					<dim>64</dim>
					<dim>16</dim>
					<dim>1</dim>
					<dim>1</dim>
				</port>
			</input>
			<output>
				<port id="2" precision="FP32">
					<dim>1</dim>
					<dim>64</dim>
					<dim>128</dim>
					<dim>128</dim>
				</port>
			</output>
		</layer>
		<layer id="313" name="data_add_2578325788/copy_const902_const" type="Const" version="opset1">
			<data element_type="f32" offset="34528" shape="1,64,1,1" size="256"/>
			<output>
				<port id="1" precision="FP32">
					<dim>1</dim>
					<dim>64</dim>
					<dim>1</dim>
					<dim>1</dim>
				</port>
			</output>
		</layer>
		<layer id="314" name="Add1_22331/Fused_Add_" type="Add" version="opset1">
			<input>
				<port id="0">
					<dim>1</dim>
					<dim>64</dim>
					<dim>128</dim>
					<dim>128</dim>
				</port>
				<port id="1">
					<dim>1</dim>
					<dim>64</dim>
					<dim>1</dim>
					<dim>1</dim>
				</port>
			</input>
			<output>
				<port id="2" precision="FP32">
					<dim>1</dim>
					<dim>64</dim>
					<dim>128</dim>
					<dim>128</dim>
				</port>
			</output>
		</layer>
		<layer id="315" name="43914395_const" type="Const" version="opset1">
			<data element_type="f32" offset="34784" shape="" size="4"/>
			<output>
				<port id="1" precision="FP32"/>
			</output>
		</layer>
		<layer id="316" name="43924396_const" type="Const" version="opset1">
			<data element_type="f32" offset="34788" shape="" size="4"/>
			<output>
				<port id="1" precision="FP32"/>
			</output>
		</layer>
		<layer id="317" name="43934397_const" type="Const" version="opset1">
			<data element_type="f32" offset="34784" shape="" size="4"/>
			<output>
				<port id="1" precision="FP32"/>
			</output>
		</layer>
		<layer id="318" name="43944398_const" type="Const" version="opset1">
			<data element_type="f32" offset="34788" shape="" size="4"/>
			<output>
				<port id="1" precision="FP32"/>
			</output>
		</layer>
		<layer id="319" name="bottleneck2_0/add/fq_input_1" type="FakeQuantize" version="opset1">
			<data levels="256"/>
			<input>
				<port id="0">
					<dim>1</dim>
					<dim>64</dim>
					<dim>128</dim>
					<dim>128</dim>
				</port>
				<port id="1"/>
				<port id="2"/>
				<port id="3"/>
				<port id="4"/>
			</input>
			<output>
				<port id="5" precision="FP32">
					<dim>1</dim>
					<dim>64</dim>
					<dim>128</dim>
					<dim>128</dim>
				</port>
			</output>
		</layer>
		<layer id="320" name="bottleneck2_0/add" type="Add" version="opset1">
			<input>
				<port id="0">
					<dim>1</dim>
					<dim>64</dim>
					<dim>128</dim>
					<dim>128</dim>
				</port>
				<port id="1">
					<dim>1</dim>
					<dim>64</dim>
					<dim>128</dim>
					<dim>128</dim>
				</port>
			</input>
			<output>
				<port id="2" precision="FP32">
					<dim>1</dim>
					<dim>64</dim>
					<dim>128</dim>
					<dim>128</dim>
				</port>
			</output>
		</layer>
		<layer id="321" name="bottleneck2_0/fn" type="Elu" version="opset1">
			<data alpha="1.0"/>
			<input>
				<port id="0">
					<dim>1</dim>
					<dim>64</dim>
					<dim>128</dim>
					<dim>128</dim>
				</port>
			</input>
			<output>
				<port id="1" precision="FP32">
					<dim>1</dim>
					<dim>64</dim>
					<dim>128</dim>
					<dim>128</dim>
				</port>
			</output>
		</layer>
		<layer id="322" name="39213925_const" type="Const" version="opset1">
			<data element_type="f32" offset="34792" shape="" size="4"/>
			<output>
				<port id="1" precision="FP32"/>
			</output>
		</layer>
		<layer id="323" name="39223926_const" type="Const" version="opset1">
			<data element_type="f32" offset="34796" shape="" size="4"/>
			<output>
				<port id="1" precision="FP32"/>
			</output>
		</layer>
		<layer id="324" name="39233927_const" type="Const" version="opset1">
			<data element_type="f32" offset="34792" shape="" size="4"/>
			<output>
				<port id="1" precision="FP32"/>
			</output>
		</layer>
		<layer id="325" name="39243928_const" type="Const" version="opset1">
			<data element_type="f32" offset="34796" shape="" size="4"/>
			<output>
				<port id="1" precision="FP32"/>
			</output>
		</layer>
		<layer id="326" name="bottleneck2_1/add/fq_input_0" type="FakeQuantize" version="opset1">
			<data levels="256"/>
			<input>
				<port id="0">
					<dim>1</dim>
					<dim>64</dim>
					<dim>128</dim>
					<dim>128</dim>
				</port>
				<port id="1"/>
				<port id="2"/>
				<port id="3"/>
				<port id="4"/>
			</input>
			<output>
				<port id="5" precision="FP32">
					<dim>1</dim>
					<dim>64</dim>
					<dim>128</dim>
					<dim>128</dim>
				</port>
			</output>
		</layer>
		<layer id="327" name="Mul1_22354/Fused_Mul_2762027622_const906_const" type="Const" version="opset1">
			<data element_type="f32" offset="34800" shape="16,64,1,1" size="4096"/>
			<output>
				<port id="1" precision="FP32">
					<dim>16</dim>
					<dim>64</dim>
					<dim>1</dim>
					<dim>1</dim>
				</port>
			</output>
		</layer>
		<layer id="328" name="52215225_const" type="Const" version="opset1">
			<data element_type="f32" offset="38896" shape="16,1,1,1" size="64"/>
			<output>
				<port id="1" precision="FP32">
					<dim>16</dim>
					<dim>1</dim>
					<dim>1</dim>
					<dim>1</dim>
				</port>
			</output>
		</layer>
		<layer id="329" name="52225226_const" type="Const" version="opset1">
			<data element_type="f32" offset="38960" shape="16,1,1,1" size="64"/>
			<output>
				<port id="1" precision="FP32">
					<dim>16</dim>
					<dim>1</dim>
					<dim>1</dim>
					<dim>1</dim>
				</port>
			</output>
		</layer>
		<layer id="330" name="52235227_const" type="Const" version="opset1">
			<data element_type="f32" offset="38896" shape="16,1,1,1" size="64"/>
			<output>
				<port id="1" precision="FP32">
					<dim>16</dim>
					<dim>1</dim>
					<dim>1</dim>
					<dim>1</dim>
				</port>
			</output>
		</layer>
		<layer id="331" name="52245228_const" type="Const" version="opset1">
			<data element_type="f32" offset="38960" shape="16,1,1,1" size="64"/>
			<output>
				<port id="1" precision="FP32">
					<dim>16</dim>
					<dim>1</dim>
					<dim>1</dim>
					<dim>1</dim>
				</port>
			</output>
		</layer>
		<layer id="332" name="bottleneck2_1/dim_red/conv/fq_weights_1" type="FakeQuantize" version="opset1">
			<data levels="255"/>
			<input>
				<port id="0">
					<dim>16</dim>
					<dim>64</dim>
					<dim>1</dim>
					<dim>1</dim>
				</port>
				<port id="1">
					<dim>16</dim>
					<dim>1</dim>
					<dim>1</dim>
					<dim>1</dim>
				</port>
				<port id="2">
					<dim>16</dim>
					<dim>1</dim>
					<dim>1</dim>
					<dim>1</dim>
				</port>
				<port id="3">
					<dim>16</dim>
					<dim>1</dim>
					<dim>1</dim>
					<dim>1</dim>
				</port>
				<port id="4">
					<dim>16</dim>
					<dim>1</dim>
					<dim>1</dim>
					<dim>1</dim>
				</port>
			</input>
			<output>
				<port id="5" precision="FP32">
					<dim>16</dim>
					<dim>64</dim>
					<dim>1</dim>
					<dim>1</dim>
				</port>
			</output>
		</layer>
		<layer id="333" name="bottleneck2_1/dim_red/conv" type="Convolution" version="opset1">
			<data dilations="1,1" output_padding="0,0" pads_begin="0,0" pads_end="0,0" strides="1,1"/>
			<input>
				<port id="0">
					<dim>1</dim>
					<dim>64</dim>
					<dim>128</dim>
					<dim>128</dim>
				</port>
				<port id="1">
					<dim>16</dim>
					<dim>64</dim>
					<dim>1</dim>
					<dim>1</dim>
				</port>
			</input>
			<output>
				<port id="2" precision="FP32">
					<dim>1</dim>
					<dim>16</dim>
					<dim>128</dim>
					<dim>128</dim>
				</port>
			</output>
		</layer>
		<layer id="334" name="data_add_2579125796/copy_const908_const" type="Const" version="opset1">
			<data element_type="f32" offset="39024" shape="1,16,1,1" size="64"/>
			<output>
				<port id="1" precision="FP32">
					<dim>1</dim>
					<dim>16</dim>
					<dim>1</dim>
					<dim>1</dim>
				</port>
			</output>
		</layer>
		<layer id="335" name="Add1_22355/Fused_Add_" type="Add" version="opset1">
			<input>
				<port id="0">
					<dim>1</dim>
					<dim>16</dim>
					<dim>128</dim>
					<dim>128</dim>
				</port>
				<port id="1">
					<dim>1</dim>
					<dim>16</dim>
					<dim>1</dim>
					<dim>1</dim>
				</port>
			</input>
			<output>
				<port id="2" precision="FP32">
					<dim>1</dim>
					<dim>16</dim>
					<dim>128</dim>
					<dim>128</dim>
				</port>
			</output>
		</layer>
		<layer id="336" name="bottleneck2_1/dim_red/fn" type="Elu" version="opset1">
			<data alpha="1.0"/>
			<input>
				<port id="0">
					<dim>1</dim>
					<dim>16</dim>
					<dim>128</dim>
					<dim>128</dim>
				</port>
			</input>
			<output>
				<port id="1" precision="FP32">
					<dim>1</dim>
					<dim>16</dim>
					<dim>128</dim>
					<dim>128</dim>
				</port>
			</output>
		</layer>
		<layer id="337" name="27912795_const" type="Const" version="opset1">
			<data element_type="f32" offset="39088" shape="1,16,1,1" size="64"/>
			<output>
				<port id="1" precision="FP32">
					<dim>1</dim>
					<dim>16</dim>
					<dim>1</dim>
					<dim>1</dim>
				</port>
			</output>
		</layer>
		<layer id="338" name="27922796_const" type="Const" version="opset1">
			<data element_type="f32" offset="39152" shape="1,16,1,1" size="64"/>
			<output>
				<port id="1" precision="FP32">
					<dim>1</dim>
					<dim>16</dim>
					<dim>1</dim>
					<dim>1</dim>
				</port>
			</output>
		</layer>
		<layer id="339" name="27932797_const" type="Const" version="opset1">
			<data element_type="f32" offset="39088" shape="1,16,1,1" size="64"/>
			<output>
				<port id="1" precision="FP32">
					<dim>1</dim>
					<dim>16</dim>
					<dim>1</dim>
					<dim>1</dim>
				</port>
			</output>
		</layer>
		<layer id="340" name="27942798_const" type="Const" version="opset1">
			<data element_type="f32" offset="39152" shape="1,16,1,1" size="64"/>
			<output>
				<port id="1" precision="FP32">
					<dim>1</dim>
					<dim>16</dim>
					<dim>1</dim>
					<dim>1</dim>
				</port>
			</output>
		</layer>
		<layer id="341" name="bottleneck2_1/inner/dw1/conv/fq_input_0" type="FakeQuantize" version="opset1">
			<data levels="256"/>
			<input>
				<port id="0">
					<dim>1</dim>
					<dim>16</dim>
					<dim>128</dim>
					<dim>128</dim>
				</port>
				<port id="1">
					<dim>1</dim>
					<dim>16</dim>
					<dim>1</dim>
					<dim>1</dim>
				</port>
				<port id="2">
					<dim>1</dim>
					<dim>16</dim>
					<dim>1</dim>
					<dim>1</dim>
				</port>
				<port id="3">
					<dim>1</dim>
					<dim>16</dim>
					<dim>1</dim>
					<dim>1</dim>
				</port>
				<port id="4">
					<dim>1</dim>
					<dim>16</dim>
					<dim>1</dim>
					<dim>1</dim>
				</port>
			</input>
			<output>
				<port id="5" precision="FP32">
					<dim>1</dim>
					<dim>16</dim>
					<dim>128</dim>
					<dim>128</dim>
				</port>
			</output>
		</layer>
		<layer id="342" name="17641544_const" type="Const" version="opset1">
			<data element_type="f32" offset="39216" shape="16,1,3,3" size="576"/>
			<output>
				<port id="1" precision="FP32">
					<dim>16</dim>
					<dim>1</dim>
					<dim>3</dim>
					<dim>3</dim>
				</port>
			</output>
		</layer>
		<layer id="343" name="28012805_const" type="Const" version="opset1">
			<data element_type="f32" offset="39792" shape="16,1,1,1" size="64"/>
			<output>
				<port id="1" precision="FP32">
					<dim>16</dim>
					<dim>1</dim>
					<dim>1</dim>
					<dim>1</dim>
				</port>
			</output>
		</layer>
		<layer id="344" name="28022806_const" type="Const" version="opset1">
			<data element_type="f32" offset="39856" shape="16,1,1,1" size="64"/>
			<output>
				<port id="1" precision="FP32">
					<dim>16</dim>
					<dim>1</dim>
					<dim>1</dim>
					<dim>1</dim>
				</port>
			</output>
		</layer>
		<layer id="345" name="28032807_const" type="Const" version="opset1">
			<data element_type="f32" offset="39792" shape="16,1,1,1" size="64"/>
			<output>
				<port id="1" precision="FP32">
					<dim>16</dim>
					<dim>1</dim>
					<dim>1</dim>
					<dim>1</dim>
				</port>
			</output>
		</layer>
		<layer id="346" name="28042808_const" type="Const" version="opset1">
			<data element_type="f32" offset="39856" shape="16,1,1,1" size="64"/>
			<output>
				<port id="1" precision="FP32">
					<dim>16</dim>
					<dim>1</dim>
					<dim>1</dim>
					<dim>1</dim>
				</port>
			</output>
		</layer>
		<layer id="347" name="bottleneck2_1/inner/dw1/conv/fq_weights_1" type="FakeQuantize" version="opset1">
			<data levels="255"/>
			<input>
				<port id="0">
					<dim>16</dim>
					<dim>1</dim>
					<dim>3</dim>
					<dim>3</dim>
				</port>
				<port id="1">
					<dim>16</dim>
					<dim>1</dim>
					<dim>1</dim>
					<dim>1</dim>
				</port>
				<port id="2">
					<dim>16</dim>
					<dim>1</dim>
					<dim>1</dim>
					<dim>1</dim>
				</port>
				<port id="3">
					<dim>16</dim>
					<dim>1</dim>
					<dim>1</dim>
					<dim>1</dim>
				</port>
				<port id="4">
					<dim>16</dim>
					<dim>1</dim>
					<dim>1</dim>
					<dim>1</dim>
				</port>
			</input>
			<output>
				<port id="5" precision="FP32">
					<dim>16</dim>
					<dim>1</dim>
					<dim>3</dim>
					<dim>3</dim>
				</port>
			</output>
		</layer>
		<layer id="348" name="9910/value9912_const" type="Const" version="opset1">
			<data element_type="i64" offset="29808" shape="5" size="40"/>
			<output>
				<port id="1" precision="I64">
					<dim>5</dim>
				</port>
			</output>
		</layer>
		<layer id="349" name="9910" type="Reshape" version="opset1">
			<data special_zero="True"/>
			<input>
				<port id="0">
					<dim>16</dim>
					<dim>1</dim>
					<dim>3</dim>
					<dim>3</dim>
				</port>
				<port id="1">
					<dim>5</dim>
				</port>
			</input>
			<output>
				<port id="2" precision="FP32">
					<dim>16</dim>
					<dim>1</dim>
					<dim>1</dim>
					<dim>3</dim>
					<dim>3</dim>
				</port>
			</output>
		</layer>
		<layer id="350" name="bottleneck2_1/inner/dw1/conv" type="GroupConvolution" version="opset1">
			<data dilations="1,1" output_padding="0,0" pads_begin="1,1" pads_end="1,1" strides="1,1"/>
			<input>
				<port id="0">
					<dim>1</dim>
					<dim>16</dim>
					<dim>128</dim>
					<dim>128</dim>
				</port>
				<port id="1">
					<dim>16</dim>
					<dim>1</dim>
					<dim>1</dim>
					<dim>3</dim>
					<dim>3</dim>
				</port>
			</input>
			<output>
				<port id="2" precision="FP32">
					<dim>1</dim>
					<dim>16</dim>
					<dim>128</dim>
					<dim>128</dim>
				</port>
			</output>
		</layer>
		<layer id="351" name="data_add_2579925804/copy_const913_const" type="Const" version="opset1">
			<data element_type="f32" offset="39920" shape="1,16,1,1" size="64"/>
			<output>
				<port id="1" precision="FP32">
					<dim>1</dim>
					<dim>16</dim>
					<dim>1</dim>
					<dim>1</dim>
				</port>
			</output>
		</layer>
		<layer id="352" name="Add1_22367/Fused_Add_" type="Add" version="opset1">
			<input>
				<port id="0">
					<dim>1</dim>
					<dim>16</dim>
					<dim>128</dim>
					<dim>128</dim>
				</port>
				<port id="1">
					<dim>1</dim>
					<dim>16</dim>
					<dim>1</dim>
					<dim>1</dim>
				</port>
			</input>
			<output>
				<port id="2" precision="FP32">
					<dim>1</dim>
					<dim>16</dim>
					<dim>128</dim>
					<dim>128</dim>
				</port>
			</output>
		</layer>
		<layer id="353" name="bottleneck2_1/inner/dw1/fn" type="Elu" version="opset1">
			<data alpha="1.0"/>
			<input>
				<port id="0">
					<dim>1</dim>
					<dim>16</dim>
					<dim>128</dim>
					<dim>128</dim>
				</port>
			</input>
			<output>
				<port id="1" precision="FP32">
					<dim>1</dim>
					<dim>16</dim>
					<dim>128</dim>
					<dim>128</dim>
				</port>
			</output>
		</layer>
		<layer id="354" name="32313235_const" type="Const" version="opset1">
			<data element_type="f32" offset="39984" shape="" size="4"/>
			<output>
				<port id="1" precision="FP32"/>
			</output>
		</layer>
		<layer id="355" name="32323236_const" type="Const" version="opset1">
			<data element_type="f32" offset="39988" shape="" size="4"/>
			<output>
				<port id="1" precision="FP32"/>
			</output>
		</layer>
		<layer id="356" name="32333237_const" type="Const" version="opset1">
			<data element_type="f32" offset="39984" shape="" size="4"/>
			<output>
				<port id="1" precision="FP32"/>
			</output>
		</layer>
		<layer id="357" name="32343238_const" type="Const" version="opset1">
			<data element_type="f32" offset="39988" shape="" size="4"/>
			<output>
				<port id="1" precision="FP32"/>
			</output>
		</layer>
		<layer id="358" name="bottleneck2_1/dim_inc/conv/fq_input_0" type="FakeQuantize" version="opset1">
			<data levels="256"/>
			<input>
				<port id="0">
					<dim>1</dim>
					<dim>16</dim>
					<dim>128</dim>
					<dim>128</dim>
				</port>
				<port id="1"/>
				<port id="2"/>
				<port id="3"/>
				<port id="4"/>
			</input>
			<output>
				<port id="5" precision="FP32">
					<dim>1</dim>
					<dim>16</dim>
					<dim>128</dim>
					<dim>128</dim>
				</port>
			</output>
		</layer>
		<layer id="359" name="Mul1_22378/Fused_Mul_2762827630_const916_const" type="Const" version="opset1">
			<data element_type="f32" offset="39992" shape="64,16,1,1" size="4096"/>
			<output>
				<port id="1" precision="FP32">
					<dim>64</dim>
					<dim>16</dim>
					<dim>1</dim>
					<dim>1</dim>
				</port>
			</output>
		</layer>
		<layer id="360" name="32413245_const" type="Const" version="opset1">
			<data element_type="f32" offset="44088" shape="64,1,1,1" size="256"/>
			<output>
				<port id="1" precision="FP32">
					<dim>64</dim>
					<dim>1</dim>
					<dim>1</dim>
					<dim>1</dim>
				</port>
			</output>
		</layer>
		<layer id="361" name="32423246_const" type="Const" version="opset1">
			<data element_type="f32" offset="44344" shape="64,1,1,1" size="256"/>
			<output>
				<port id="1" precision="FP32">
					<dim>64</dim>
					<dim>1</dim>
					<dim>1</dim>
					<dim>1</dim>
				</port>
			</output>
		</layer>
		<layer id="362" name="32433247_const" type="Const" version="opset1">
			<data element_type="f32" offset="44088" shape="64,1,1,1" size="256"/>
			<output>
				<port id="1" precision="FP32">
					<dim>64</dim>
					<dim>1</dim>
					<dim>1</dim>
					<dim>1</dim>
				</port>
			</output>
		</layer>
		<layer id="363" name="32443248_const" type="Const" version="opset1">
			<data element_type="f32" offset="44344" shape="64,1,1,1" size="256"/>
			<output>
				<port id="1" precision="FP32">
					<dim>64</dim>
					<dim>1</dim>
					<dim>1</dim>
					<dim>1</dim>
				</port>
			</output>
		</layer>
		<layer id="364" name="bottleneck2_1/dim_inc/conv/fq_weights_1" type="FakeQuantize" version="opset1">
			<data levels="255"/>
			<input>
				<port id="0">
					<dim>64</dim>
					<dim>16</dim>
					<dim>1</dim>
					<dim>1</dim>
				</port>
				<port id="1">
					<dim>64</dim>
					<dim>1</dim>
					<dim>1</dim>
					<dim>1</dim>
				</port>
				<port id="2">
					<dim>64</dim>
					<dim>1</dim>
					<dim>1</dim>
					<dim>1</dim>
				</port>
				<port id="3">
					<dim>64</dim>
					<dim>1</dim>
					<dim>1</dim>
					<dim>1</dim>
				</port>
				<port id="4">
					<dim>64</dim>
					<dim>1</dim>
					<dim>1</dim>
					<dim>1</dim>
				</port>
			</input>
			<output>
				<port id="5" precision="FP32">
					<dim>64</dim>
					<dim>16</dim>
					<dim>1</dim>
					<dim>1</dim>
				</port>
			</output>
		</layer>
		<layer id="365" name="bottleneck2_1/dim_inc/conv" type="Convolution" version="opset1">
			<data dilations="1,1" output_padding="0,0" pads_begin="0,0" pads_end="0,0" strides="1,1"/>
			<input>
				<port id="0">
					<dim>1</dim>
					<dim>16</dim>
					<dim>128</dim>
					<dim>128</dim>
				</port>
				<port id="1">
					<dim>64</dim>
					<dim>16</dim>
					<dim>1</dim>
					<dim>1</dim>
				</port>
			</input>
			<output>
				<port id="2" precision="FP32">
					<dim>1</dim>
					<dim>64</dim>
					<dim>128</dim>
					<dim>128</dim>
				</port>
			</output>
		</layer>
		<layer id="366" name="data_add_2580725812/copy_const918_const" type="Const" version="opset1">
			<data element_type="f32" offset="44600" shape="1,64,1,1" size="256"/>
			<output>
				<port id="1" precision="FP32">
					<dim>1</dim>
					<dim>64</dim>
					<dim>1</dim>
					<dim>1</dim>
				</port>
			</output>
		</layer>
		<layer id="367" name="Add1_22379/Fused_Add_" type="Add" version="opset1">
			<input>
				<port id="0">
					<dim>1</dim>
					<dim>64</dim>
					<dim>128</dim>
					<dim>128</dim>
				</port>
				<port id="1">
					<dim>1</dim>
					<dim>64</dim>
					<dim>1</dim>
					<dim>1</dim>
				</port>
			</input>
			<output>
				<port id="2" precision="FP32">
					<dim>1</dim>
					<dim>64</dim>
					<dim>128</dim>
					<dim>128</dim>
				</port>
			</output>
		</layer>
		<layer id="368" name="39313935_const" type="Const" version="opset1">
			<data element_type="f32" offset="44856" shape="" size="4"/>
			<output>
				<port id="1" precision="FP32"/>
			</output>
		</layer>
		<layer id="369" name="39323936_const" type="Const" version="opset1">
			<data element_type="f32" offset="44860" shape="" size="4"/>
			<output>
				<port id="1" precision="FP32"/>
			</output>
		</layer>
		<layer id="370" name="39333937_const" type="Const" version="opset1">
			<data element_type="f32" offset="44856" shape="" size="4"/>
			<output>
				<port id="1" precision="FP32"/>
			</output>
		</layer>
		<layer id="371" name="39343938_const" type="Const" version="opset1">
			<data element_type="f32" offset="44860" shape="" size="4"/>
			<output>
				<port id="1" precision="FP32"/>
			</output>
		</layer>
		<layer id="372" name="bottleneck2_1/add/fq_input_1" type="FakeQuantize" version="opset1">
			<data levels="256"/>
			<input>
				<port id="0">
					<dim>1</dim>
					<dim>64</dim>
					<dim>128</dim>
					<dim>128</dim>
				</port>
				<port id="1"/>
				<port id="2"/>
				<port id="3"/>
				<port id="4"/>
			</input>
			<output>
				<port id="5" precision="FP32">
					<dim>1</dim>
					<dim>64</dim>
					<dim>128</dim>
					<dim>128</dim>
				</port>
			</output>
		</layer>
		<layer id="373" name="bottleneck2_1/add" type="Add" version="opset1">
			<input>
				<port id="0">
					<dim>1</dim>
					<dim>64</dim>
					<dim>128</dim>
					<dim>128</dim>
				</port>
				<port id="1">
					<dim>1</dim>
					<dim>64</dim>
					<dim>128</dim>
					<dim>128</dim>
				</port>
			</input>
			<output>
				<port id="2" precision="FP32">
					<dim>1</dim>
					<dim>64</dim>
					<dim>128</dim>
					<dim>128</dim>
				</port>
			</output>
		</layer>
		<layer id="374" name="bottleneck2_1/fn" type="Elu" version="opset1">
			<data alpha="1.0"/>
			<input>
				<port id="0">
					<dim>1</dim>
					<dim>64</dim>
					<dim>128</dim>
					<dim>128</dim>
				</port>
			</input>
			<output>
				<port id="1" precision="FP32">
					<dim>1</dim>
					<dim>64</dim>
					<dim>128</dim>
					<dim>128</dim>
				</port>
			</output>
		</layer>
		<layer id="375" name="35113515_const" type="Const" version="opset1">
			<data element_type="f32" offset="44864" shape="" size="4"/>
			<output>
				<port id="1" precision="FP32"/>
			</output>
		</layer>
		<layer id="376" name="35123516_const" type="Const" version="opset1">
			<data element_type="f32" offset="44868" shape="" size="4"/>
			<output>
				<port id="1" precision="FP32"/>
			</output>
		</layer>
		<layer id="377" name="35133517_const" type="Const" version="opset1">
			<data element_type="f32" offset="44864" shape="" size="4"/>
			<output>
				<port id="1" precision="FP32"/>
			</output>
		</layer>
		<layer id="378" name="35143518_const" type="Const" version="opset1">
			<data element_type="f32" offset="44868" shape="" size="4"/>
			<output>
				<port id="1" precision="FP32"/>
			</output>
		</layer>
		<layer id="379" name="bottleneck2_2/add/fq_input_0" type="FakeQuantize" version="opset1">
			<data levels="256"/>
			<input>
				<port id="0">
					<dim>1</dim>
					<dim>64</dim>
					<dim>128</dim>
					<dim>128</dim>
				</port>
				<port id="1"/>
				<port id="2"/>
				<port id="3"/>
				<port id="4"/>
			</input>
			<output>
				<port id="5" precision="FP32">
					<dim>1</dim>
					<dim>64</dim>
					<dim>128</dim>
					<dim>128</dim>
				</port>
			</output>
		</layer>
		<layer id="380" name="Mul1_22390/Fused_Mul_2763227634_const922_const" type="Const" version="opset1">
			<data element_type="f32" offset="44872" shape="16,64,1,1" size="4096"/>
			<output>
				<port id="1" precision="FP32">
					<dim>16</dim>
					<dim>64</dim>
					<dim>1</dim>
					<dim>1</dim>
				</port>
			</output>
		</layer>
		<layer id="381" name="35013505_const" type="Const" version="opset1">
			<data element_type="f32" offset="48968" shape="16,1,1,1" size="64"/>
			<output>
				<port id="1" precision="FP32">
					<dim>16</dim>
					<dim>1</dim>
					<dim>1</dim>
					<dim>1</dim>
				</port>
			</output>
		</layer>
		<layer id="382" name="35023506_const" type="Const" version="opset1">
			<data element_type="f32" offset="49032" shape="16,1,1,1" size="64"/>
			<output>
				<port id="1" precision="FP32">
					<dim>16</dim>
					<dim>1</dim>
					<dim>1</dim>
					<dim>1</dim>
				</port>
			</output>
		</layer>
		<layer id="383" name="35033507_const" type="Const" version="opset1">
			<data element_type="f32" offset="48968" shape="16,1,1,1" size="64"/>
			<output>
				<port id="1" precision="FP32">
					<dim>16</dim>
					<dim>1</dim>
					<dim>1</dim>
					<dim>1</dim>
				</port>
			</output>
		</layer>
		<layer id="384" name="35043508_const" type="Const" version="opset1">
			<data element_type="f32" offset="49032" shape="16,1,1,1" size="64"/>
			<output>
				<port id="1" precision="FP32">
					<dim>16</dim>
					<dim>1</dim>
					<dim>1</dim>
					<dim>1</dim>
				</port>
			</output>
		</layer>
		<layer id="385" name="bottleneck2_2/dim_red/conv/fq_weights_1" type="FakeQuantize" version="opset1">
			<data levels="255"/>
			<input>
				<port id="0">
					<dim>16</dim>
					<dim>64</dim>
					<dim>1</dim>
					<dim>1</dim>
				</port>
				<port id="1">
					<dim>16</dim>
					<dim>1</dim>
					<dim>1</dim>
					<dim>1</dim>
				</port>
				<port id="2">
					<dim>16</dim>
					<dim>1</dim>
					<dim>1</dim>
					<dim>1</dim>
				</port>
				<port id="3">
					<dim>16</dim>
					<dim>1</dim>
					<dim>1</dim>
					<dim>1</dim>
				</port>
				<port id="4">
					<dim>16</dim>
					<dim>1</dim>
					<dim>1</dim>
					<dim>1</dim>
				</port>
			</input>
			<output>
				<port id="5" precision="FP32">
					<dim>16</dim>
					<dim>64</dim>
					<dim>1</dim>
					<dim>1</dim>
				</port>
			</output>
		</layer>
		<layer id="386" name="bottleneck2_2/dim_red/conv" type="Convolution" version="opset1">
			<data dilations="1,1" output_padding="0,0" pads_begin="0,0" pads_end="0,0" strides="1,1"/>
			<input>
				<port id="0">
					<dim>1</dim>
					<dim>64</dim>
					<dim>128</dim>
					<dim>128</dim>
				</port>
				<port id="1">
					<dim>16</dim>
					<dim>64</dim>
					<dim>1</dim>
					<dim>1</dim>
				</port>
			</input>
			<output>
				<port id="2" precision="FP32">
					<dim>1</dim>
					<dim>16</dim>
					<dim>128</dim>
					<dim>128</dim>
				</port>
			</output>
		</layer>
		<layer id="387" name="data_add_2581525820/copy_const924_const" type="Const" version="opset1">
			<data element_type="f32" offset="49096" shape="1,16,1,1" size="64"/>
			<output>
				<port id="1" precision="FP32">
					<dim>1</dim>
					<dim>16</dim>
					<dim>1</dim>
					<dim>1</dim>
				</port>
			</output>
		</layer>
		<layer id="388" name="Add1_22391/Fused_Add_" type="Add" version="opset1">
			<input>
				<port id="0">
					<dim>1</dim>
					<dim>16</dim>
					<dim>128</dim>
					<dim>128</dim>
				</port>
				<port id="1">
					<dim>1</dim>
					<dim>16</dim>
					<dim>1</dim>
					<dim>1</dim>
				</port>
			</input>
			<output>
				<port id="2" precision="FP32">
					<dim>1</dim>
					<dim>16</dim>
					<dim>128</dim>
					<dim>128</dim>
				</port>
			</output>
		</layer>
		<layer id="389" name="bottleneck2_2/dim_red/fn" type="Elu" version="opset1">
			<data alpha="1.0"/>
			<input>
				<port id="0">
					<dim>1</dim>
					<dim>16</dim>
					<dim>128</dim>
					<dim>128</dim>
				</port>
			</input>
			<output>
				<port id="1" precision="FP32">
					<dim>1</dim>
					<dim>16</dim>
					<dim>128</dim>
					<dim>128</dim>
				</port>
			</output>
		</layer>
		<layer id="390" name="49714975_const" type="Const" version="opset1">
			<data element_type="f32" offset="49160" shape="1,16,1,1" size="64"/>
			<output>
				<port id="1" precision="FP32">
					<dim>1</dim>
					<dim>16</dim>
					<dim>1</dim>
					<dim>1</dim>
				</port>
			</output>
		</layer>
		<layer id="391" name="49724976_const" type="Const" version="opset1">
			<data element_type="f32" offset="49224" shape="1,16,1,1" size="64"/>
			<output>
				<port id="1" precision="FP32">
					<dim>1</dim>
					<dim>16</dim>
					<dim>1</dim>
					<dim>1</dim>
				</port>
			</output>
		</layer>
		<layer id="392" name="49734977_const" type="Const" version="opset1">
			<data element_type="f32" offset="49160" shape="1,16,1,1" size="64"/>
			<output>
				<port id="1" precision="FP32">
					<dim>1</dim>
					<dim>16</dim>
					<dim>1</dim>
					<dim>1</dim>
				</port>
			</output>
		</layer>
		<layer id="393" name="49744978_const" type="Const" version="opset1">
			<data element_type="f32" offset="49224" shape="1,16,1,1" size="64"/>
			<output>
				<port id="1" precision="FP32">
					<dim>1</dim>
					<dim>16</dim>
					<dim>1</dim>
					<dim>1</dim>
				</port>
			</output>
		</layer>
		<layer id="394" name="bottleneck2_2/inner/dw1/conv/fq_input_0" type="FakeQuantize" version="opset1">
			<data levels="256"/>
			<input>
				<port id="0">
					<dim>1</dim>
					<dim>16</dim>
					<dim>128</dim>
					<dim>128</dim>
				</port>
				<port id="1">
					<dim>1</dim>
					<dim>16</dim>
					<dim>1</dim>
					<dim>1</dim>
				</port>
				<port id="2">
					<dim>1</dim>
					<dim>16</dim>
					<dim>1</dim>
					<dim>1</dim>
				</port>
				<port id="3">
					<dim>1</dim>
					<dim>16</dim>
					<dim>1</dim>
					<dim>1</dim>
				</port>
				<port id="4">
					<dim>1</dim>
					<dim>16</dim>
					<dim>1</dim>
					<dim>1</dim>
				</port>
			</input>
			<output>
				<port id="5" precision="FP32">
					<dim>1</dim>
					<dim>16</dim>
					<dim>128</dim>
					<dim>128</dim>
				</port>
			</output>
		</layer>
		<layer id="395" name="17681546_const" type="Const" version="opset1">
			<data element_type="f32" offset="49288" shape="16,1,3,3" size="576"/>
			<output>
				<port id="1" precision="FP32">
					<dim>16</dim>
					<dim>1</dim>
					<dim>3</dim>
					<dim>3</dim>
				</port>
			</output>
		</layer>
		<layer id="396" name="49814985_const" type="Const" version="opset1">
			<data element_type="f32" offset="49864" shape="16,1,1,1" size="64"/>
			<output>
				<port id="1" precision="FP32">
					<dim>16</dim>
					<dim>1</dim>
					<dim>1</dim>
					<dim>1</dim>
				</port>
			</output>
		</layer>
		<layer id="397" name="49824986_const" type="Const" version="opset1">
			<data element_type="f32" offset="49928" shape="16,1,1,1" size="64"/>
			<output>
				<port id="1" precision="FP32">
					<dim>16</dim>
					<dim>1</dim>
					<dim>1</dim>
					<dim>1</dim>
				</port>
			</output>
		</layer>
		<layer id="398" name="49834987_const" type="Const" version="opset1">
			<data element_type="f32" offset="49864" shape="16,1,1,1" size="64"/>
			<output>
				<port id="1" precision="FP32">
					<dim>16</dim>
					<dim>1</dim>
					<dim>1</dim>
					<dim>1</dim>
				</port>
			</output>
		</layer>
		<layer id="399" name="49844988_const" type="Const" version="opset1">
			<data element_type="f32" offset="49928" shape="16,1,1,1" size="64"/>
			<output>
				<port id="1" precision="FP32">
					<dim>16</dim>
					<dim>1</dim>
					<dim>1</dim>
					<dim>1</dim>
				</port>
			</output>
		</layer>
		<layer id="400" name="bottleneck2_2/inner/dw1/conv/fq_weights_1" type="FakeQuantize" version="opset1">
			<data levels="255"/>
			<input>
				<port id="0">
					<dim>16</dim>
					<dim>1</dim>
					<dim>3</dim>
					<dim>3</dim>
				</port>
				<port id="1">
					<dim>16</dim>
					<dim>1</dim>
					<dim>1</dim>
					<dim>1</dim>
				</port>
				<port id="2">
					<dim>16</dim>
					<dim>1</dim>
					<dim>1</dim>
					<dim>1</dim>
				</port>
				<port id="3">
					<dim>16</dim>
					<dim>1</dim>
					<dim>1</dim>
					<dim>1</dim>
				</port>
				<port id="4">
					<dim>16</dim>
					<dim>1</dim>
					<dim>1</dim>
					<dim>1</dim>
				</port>
			</input>
			<output>
				<port id="5" precision="FP32">
					<dim>16</dim>
					<dim>1</dim>
					<dim>3</dim>
					<dim>3</dim>
				</port>
			</output>
		</layer>
		<layer id="401" name="9990/value9992_const" type="Const" version="opset1">
			<data element_type="i64" offset="29808" shape="5" size="40"/>
			<output>
				<port id="1" precision="I64">
					<dim>5</dim>
				</port>
			</output>
		</layer>
		<layer id="402" name="9990" type="Reshape" version="opset1">
			<data special_zero="True"/>
			<input>
				<port id="0">
					<dim>16</dim>
					<dim>1</dim>
					<dim>3</dim>
					<dim>3</dim>
				</port>
				<port id="1">
					<dim>5</dim>
				</port>
			</input>
			<output>
				<port id="2" precision="FP32">
					<dim>16</dim>
					<dim>1</dim>
					<dim>1</dim>
					<dim>3</dim>
					<dim>3</dim>
				</port>
			</output>
		</layer>
		<layer id="403" name="bottleneck2_2/inner/dw1/conv" type="GroupConvolution" version="opset1">
			<data dilations="1,1" output_padding="0,0" pads_begin="1,1" pads_end="1,1" strides="1,1"/>
			<input>
				<port id="0">
					<dim>1</dim>
					<dim>16</dim>
					<dim>128</dim>
					<dim>128</dim>
				</port>
				<port id="1">
					<dim>16</dim>
					<dim>1</dim>
					<dim>1</dim>
					<dim>3</dim>
					<dim>3</dim>
				</port>
			</input>
			<output>
				<port id="2" precision="FP32">
					<dim>1</dim>
					<dim>16</dim>
					<dim>128</dim>
					<dim>128</dim>
				</port>
			</output>
		</layer>
		<layer id="404" name="data_add_2582325828/copy_const929_const" type="Const" version="opset1">
			<data element_type="f32" offset="49992" shape="1,16,1,1" size="64"/>
			<output>
				<port id="1" precision="FP32">
					<dim>1</dim>
					<dim>16</dim>
					<dim>1</dim>
					<dim>1</dim>
				</port>
			</output>
		</layer>
		<layer id="405" name="Add1_22403/Fused_Add_" type="Add" version="opset1">
			<input>
				<port id="0">
					<dim>1</dim>
					<dim>16</dim>
					<dim>128</dim>
					<dim>128</dim>
				</port>
				<port id="1">
					<dim>1</dim>
					<dim>16</dim>
					<dim>1</dim>
					<dim>1</dim>
				</port>
			</input>
			<output>
				<port id="2" precision="FP32">
					<dim>1</dim>
					<dim>16</dim>
					<dim>128</dim>
					<dim>128</dim>
				</port>
			</output>
		</layer>
		<layer id="406" name="bottleneck2_2/inner/dw1/fn" type="Elu" version="opset1">
			<data alpha="1.0"/>
			<input>
				<port id="0">
					<dim>1</dim>
					<dim>16</dim>
					<dim>128</dim>
					<dim>128</dim>
				</port>
			</input>
			<output>
				<port id="1" precision="FP32">
					<dim>1</dim>
					<dim>16</dim>
					<dim>128</dim>
					<dim>128</dim>
				</port>
			</output>
		</layer>
		<layer id="407" name="43014305_const" type="Const" version="opset1">
			<data element_type="f32" offset="50056" shape="" size="4"/>
			<output>
				<port id="1" precision="FP32"/>
			</output>
		</layer>
		<layer id="408" name="43024306_const" type="Const" version="opset1">
			<data element_type="f32" offset="50060" shape="" size="4"/>
			<output>
				<port id="1" precision="FP32"/>
			</output>
		</layer>
		<layer id="409" name="43034307_const" type="Const" version="opset1">
			<data element_type="f32" offset="50056" shape="" size="4"/>
			<output>
				<port id="1" precision="FP32"/>
			</output>
		</layer>
		<layer id="410" name="43044308_const" type="Const" version="opset1">
			<data element_type="f32" offset="50060" shape="" size="4"/>
			<output>
				<port id="1" precision="FP32"/>
			</output>
		</layer>
		<layer id="411" name="bottleneck2_2/dim_inc/conv/fq_input_0" type="FakeQuantize" version="opset1">
			<data levels="256"/>
			<input>
				<port id="0">
					<dim>1</dim>
					<dim>16</dim>
					<dim>128</dim>
					<dim>128</dim>
				</port>
				<port id="1"/>
				<port id="2"/>
				<port id="3"/>
				<port id="4"/>
			</input>
			<output>
				<port id="5" precision="FP32">
					<dim>1</dim>
					<dim>16</dim>
					<dim>128</dim>
					<dim>128</dim>
				</port>
			</output>
		</layer>
…
		<edge from-layer="1527" from-port="1" to-layer="1528" to-port="1"/>
		<edge from-layer="1528" from-port="2" to-layer="1529" to-port="0"/>
		<edge from-layer="1529" from-port="1" to-layer="1534" to-port="0"/>
		<edge from-layer="1530" from-port="1" to-layer="1534" to-port="1"/>
		<edge from-layer="1531" from-port="1" to-layer="1534" to-port="2"/>
		<edge from-layer="1532" from-port="1" to-layer="1534" to-port="3"/>
		<edge from-layer="1533" from-port="1" to-layer="1534" to-port="4"/>
		<edge from-layer="1535" from-port="1" to-layer="1540" to-port="0"/>
		<edge from-layer="1536" from-port="1" to-layer="1540" to-port="1"/>
		<edge from-layer="1537" from-port="1" to-layer="1540" to-port="2"/>
		<edge from-layer="1538" from-port="1" to-layer="1540" to-port="3"/>
		<edge from-layer="1539" from-port="1" to-layer="1540" to-port="4"/>
		<edge from-layer="1534" from-port="5" to-layer="1541" to-port="0"/>
		<edge from-layer="1540" from-port="5" to-layer="1541" to-port="1"/>
		<edge from-layer="1541" from-port="2" to-layer="1543" to-port="0"/>
		<edge from-layer="1542" from-port="1" to-layer="1543" to-port="1"/>
		<edge from-layer="1543" from-port="2" to-layer="1548" to-port="0"/>
		<edge from-layer="1544" from-port="1" to-layer="1548" to-port="1"/>
		<edge from-layer="1545" from-port="1" to-layer="1548" to-port="2"/>
		<edge from-layer="1546" from-port="1" to-layer="1548" to-port="3"/>
		<edge from-layer="1547" from-port="1" to-layer="1548" to-port="4"/>
		<edge from-layer="1502" from-port="5" to-layer="1549" to-port="0"/>
		<edge from-layer="1548" from-port="5" to-layer="1549" to-port="1"/>
		<edge from-layer="1549" from-port="2" to-layer="1550" to-port="0"/>
		<edge from-layer="1550" from-port="1" to-layer="1555" to-port="0"/>
		<edge from-layer="1551" from-port="1" to-layer="1555" to-port="1"/>
		<edge from-layer="1552" from-port="1" to-layer="1555" to-port="2"/>
		<edge from-layer="1553" from-port="1" to-layer="1555" to-port="3"/>
		<edge from-layer="1554" from-port="1" to-layer="1555" to-port="4"/>
		<edge from-layer="1556" from-port="1" to-layer="1561" to-port="0"/>
		<edge from-layer="1557" from-port="1" to-layer="1561" to-port="1"/>
		<edge from-layer="1558" from-port="1" to-layer="1561" to-port="2"/>
		<edge from-layer="1559" from-port="1" to-layer="1561" to-port="3"/>
		<edge from-layer="1560" from-port="1" to-layer="1561" to-port="4"/>
		<edge from-layer="1555" from-port="5" to-layer="1562" to-port="0"/>
		<edge from-layer="1561" from-port="5" to-layer="1562" to-port="1"/>
		<edge from-layer="1562" from-port="2" to-layer="1564" to-port="0"/>
		<edge from-layer="1563" from-port="1" to-layer="1564" to-port="1"/>
		<edge from-layer="1564" from-port="2" to-layer="1565" to-port="0"/>
		<edge from-layer="1565" from-port="1" to-layer="1570" to-port="0"/>
		<edge from-layer="1566" from-port="1" to-layer="1570" to-port="1"/>
		<edge from-layer="1567" from-port="1" to-layer="1570" to-port="2"/>
		<edge from-layer="1568" from-port="1" to-layer="1570" to-port="3"/>
		<edge from-layer="1569" from-port="1" to-layer="1570" to-port="4"/>
		<edge from-layer="1571" from-port="1" to-layer="1576" to-port="0"/>
		<edge from-layer="1572" from-port="1" to-layer="1576" to-port="1"/>
		<edge from-layer="1573" from-port="1" to-layer="1576" to-port="2"/>
		<edge from-layer="1574" from-port="1" to-layer="1576" to-port="3"/>
		<edge from-layer="1575" from-port="1" to-layer="1576" to-port="4"/>
		<edge from-layer="1576" from-port="5" to-layer="1578" to-port="0"/>
		<edge from-layer="1577" from-port="1" to-layer="1578" to-port="1"/>
		<edge from-layer="1570" from-port="5" to-layer="1579" to-port="0"/>
		<edge from-layer="1578" from-port="2" to-layer="1579" to-port="1"/>
		<edge from-layer="1579" from-port="2" to-layer="1581" to-port="0"/>
		<edge from-layer="1580" from-port="1" to-layer="1581" to-port="1"/>
		<edge from-layer="1581" from-port="2" to-layer="1582" to-port="0"/>
		<edge from-layer="1582" from-port="1" to-layer="1587" to-port="0"/>
		<edge from-layer="1583" from-port="1" to-layer="1587" to-port="1"/>
		<edge from-layer="1584" from-port="1" to-layer="1587" to-port="2"/>
		<edge from-layer="1585" from-port="1" to-layer="1587" to-port="3"/>
		<edge from-layer="1586" from-port="1" to-layer="1587" to-port="4"/>
		<edge from-layer="1588" from-port="1" to-layer="1593" to-port="0"/>
		<edge from-layer="1589" from-port="1" to-layer="1593" to-port="1"/>
		<edge from-layer="1590" from-port="1" to-layer="1593" to-port="2"/>
		<edge from-layer="1591" from-port="1" to-layer="1593" to-port="3"/>
		<edge from-layer="1592" from-port="1" to-layer="1593" to-port="4"/>
		<edge from-layer="1587" from-port="5" to-layer="1594" to-port="0"/>
		<edge from-layer="1593" from-port="5" to-layer="1594" to-port="1"/>
		<edge from-layer="1594" from-port="2" to-layer="1596" to-port="0"/>
		<edge from-layer="1595" from-port="1" to-layer="1596" to-port="1"/>
		<edge from-layer="1596" from-port="2" to-layer="1601" to-port="0"/>
		<edge from-layer="1597" from-port="1" to-layer="1601" to-port="1"/>
		<edge from-layer="1598" from-port="1" to-layer="1601" to-port="2"/>
		<edge from-layer="1599" from-port="1" to-layer="1601" to-port="3"/>
		<edge from-layer="1600" from-port="1" to-layer="1601" to-port="4"/>
		<edge from-layer="1555" from-port="5" to-layer="1602" to-port="0"/>
		<edge from-layer="1601" from-port="5" to-layer="1602" to-port="1"/>
		<edge from-layer="1602" from-port="2" to-layer="1603" to-port="0"/>
		<edge from-layer="1603" from-port="1" to-layer="1608" to-port="0"/>
		<edge from-layer="1604" from-port="1" to-layer="1608" to-port="1"/>
		<edge from-layer="1605" from-port="1" to-layer="1608" to-port="2"/>
		<edge from-layer="1606" from-port="1" to-layer="1608" to-port="3"/>
		<edge from-layer="1607" from-port="1" to-layer="1608" to-port="4"/>
		<edge from-layer="1609" from-port="1" to-layer="1614" to-port="0"/>
		<edge from-layer="1610" from-port="1" to-layer="1614" to-port="1"/>
		<edge from-layer="1611" from-port="1" to-layer="1614" to-port="2"/>
		<edge from-layer="1612" from-port="1" to-layer="1614" to-port="3"/>
		<edge from-layer="1613" from-port="1" to-layer="1614" to-port="4"/>
		<edge from-layer="1608" from-port="5" to-layer="1615" to-port="0"/>
		<edge from-layer="1614" from-port="5" to-layer="1615" to-port="1"/>
		<edge from-layer="1615" from-port="2" to-layer="1617" to-port="0"/>
		<edge from-layer="1616" from-port="1" to-layer="1617" to-port="1"/>
		<edge from-layer="1617" from-port="2" to-layer="1618" to-port="0"/>
		<edge from-layer="1618" from-port="1" to-layer="1623" to-port="0"/>
		<edge from-layer="1619" from-port="1" to-layer="1623" to-port="1"/>
		<edge from-layer="1620" from-port="1" to-layer="1623" to-port="2"/>
		<edge from-layer="1621" from-port="1" to-layer="1623" to-port="3"/>
		<edge from-layer="1622" from-port="1" to-layer="1623" to-port="4"/>
		<edge from-layer="1624" from-port="1" to-layer="1629" to-port="0"/>
		<edge from-layer="1625" from-port="1" to-layer="1629" to-port="1"/>
		<edge from-layer="1626" from-port="1" to-layer="1629" to-port="2"/>
		<edge from-layer="1627" from-port="1" to-layer="1629" to-port="3"/>
		<edge from-layer="1628" from-port="1" to-layer="1629" to-port="4"/>
		<edge from-layer="1629" from-port="5" to-layer="1631" to-port="0"/>
		<edge from-layer="1630" from-port="1" to-layer="1631" to-port="1"/>
		<edge from-layer="1623" from-port="5" to-layer="1632" to-port="0"/>
		<edge from-layer="1631" from-port="2" to-layer="1632" to-port="1"/>
		<edge from-layer="1632" from-port="2" to-layer="1634" to-port="0"/>
		<edge from-layer="1633" from-port="1" to-layer="1634" to-port="1"/>
		<edge from-layer="1634" from-port="2" to-layer="1635" to-port="0"/>
		<edge from-layer="1635" from-port="1" to-layer="1640" to-port="0"/>
		<edge from-layer="1636" from-port="1" to-layer="1640" to-port="1"/>
		<edge from-layer="1637" from-port="1" to-layer="1640" to-port="2"/>
		<edge from-layer="1638" from-port="1" to-layer="1640" to-port="3"/>
		<edge from-layer="1639" from-port="1" to-layer="1640" to-port="4"/>
		<edge from-layer="1641" from-port="1" to-layer="1646" to-port="0"/>
		<edge from-layer="1642" from-port="1" to-layer="1646" to-port="1"/>
		<edge from-layer="1643" from-port="1" to-layer="1646" to-port="2"/>
		<edge from-layer="1644" from-port="1" to-layer="1646" to-port="3"/>
		<edge from-layer="1645" from-port="1" to-layer="1646" to-port="4"/>
		<edge from-layer="1640" from-port="5" to-layer="1647" to-port="0"/>
		<edge from-layer="1646" from-port="5" to-layer="1647" to-port="1"/>
		<edge from-layer="1647" from-port="2" to-layer="1649" to-port="0"/>
		<edge from-layer="1648" from-port="1" to-layer="1649" to-port="1"/>
		<edge from-layer="1649" from-port="2" to-layer="1654" to-port="0"/>
		<edge from-layer="1650" from-port="1" to-layer="1654" to-port="1"/>
		<edge from-layer="1651" from-port="1" to-layer="1654" to-port="2"/>
		<edge from-layer="1652" from-port="1" to-layer="1654" to-port="3"/>
		<edge from-layer="1653" from-port="1" to-layer="1654" to-port="4"/>
		<edge from-layer="1608" from-port="5" to-layer="1655" to-port="0"/>
		<edge from-layer="1654" from-port="5" to-layer="1655" to-port="1"/>
		<edge from-layer="1655" from-port="2" to-layer="1656" to-port="0"/>
		<edge from-layer="1656" from-port="1" to-layer="1661" to-port="0"/>
		<edge from-layer="1657" from-port="1" to-layer="1661" to-port="1"/>
		<edge from-layer="1658" from-port="1" to-layer="1661" to-port="2"/>
		<edge from-layer="1659" from-port="1" to-layer="1661" to-port="3"/>
		<edge from-layer="1660" from-port="1" to-layer="1661" to-port="4"/>
		<edge from-layer="1662" from-port="1" to-layer="1667" to-port="0"/>
		<edge from-layer="1663" from-port="1" to-layer="1667" to-port="1"/>
		<edge from-layer="1664" from-port="1" to-layer="1667" to-port="2"/>
		<edge from-layer="1665" from-port="1" to-layer="1667" to-port="3"/>
		<edge from-layer="1666" from-port="1" to-layer="1667" to-port="4"/>
		<edge from-layer="1661" from-port="5" to-layer="1668" to-port="0"/>
		<edge from-layer="1667" from-port="5" to-layer="1668" to-port="1"/>
		<edge from-layer="1668" from-port="2" to-layer="1670" to-port="0"/>
		<edge from-layer="1669" from-port="1" to-layer="1670" to-port="1"/>
		<edge from-layer="1670" from-port="2" to-layer="1671" to-port="0"/>
		<edge from-layer="1671" from-port="1" to-layer="1676" to-port="0"/>
		<edge from-layer="1672" from-port="1" to-layer="1676" to-port="1"/>
		<edge from-layer="1673" from-port="1" to-layer="1676" to-port="2"/>
		<edge from-layer="1674" from-port="1" to-layer="1676" to-port="3"/>
		<edge from-layer="1675" from-port="1" to-layer="1676" to-port="4"/>
		<edge from-layer="1677" from-port="1" to-layer="1682" to-port="0"/>
		<edge from-layer="1678" from-port="1" to-layer="1682" to-port="1"/>
		<edge from-layer="1679" from-port="1" to-layer="1682" to-port="2"/>
		<edge from-layer="1680" from-port="1" to-layer="1682" to-port="3"/>
		<edge from-layer="1681" from-port="1" to-layer="1682" to-port="4"/>
		<edge from-layer="1682" from-port="5" to-layer="1684" to-port="0"/>
		<edge from-layer="1683" from-port="1" to-layer="1684" to-port="1"/>
		<edge from-layer="1676" from-port="5" to-layer="1685" to-port="0"/>
		<edge from-layer="1684" from-port="2" to-layer="1685" to-port="1"/>
		<edge from-layer="1685" from-port="2" to-layer="1687" to-port="0"/>
		<edge from-layer="1686" from-port="1" to-layer="1687" to-port="1"/>
		<edge from-layer="1687" from-port="2" to-layer="1688" to-port="0"/>
		<edge from-layer="1688" from-port="1" to-layer="1693" to-port="0"/>
		<edge from-layer="1689" from-port="1" to-layer="1693" to-port="1"/>
		<edge from-layer="1690" from-port="1" to-layer="1693" to-port="2"/>
		<edge from-layer="1691" from-port="1" to-layer="1693" to-port="3"/>
		<edge from-layer="1692" from-port="1" to-layer="1693" to-port="4"/>
		<edge from-layer="1694" from-port="1" to-layer="1699" to-port="0"/>
		<edge from-layer="1695" from-port="1" to-layer="1699" to-port="1"/>
		<edge from-layer="1696" from-port="1" to-layer="1699" to-port="2"/>
		<edge from-layer="1697" from-port="1" to-layer="1699" to-port="3"/>
		<edge from-layer="1698" from-port="1" to-layer="1699" to-port="4"/>
		<edge from-layer="1693" from-port="5" to-layer="1700" to-port="0"/>
		<edge from-layer="1699" from-port="5" to-layer="1700" to-port="1"/>
		<edge from-layer="1700" from-port="2" to-layer="1702" to-port="0"/>
		<edge from-layer="1701" from-port="1" to-layer="1702" to-port="1"/>
		<edge from-layer="1702" from-port="2" to-layer="1707" to-port="0"/>
		<edge from-layer="1703" from-port="1" to-layer="1707" to-port="1"/>
		<edge from-layer="1704" from-port="1" to-layer="1707" to-port="2"/>
		<edge from-layer="1705" from-port="1" to-layer="1707" to-port="3"/>
		<edge from-layer="1706" from-port="1" to-layer="1707" to-port="4"/>
		<edge from-layer="1661" from-port="5" to-layer="1708" to-port="0"/>
		<edge from-layer="1707" from-port="5" to-layer="1708" to-port="1"/>
		<edge from-layer="1708" from-port="2" to-layer="1709" to-port="0"/>
		<edge from-layer="1709" from-port="1" to-layer="1714" to-port="0"/>
		<edge from-layer="1710" from-port="1" to-layer="1714" to-port="1"/>
		<edge from-layer="1711" from-port="1" to-layer="1714" to-port="2"/>
		<edge from-layer="1712" from-port="1" to-layer="1714" to-port="3"/>
		<edge from-layer="1713" from-port="1" to-layer="1714" to-port="4"/>
		<edge from-layer="1715" from-port="1" to-layer="1720" to-port="0"/>
		<edge from-layer="1716" from-port="1" to-layer="1720" to-port="1"/>
		<edge from-layer="1717" from-port="1" to-layer="1720" to-port="2"/>
		<edge from-layer="1718" from-port="1" to-layer="1720" to-port="3"/>
		<edge from-layer="1719" from-port="1" to-layer="1720" to-port="4"/>
		<edge from-layer="1714" from-port="5" to-layer="1721" to-port="0"/>
		<edge from-layer="1720" from-port="5" to-layer="1721" to-port="1"/>
		<edge from-layer="1721" from-port="2" to-layer="1723" to-port="0"/>
		<edge from-layer="1722" from-port="1" to-layer="1723" to-port="1"/>
		<edge from-layer="1723" from-port="2" to-layer="1724" to-port="0"/>
		<edge from-layer="1724" from-port="1" to-layer="1729" to-port="0"/>
		<edge from-layer="1725" from-port="1" to-layer="1729" to-port="1"/>
		<edge from-layer="1726" from-port="1" to-layer="1729" to-port="2"/>
		<edge from-layer="1727" from-port="1" to-layer="1729" to-port="3"/>
		<edge from-layer="1728" from-port="1" to-layer="1729" to-port="4"/>
		<edge from-layer="1730" from-port="1" to-layer="1735" to-port="0"/>
		<edge from-layer="1731" from-port="1" to-layer="1735" to-port="1"/>
		<edge from-layer="1732" from-port="1" to-layer="1735" to-port="2"/>
		<edge from-layer="1733" from-port="1" to-layer="1735" to-port="3"/>
		<edge from-layer="1734" from-port="1" to-layer="1735" to-port="4"/>
		<edge from-layer="1735" from-port="5" to-layer="1737" to-port="0"/>
		<edge from-layer="1736" from-port="1" to-layer="1737" to-port="1"/>
		<edge from-layer="1729" from-port="5" to-layer="1738" to-port="0"/>
		<edge from-layer="1737" from-port="2" to-layer="1738" to-port="1"/>
		<edge from-layer="1738" from-port="2" to-layer="1740" to-port="0"/>
		<edge from-layer="1739" from-port="1" to-layer="1740" to-port="1"/>
		<edge from-layer="1740" from-port="2" to-layer="1741" to-port="0"/>
		<edge from-layer="1741" from-port="1" to-layer="1746" to-port="0"/>
		<edge from-layer="1742" from-port="1" to-layer="1746" to-port="1"/>
		<edge from-layer="1743" from-port="1" to-layer="1746" to-port="2"/>
		<edge from-layer="1744" from-port="1" to-layer="1746" to-port="3"/>
		<edge from-layer="1745" from-port="1" to-layer="1746" to-port="4"/>
		<edge from-layer="1747" from-port="1" to-layer="1752" to-port="0"/>
		<edge from-layer="1748" from-port="1" to-layer="1752" to-port="1"/>
		<edge from-layer="1749" from-port="1" to-layer="1752" to-port="2"/>
		<edge from-layer="1750" from-port="1" to-layer="1752" to-port="3"/>
		<edge from-layer="1751" from-port="1" to-layer="1752" to-port="4"/>
		<edge from-layer="1746" from-port="5" to-layer="1753" to-port="0"/>
		<edge from-layer="1752" from-port="5" to-layer="1753" to-port="1"/>
		<edge from-layer="1753" from-port="2" to-layer="1755" to-port="0"/>
		<edge from-layer="1754" from-port="1" to-layer="1755" to-port="1"/>
		<edge from-layer="1755" from-port="2" to-layer="1760" to-port="0"/>
		<edge from-layer="1756" from-port="1" to-layer="1760" to-port="1"/>
		<edge from-layer="1757" from-port="1" to-layer="1760" to-port="2"/>
		<edge from-layer="1758" from-port="1" to-layer="1760" to-port="3"/>
		<edge from-layer="1759" from-port="1" to-layer="1760" to-port="4"/>
		<edge from-layer="1714" from-port="5" to-layer="1761" to-port="0"/>
		<edge from-layer="1760" from-port="5" to-layer="1761" to-port="1"/>
		<edge from-layer="1761" from-port="2" to-layer="1762" to-port="0"/>
		<edge from-layer="1762" from-port="1" to-layer="1767" to-port="0"/>
		<edge from-layer="1763" from-port="1" to-layer="1767" to-port="1"/>
		<edge from-layer="1764" from-port="1" to-layer="1767" to-port="2"/>
		<edge from-layer="1765" from-port="1" to-layer="1767" to-port="3"/>
		<edge from-layer="1766" from-port="1" to-layer="1767" to-port="4"/>
		<edge from-layer="1768" from-port="1" to-layer="1773" to-port="0"/>
		<edge from-layer="1769" from-port="1" to-layer="1773" to-port="1"/>
		<edge from-layer="1770" from-port="1" to-layer="1773" to-port="2"/>
		<edge from-layer="1771" from-port="1" to-layer="1773" to-port="3"/>
		<edge from-layer="1772" from-port="1" to-layer="1773" to-port="4"/>
		<edge from-layer="1767" from-port="5" to-layer="1774" to-port="0"/>
		<edge from-layer="1773" from-port="5" to-layer="1774" to-port="1"/>
		<edge from-layer="1774" from-port="2" to-layer="1776" to-port="0"/>
		<edge from-layer="1775" from-port="1" to-layer="1776" to-port="1"/>
		<edge from-layer="1776" from-port="2" to-layer="1777" to-port="0"/>
		<edge from-layer="1777" from-port="1" to-layer="1782" to-port="0"/>
		<edge from-layer="1778" from-port="1" to-layer="1782" to-port="1"/>
		<edge from-layer="1779" from-port="1" to-layer="1782" to-port="2"/>
		<edge from-layer="1780" from-port="1" to-layer="1782" to-port="3"/>
		<edge from-layer="1781" from-port="1" to-layer="1782" to-port="4"/>
		<edge from-layer="1783" from-port="1" to-layer="1788" to-port="0"/>
		<edge from-layer="1784" from-port="1" to-layer="1788" to-port="1"/>
		<edge from-layer="1785" from-port="1" to-layer="1788" to-port="2"/>
		<edge from-layer="1786" from-port="1" to-layer="1788" to-port="3"/>
		<edge from-layer="1787" from-port="1" to-layer="1788" to-port="4"/>
		<edge from-layer="1788" from-port="5" to-layer="1790" to-port="0"/>
		<edge from-layer="1789" from-port="1" to-layer="1790" to-port="1"/>
		<edge from-layer="1782" from-port="5" to-layer="1791" to-port="0"/>
		<edge from-layer="1790" from-port="2" to-layer="1791" to-port="1"/>
		<edge from-layer="1791" from-port="2" to-layer="1793" to-port="0"/>
		<edge from-layer="1792" from-port="1" to-layer="1793" to-port="1"/>
		<edge from-layer="1793" from-port="2" to-layer="1794" to-port="0"/>
		<edge from-layer="1794" from-port="1" to-layer="1799" to-port="0"/>
		<edge from-layer="1795" from-port="1" to-layer="1799" to-port="1"/>
		<edge from-layer="1796" from-port="1" to-layer="1799" to-port="2"/>
		<edge from-layer="1797" from-port="1" to-layer="1799" to-port="3"/>
		<edge from-layer="1798" from-port="1" to-layer="1799" to-port="4"/>
		<edge from-layer="1800" from-port="1" to-layer="1805" to-port="0"/>
		<edge from-layer="1801" from-port="1" to-layer="1805" to-port="1"/>
		<edge from-layer="1802" from-port="1" to-layer="1805" to-port="2"/>
		<edge from-layer="1803" from-port="1" to-layer="1805" to-port="3"/>
		<edge from-layer="1804" from-port="1" to-layer="1805" to-port="4"/>
		<edge from-layer="1799" from-port="5" to-layer="1806" to-port="0"/>
		<edge from-layer="1805" from-port="5" to-layer="1806" to-port="1"/>
		<edge from-layer="1806" from-port="2" to-layer="1808" to-port="0"/>
		<edge from-layer="1807" from-port="1" to-layer="1808" to-port="1"/>
		<edge from-layer="1808" from-port="2" to-layer="1813" to-port="0"/>
		<edge from-layer="1809" from-port="1" to-layer="1813" to-port="1"/>
		<edge from-layer="1810" from-port="1" to-layer="1813" to-port="2"/>
		<edge from-layer="1811" from-port="1" to-layer="1813" to-port="3"/>
		<edge from-layer="1812" from-port="1" to-layer="1813" to-port="4"/>
		<edge from-layer="1767" from-port="5" to-layer="1814" to-port="0"/>
		<edge from-layer="1813" from-port="5" to-layer="1814" to-port="1"/>
		<edge from-layer="1814" from-port="2" to-layer="1815" to-port="0"/>
		<edge from-layer="1815" from-port="1" to-layer="1820" to-port="0"/>
		<edge from-layer="1816" from-port="1" to-layer="1820" to-port="1"/>
		<edge from-layer="1817" from-port="1" to-layer="1820" to-port="2"/>
		<edge from-layer="1818" from-port="1" to-layer="1820" to-port="3"/>
		<edge from-layer="1819" from-port="1" to-layer="1820" to-port="4"/>
		<edge from-layer="1821" from-port="1" to-layer="1826" to-port="0"/>
		<edge from-layer="1822" from-port="1" to-layer="1826" to-port="1"/>
		<edge from-layer="1823" from-port="1" to-layer="1826" to-port="2"/>
		<edge from-layer="1824" from-port="1" to-layer="1826" to-port="3"/>
		<edge from-layer="1825" from-port="1" to-layer="1826" to-port="4"/>
		<edge from-layer="1820" from-port="5" to-layer="1827" to-port="0"/>
		<edge from-layer="1826" from-port="5" to-layer="1827" to-port="1"/>
		<edge from-layer="1827" from-port="2" to-layer="1829" to-port="0"/>
		<edge from-layer="1828" from-port="1" to-layer="1829" to-port="1"/>
		<edge from-layer="1829" from-port="2" to-layer="1830" to-port="0"/>
		<edge from-layer="1830" from-port="1" to-layer="1835" to-port="0"/>
		<edge from-layer="1831" from-port="1" to-layer="1835" to-port="1"/>
		<edge from-layer="1832" from-port="1" to-layer="1835" to-port="2"/>
		<edge from-layer="1833" from-port="1" to-layer="1835" to-port="3"/>
		<edge from-layer="1834" from-port="1" to-layer="1835" to-port="4"/>
		<edge from-layer="1836" from-port="1" to-layer="1841" to-port="0"/>
		<edge from-layer="1837" from-port="1" to-layer="1841" to-port="1"/>
		<edge from-layer="1838" from-port="1" to-layer="1841" to-port="2"/>
		<edge from-layer="1839" from-port="1" to-layer="1841" to-port="3"/>
		<edge from-layer="1840" from-port="1" to-layer="1841" to-port="4"/>
		<edge from-layer="1841" from-port="5" to-layer="1843" to-port="0"/>
		<edge from-layer="1842" from-port="1" to-layer="1843" to-port="1"/>
		<edge from-layer="1835" from-port="5" to-layer="1844" to-port="0"/>
		<edge from-layer="1843" from-port="2" to-layer="1844" to-port="1"/>
		<edge from-layer="1844" from-port="2" to-layer="1846" to-port="0"/>
		<edge from-layer="1845" from-port="1" to-layer="1846" to-port="1"/>
		<edge from-layer="1846" from-port="2" to-layer="1847" to-port="0"/>
		<edge from-layer="1847" from-port="1" to-layer="1852" to-port="0"/>
		<edge from-layer="1848" from-port="1" to-layer="1852" to-port="1"/>
		<edge from-layer="1849" from-port="1" to-layer="1852" to-port="2"/>
		<edge from-layer="1850" from-port="1" to-layer="1852" to-port="3"/>
		<edge from-layer="1851" from-port="1" to-layer="1852" to-port="4"/>
		<edge from-layer="1853" from-port="1" to-layer="1858" to-port="0"/>
		<edge from-layer="1854" from-port="1" to-layer="1858" to-port="1"/>
		<edge from-layer="1855" from-port="1" to-layer="1858" to-port="2"/>
		<edge from-layer="1856" from-port="1" to-layer="1858" to-port="3"/>
		<edge from-layer="1857" from-port="1" to-layer="1858" to-port="4"/>
		<edge from-layer="1852" from-port="5" to-layer="1859" to-port="0"/>
		<edge from-layer="1858" from-port="5" to-layer="1859" to-port="1"/>
		<edge from-layer="1859" from-port="2" to-layer="1861" to-port="0"/>
		<edge from-layer="1860" from-port="1" to-layer="1861" to-port="1"/>
		<edge from-layer="1861" from-port="2" to-layer="1866" to-port="0"/>
		<edge from-layer="1862" from-port="1" to-layer="1866" to-port="1"/>
		<edge from-layer="1863" from-port="1" to-layer="1866" to-port="2"/>
		<edge from-layer="1864" from-port="1" to-layer="1866" to-port="3"/>
		<edge from-layer="1865" from-port="1" to-layer="1866" to-port="4"/>
		<edge from-layer="1820" from-port="5" to-layer="1867" to-port="0"/>
		<edge from-layer="1866" from-port="5" to-layer="1867" to-port="1"/>
		<edge from-layer="1867" from-port="2" to-layer="1868" to-port="0"/>
		<edge from-layer="1868" from-port="1" to-layer="1873" to-port="0"/>
		<edge from-layer="1869" from-port="1" to-layer="1873" to-port="1"/>
		<edge from-layer="1870" from-port="1" to-layer="1873" to-port="2"/>
		<edge from-layer="1871" from-port="1" to-layer="1873" to-port="3"/>
		<edge from-layer="1872" from-port="1" to-layer="1873" to-port="4"/>
		<edge from-layer="1874" from-port="1" to-layer="1879" to-port="0"/>
		<edge from-layer="1875" from-port="1" to-layer="1879" to-port="1"/>
		<edge from-layer="1876" from-port="1" to-layer="1879" to-port="2"/>
		<edge from-layer="1877" from-port="1" to-layer="1879" to-port="3"/>
		<edge from-layer="1878" from-port="1" to-layer="1879" to-port="4"/>
		<edge from-layer="1873" from-port="5" to-layer="1880" to-port="0"/>
		<edge from-layer="1879" from-port="5" to-layer="1880" to-port="1"/>
		<edge from-layer="1880" from-port="2" to-layer="1882" to-port="0"/>
		<edge from-layer="1881" from-port="1" to-layer="1882" to-port="1"/>
		<edge from-layer="1882" from-port="2" to-layer="1883" to-port="0"/>
		<edge from-layer="1883" from-port="1" to-layer="1888" to-port="0"/>
		<edge from-layer="1884" from-port="1" to-layer="1888" to-port="1"/>
		<edge from-layer="1885" from-port="1" to-layer="1888" to-port="2"/>
		<edge from-layer="1886" from-port="1" to-layer="1888" to-port="3"/>
		<edge from-layer="1887" from-port="1" to-layer="1888" to-port="4"/>
		<edge from-layer="1889" from-port="1" to-layer="1894" to-port="0"/>
		<edge from-layer="1890" from-port="1" to-layer="1894" to-port="1"/>
		<edge from-layer="1891" from-port="1" to-layer="1894" to-port="2"/>
		<edge from-layer="1892" from-port="1" to-layer="1894" to-port="3"/>
		<edge from-layer="1893" from-port="1" to-layer="1894" to-port="4"/>
		<edge from-layer="1894" from-port="5" to-layer="1896" to-port="0"/>
		<edge from-layer="1895" from-port="1" to-layer="1896" to-port="1"/>
		<edge from-layer="1888" from-port="5" to-layer="1897" to-port="0"/>
		<edge from-layer="1896" from-port="2" to-layer="1897" to-port="1"/>
		<edge from-layer="1897" from-port="2" to-layer="1899" to-port="0"/>
		<edge from-layer="1898" from-port="1" to-layer="1899" to-port="1"/>
		<edge from-layer="1899" from-port="2" to-layer="1900" to-port="0"/>
		<edge from-layer="1900" from-port="1" to-layer="1905" to-port="0"/>
		<edge from-layer="1901" from-port="1" to-layer="1905" to-port="1"/>
		<edge from-layer="1902" from-port="1" to-layer="1905" to-port="2"/>
		<edge from-layer="1903" from-port="1" to-layer="1905" to-port="3"/>
		<edge from-layer="1904" from-port="1" to-layer="1905" to-port="4"/>
		<edge from-layer="1906" from-port="1" to-layer="1911" to-port="0"/>
		<edge from-layer="1907" from-port="1" to-layer="1911" to-port="1"/>
		<edge from-layer="1908" from-port="1" to-layer="1911" to-port="2"/>
		<edge from-layer="1909" from-port="1" to-layer="1911" to-port="3"/>
		<edge from-layer="1910" from-port="1" to-layer="1911" to-port="4"/>
		<edge from-layer="1905" from-port="5" to-layer="1912" to-port="0"/>
		<edge from-layer="1911" from-port="5" to-layer="1912" to-port="1"/>
		<edge from-layer="1912" from-port="2" to-layer="1914" to-port="0"/>
		<edge from-layer="1913" from-port="1" to-layer="1914" to-port="1"/>
		<edge from-layer="1914" from-port="2" to-layer="1919" to-port="0"/>
		<edge from-layer="1915" from-port="1" to-layer="1919" to-port="1"/>
		<edge from-layer="1916" from-port="1" to-layer="1919" to-port="2"/>
		<edge from-layer="1917" from-port="1" to-layer="1919" to-port="3"/>
		<edge from-layer="1918" from-port="1" to-layer="1919" to-port="4"/>
		<edge from-layer="1873" from-port="5" to-layer="1920" to-port="0"/>
		<edge from-layer="1919" from-port="5" to-layer="1920" to-port="1"/>
		<edge from-layer="1920" from-port="2" to-layer="1921" to-port="0"/>
		<edge from-layer="1921" from-port="1" to-layer="1926" to-port="0"/>
		<edge from-layer="1922" from-port="1" to-layer="1926" to-port="1"/>
		<edge from-layer="1923" from-port="1" to-layer="1926" to-port="2"/>
		<edge from-layer="1924" from-port="1" to-layer="1926" to-port="3"/>
		<edge from-layer="1925" from-port="1" to-layer="1926" to-port="4"/>
		<edge from-layer="1927" from-port="1" to-layer="1932" to-port="0"/>
		<edge from-layer="1928" from-port="1" to-layer="1932" to-port="1"/>
		<edge from-layer="1929" from-port="1" to-layer="1932" to-port="2"/>
		<edge from-layer="1930" from-port="1" to-layer="1932" to-port="3"/>
		<edge from-layer="1931" from-port="1" to-layer="1932" to-port="4"/>
		<edge from-layer="1926" from-port="5" to-layer="1933" to-port="0"/>
		<edge from-layer="1932" from-port="5" to-layer="1933" to-port="1"/>
		<edge from-layer="1933" from-port="2" to-layer="1935" to-port="0"/>
		<edge from-layer="1934" from-port="1" to-layer="1935" to-port="1"/>
		<edge from-layer="1935" from-port="2" to-layer="1936" to-port="0"/>
		<edge from-layer="1936" from-port="1" to-layer="1941" to-port="0"/>
		<edge from-layer="1937" from-port="1" to-layer="1941" to-port="1"/>
		<edge from-layer="1938" from-port="1" to-layer="1941" to-port="2"/>
		<edge from-layer="1939" from-port="1" to-layer="1941" to-port="3"/>
		<edge from-layer="1940" from-port="1" to-layer="1941" to-port="4"/>
		<edge from-layer="1942" from-port="1" to-layer="1947" to-port="0"/>
		<edge from-layer="1943" from-port="1" to-layer="1947" to-port="1"/>
		<edge from-layer="1944" from-port="1" to-layer="1947" to-port="2"/>
		<edge from-layer="1945" from-port="1" to-layer="1947" to-port="3"/>
		<edge from-layer="1946" from-port="1" to-layer="1947" to-port="4"/>
		<edge from-layer="1947" from-port="5" to-layer="1949" to-port="0"/>
		<edge from-layer="1948" from-port="1" to-layer="1949" to-port="1"/>
		<edge from-layer="1941" from-port="5" to-layer="1950" to-port="0"/>
		<edge from-layer="1949" from-port="2" to-layer="1950" to-port="1"/>
		<edge from-layer="1950" from-port="2" to-layer="1952" to-port="0"/>
		<edge from-layer="1951" from-port="1" to-layer="1952" to-port="1"/>
		<edge from-layer="1952" from-port="2" to-layer="1953" to-port="0"/>
		<edge from-layer="1953" from-port="1" to-layer="1958" to-port="0"/>
		<edge from-layer="1954" from-port="1" to-layer="1958" to-port="1"/>
		<edge from-layer="1955" from-port="1" to-layer="1958" to-port="2"/>
		<edge from-layer="1956" from-port="1" to-layer="1958" to-port="3"/>
		<edge from-layer="1957" from-port="1" to-layer="1958" to-port="4"/>
		<edge from-layer="1959" from-port="1" to-layer="1964" to-port="0"/>
		<edge from-layer="1960" from-port="1" to-layer="1964" to-port="1"/>
		<edge from-layer="1961" from-port="1" to-layer="1964" to-port="2"/>
		<edge from-layer="1962" from-port="1" to-layer="1964" to-port="3"/>
		<edge from-layer="1963" from-port="1" to-layer="1964" to-port="4"/>
		<edge from-layer="1958" from-port="5" to-layer="1965" to-port="0"/>
		<edge from-layer="1964" from-port="5" to-layer="1965" to-port="1"/>
		<edge from-layer="1965" from-port="2" to-layer="1967" to-port="0"/>
		<edge from-layer="1966" from-port="1" to-layer="1967" to-port="1"/>
		<edge from-layer="1967" from-port="2" to-layer="1972" to-port="0"/>
		<edge from-layer="1968" from-port="1" to-layer="1972" to-port="1"/>
		<edge from-layer="1969" from-port="1" to-layer="1972" to-port="2"/>
		<edge from-layer="1970" from-port="1" to-layer="1972" to-port="3"/>
		<edge from-layer="1971" from-port="1" to-layer="1972" to-port="4"/>
		<edge from-layer="1926" from-port="5" to-layer="1973" to-port="0"/>
		<edge from-layer="1972" from-port="5" to-layer="1973" to-port="1"/>
		<edge from-layer="1973" from-port="2" to-layer="1974" to-port="0"/>
		<edge from-layer="1974" from-port="1" to-layer="1979" to-port="0"/>
		<edge from-layer="1975" from-port="1" to-layer="1979" to-port="1"/>
		<edge from-layer="1976" from-port="1" to-layer="1979" to-port="2"/>
		<edge from-layer="1977" from-port="1" to-layer="1979" to-port="3"/>
		<edge from-layer="1978" from-port="1" to-layer="1979" to-port="4"/>
		<edge from-layer="1980" from-port="1" to-layer="1985" to-port="0"/>
		<edge from-layer="1981" from-port="1" to-layer="1985" to-port="1"/>
		<edge from-layer="1982" from-port="1" to-layer="1985" to-port="2"/>
		<edge from-layer="1983" from-port="1" to-layer="1985" to-port="3"/>
		<edge from-layer="1984" from-port="1" to-layer="1985" to-port="4"/>
		<edge from-layer="1979" from-port="5" to-layer="1986" to-port="0"/>
		<edge from-layer="1985" from-port="5" to-layer="1986" to-port="1"/>
		<edge from-layer="1986" from-port="2" to-layer="1988" to-port="0"/>
		<edge from-layer="1987" from-port="1" to-layer="1988" to-port="1"/>
		<edge from-layer="1988" from-port="2" to-layer="1989" to-port="0"/>
		<edge from-layer="1989" from-port="1" to-layer="1994" to-port="0"/>
		<edge from-layer="1990" from-port="1" to-layer="1994" to-port="1"/>
		<edge from-layer="1991" from-port="1" to-layer="1994" to-port="2"/>
		<edge from-layer="1992" from-port="1" to-layer="1994" to-port="3"/>
		<edge from-layer="1993" from-port="1" to-layer="1994" to-port="4"/>
		<edge from-layer="1995" from-port="1" to-layer="2000" to-port="0"/>
		<edge from-layer="1996" from-port="1" to-layer="2000" to-port="1"/>
		<edge from-layer="1997" from-port="1" to-layer="2000" to-port="2"/>
		<edge from-layer="1998" from-port="1" to-layer="2000" to-port="3"/>
		<edge from-layer="1999" from-port="1" to-layer="2000" to-port="4"/>
		<edge from-layer="2000" from-port="5" to-layer="2002" to-port="0"/>
		<edge from-layer="2001" from-port="1" to-layer="2002" to-port="1"/>
		<edge from-layer="1994" from-port="5" to-layer="2003" to-port="0"/>
		<edge from-layer="2002" from-port="2" to-layer="2003" to-port="1"/>
		<edge from-layer="2003" from-port="2" to-layer="2005" to-port="0"/>
		<edge from-layer="2004" from-port="1" to-layer="2005" to-port="1"/>
		<edge from-layer="2005" from-port="2" to-layer="2006" to-port="0"/>
		<edge from-layer="2006" from-port="1" to-layer="2011" to-port="0"/>
		<edge from-layer="2007" from-port="1" to-layer="2011" to-port="1"/>
		<edge from-layer="2008" from-port="1" to-layer="2011" to-port="2"/>
		<edge from-layer="2009" from-port="1" to-layer="2011" to-port="3"/>
		<edge from-layer="2010" from-port="1" to-layer="2011" to-port="4"/>
		<edge from-layer="2012" from-port="1" to-layer="2017" to-port="0"/>
		<edge from-layer="2013" from-port="1" to-layer="2017" to-port="1"/>
		<edge from-layer="2014" from-port="1" to-layer="2017" to-port="2"/>
		<edge from-layer="2015" from-port="1" to-layer="2017" to-port="3"/>
		<edge from-layer="2016" from-port="1" to-layer="2017" to-port="4"/>
		<edge from-layer="2011" from-port="5" to-layer="2018" to-port="0"/>
		<edge from-layer="2017" from-port="5" to-layer="2018" to-port="1"/>
		<edge from-layer="2018" from-port="2" to-layer="2020" to-port="0"/>
		<edge from-layer="2019" from-port="1" to-layer="2020" to-port="1"/>
		<edge from-layer="2020" from-port="2" to-layer="2025" to-port="0"/>
		<edge from-layer="2021" from-port="1" to-layer="2025" to-port="1"/>
		<edge from-layer="2022" from-port="1" to-layer="2025" to-port="2"/>
		<edge from-layer="2023" from-port="1" to-layer="2025" to-port="3"/>
		<edge from-layer="2024" from-port="1" to-layer="2025" to-port="4"/>
		<edge from-layer="1979" from-port="5" to-layer="2026" to-port="0"/>
		<edge from-layer="2025" from-port="5" to-layer="2026" to-port="1"/>
		<edge from-layer="2026" from-port="2" to-layer="2027" to-port="0"/>
		<edge from-layer="2027" from-port="1" to-layer="2032" to-port="0"/>
		<edge from-layer="2028" from-port="1" to-layer="2032" to-port="1"/>
		<edge from-layer="2029" from-port="1" to-layer="2032" to-port="2"/>
		<edge from-layer="2030" from-port="1" to-layer="2032" to-port="3"/>
		<edge from-layer="2031" from-port="1" to-layer="2032" to-port="4"/>
		<edge from-layer="2033" from-port="1" to-layer="2038" to-port="0"/>
		<edge from-layer="2034" from-port="1" to-layer="2038" to-port="1"/>
		<edge from-layer="2035" from-port="1" to-layer="2038" to-port="2"/>
		<edge from-layer="2036" from-port="1" to-layer="2038" to-port="3"/>
		<edge from-layer="2037" from-port="1" to-layer="2038" to-port="4"/>
		<edge from-layer="2032" from-port="5" to-layer="2039" to-port="0"/>
		<edge from-layer="2038" from-port="5" to-layer="2039" to-port="1"/>
		<edge from-layer="2039" from-port="2" to-layer="2041" to-port="0"/>
		<edge from-layer="2040" from-port="1" to-layer="2041" to-port="1"/>
		<edge from-layer="2041" from-port="2" to-layer="2046" to-port="0"/>
		<edge from-layer="2042" from-port="1" to-layer="2046" to-port="1"/>
		<edge from-layer="2043" from-port="1" to-layer="2046" to-port="2"/>
		<edge from-layer="2044" from-port="1" to-layer="2046" to-port="3"/>
		<edge from-layer="2045" from-port="1" to-layer="2046" to-port="4"/>
		<edge from-layer="2047" from-port="1" to-layer="2052" to-port="0"/>
		<edge from-layer="2048" from-port="1" to-layer="2052" to-port="1"/>
		<edge from-layer="2049" from-port="1" to-layer="2052" to-port="2"/>
		<edge from-layer="2050" from-port="1" to-layer="2052" to-port="3"/>
		<edge from-layer="2051" from-port="1" to-layer="2052" to-port="4"/>
		<edge from-layer="2046" from-port="5" to-layer="2053" to-port="0"/>
		<edge from-layer="2052" from-port="5" to-layer="2053" to-port="1"/>
		<edge from-layer="2053" from-port="2" to-layer="2055" to-port="0"/>
		<edge from-layer="2054" from-port="1" to-layer="2055" to-port="1"/>
		<edge from-layer="2055" from-port="2" to-layer="2057" to-port="0"/>
		<edge from-layer="2056" from-port="1" to-layer="2057" to-port="1"/>
		<edge from-layer="2057" from-port="2" to-layer="2059" to-port="0"/>
		<edge from-layer="2058" from-port="1" to-layer="2059" to-port="1"/>
		<edge from-layer="2060" from-port="1" to-layer="2065" to-port="0"/>
		<edge from-layer="2061" from-port="1" to-layer="2065" to-port="1"/>
		<edge from-layer="2062" from-port="1" to-layer="2065" to-port="2"/>
		<edge from-layer="2063" from-port="1" to-layer="2065" to-port="3"/>
		<edge from-layer="2064" from-port="1" to-layer="2065" to-port="4"/>
		<edge from-layer="2032" from-port="5" to-layer="2066" to-port="0"/>
		<edge from-layer="2065" from-port="5" to-layer="2066" to-port="1"/>
		<edge from-layer="2066" from-port="2" to-layer="2068" to-port="0"/>
		<edge from-layer="2067" from-port="1" to-layer="2068" to-port="1"/>
		<edge from-layer="2068" from-port="2" to-layer="2069" to-port="0"/>
		<edge from-layer="2069" from-port="1" to-layer="2074" to-port="0"/>
		<edge from-layer="2070" from-port="1" to-layer="2074" to-port="1"/>
		<edge from-layer="2071" from-port="1" to-layer="2074" to-port="2"/>
		<edge from-layer="2072" from-port="1" to-layer="2074" to-port="3"/>
		<edge from-layer="2073" from-port="1" to-layer="2074" to-port="4"/>
		<edge from-layer="2075" from-port="1" to-layer="2080" to-port="0"/>
		<edge from-layer="2076" from-port="1" to-layer="2080" to-port="1"/>
		<edge from-layer="2077" from-port="1" to-layer="2080" to-port="2"/>
		<edge from-layer="2078" from-port="1" to-layer="2080" to-port="3"/>
		<edge from-layer="2079" from-port="1" to-layer="2080" to-port="4"/>
		<edge from-layer="2074" from-port="5" to-layer="2081" to-port="0"/>
		<edge from-layer="2080" from-port="5" to-layer="2081" to-port="1"/>
		<edge from-layer="2081" from-port="2" to-layer="2083" to-port="0"/>
		<edge from-layer="2082" from-port="1" to-layer="2083" to-port="1"/>
		<edge from-layer="2083" from-port="2" to-layer="2085" to-port="0"/>
		<edge from-layer="2084" from-port="1" to-layer="2085" to-port="1"/>
		<edge from-layer="2085" from-port="2" to-layer="2087" to-port="0"/>
		<edge from-layer="2086" from-port="1" to-layer="2087" to-port="1"/>
		<edge from-layer="1375" from-port="2" to-layer="2088" to-port="0"/>
		<edge from-layer="2059" from-port="2" to-layer="2088" to-port="1"/>
		<edge from-layer="2087" from-port="2" to-layer="2088" to-port="2"/>
		<edge from-layer="2089" from-port="1" to-layer="2094" to-port="0"/>
		<edge from-layer="2090" from-port="1" to-layer="2094" to-port="1"/>
		<edge from-layer="2091" from-port="1" to-layer="2094" to-port="2"/>
		<edge from-layer="2092" from-port="1" to-layer="2094" to-port="3"/>
		<edge from-layer="2093" from-port="1" to-layer="2094" to-port="4"/>
		<edge from-layer="1362" from-port="5" to-layer="2095" to-port="0"/>
		<edge from-layer="2094" from-port="5" to-layer="2095" to-port="1"/>
		<edge from-layer="2095" from-port="2" to-layer="2097" to-port="0"/>
		<edge from-layer="2096" from-port="1" to-layer="2097" to-port="1"/>
		<edge from-layer="2097" from-port="2" to-layer="2099" to-port="0"/>
		<edge from-layer="2098" from-port="1" to-layer="2099" to-port="1"/>
		<edge from-layer="2099" from-port="2" to-layer="2101" to-port="0"/>
		<edge from-layer="2100" from-port="1" to-layer="2101" to-port="1"/>
		<edge from-layer="2102" from-port="1" to-layer="2107" to-port="0"/>
		<edge from-layer="2103" from-port="1" to-layer="2107" to-port="1"/>
		<edge from-layer="2104" from-port="1" to-layer="2107" to-port="2"/>
		<edge from-layer="2105" from-port="1" to-layer="2107" to-port="3"/>
		<edge from-layer="2106" from-port="1" to-layer="2107" to-port="4"/>
		<edge from-layer="2046" from-port="5" to-layer="2108" to-port="0"/>
		<edge from-layer="2107" from-port="5" to-layer="2108" to-port="1"/>
		<edge from-layer="2108" from-port="2" to-layer="2110" to-port="0"/>
		<edge from-layer="2109" from-port="1" to-layer="2110" to-port="1"/>
		<edge from-layer="2110" from-port="2" to-layer="2112" to-port="0"/>
		<edge from-layer="2111" from-port="1" to-layer="2112" to-port="1"/>
		<edge from-layer="2112" from-port="2" to-layer="2114" to-port="0"/>
		<edge from-layer="2113" from-port="1" to-layer="2114" to-port="1"/>
		<edge from-layer="2115" from-port="1" to-layer="2120" to-port="0"/>
		<edge from-layer="2116" from-port="1" to-layer="2120" to-port="1"/>
		<edge from-layer="2117" from-port="1" to-layer="2120" to-port="2"/>
		<edge from-layer="2118" from-port="1" to-layer="2120" to-port="3"/>
		<edge from-layer="2119" from-port="1" to-layer="2120" to-port="4"/>
		<edge from-layer="2074" from-port="5" to-layer="2121" to-port="0"/>
		<edge from-layer="2120" from-port="5" to-layer="2121" to-port="1"/>
		<edge from-layer="2121" from-port="2" to-layer="2123" to-port="0"/>
		<edge from-layer="2122" from-port="1" to-layer="2123" to-port="1"/>
		<edge from-layer="2123" from-port="2" to-layer="2125" to-port="0"/>
		<edge from-layer="2124" from-port="1" to-layer="2125" to-port="1"/>
		<edge from-layer="2125" from-port="2" to-layer="2127" to-port="0"/>
		<edge from-layer="2126" from-port="1" to-layer="2127" to-port="1"/>
		<edge from-layer="2101" from-port="2" to-layer="2128" to-port="0"/>
		<edge from-layer="2114" from-port="2" to-layer="2128" to-port="1"/>
		<edge from-layer="2127" from-port="2" to-layer="2128" to-port="2"/>
		<edge from-layer="2128" from-port="3" to-layer="2130" to-port="0"/>
		<edge from-layer="2129" from-port="1" to-layer="2130" to-port="1"/>
		<edge from-layer="2130" from-port="2" to-layer="2131" to-port="0"/>
		<edge from-layer="2131" from-port="1" to-layer="2133" to-port="0"/>
		<edge from-layer="2132" from-port="1" to-layer="2133" to-port="1"/>
		<edge from-layer="1357" from-port="2" to-layer="2134" to-port="0"/>
		<edge from-layer="2134" from-port="1" to-layer="2135" to-port="0"/>
		<edge from-layer="2135" from-port="1" to-layer="2139" to-port="0"/>
		<edge from-layer="2136" from-port="1" to-layer="2139" to-port="1"/>
		<edge from-layer="2137" from-port="1" to-layer="2139" to-port="2"/>
		<edge from-layer="2138" from-port="1" to-layer="2139" to-port="3"/>
		<edge from-layer="2139" from-port="4" to-layer="2140" to-port="0"/>
		<edge from-layer="2" from-port="2" to-layer="2141" to-port="0"/>
		<edge from-layer="2141" from-port="1" to-layer="2142" to-port="0"/>
		<edge from-layer="2142" from-port="1" to-layer="2146" to-port="0"/>
		<edge from-layer="2143" from-port="1" to-layer="2146" to-port="1"/>
		<edge from-layer="2144" from-port="1" to-layer="2146" to-port="2"/>
		<edge from-layer="2145" from-port="1" to-layer="2146" to-port="3"/>
		<edge from-layer="2146" from-port="4" to-layer="2147" to-port="0"/>
		<edge from-layer="2140" from-port="1" to-layer="2148" to-port="0"/>
		<edge from-layer="2147" from-port="1" to-layer="2148" to-port="1"/>
		<edge from-layer="2148" from-port="2" to-layer="2150" to-port="0"/>
		<edge from-layer="2149" from-port="1" to-layer="2150" to-port="1"/>
		<edge from-layer="2041" from-port="2" to-layer="2151" to-port="0"/>
		<edge from-layer="2151" from-port="1" to-layer="2152" to-port="0"/>
		<edge from-layer="2152" from-port="1" to-layer="2156" to-port="0"/>
		<edge from-layer="2153" from-port="1" to-layer="2156" to-port="1"/>
		<edge from-layer="2154" from-port="1" to-layer="2156" to-port="2"/>
		<edge from-layer="2155" from-port="1" to-layer="2156" to-port="3"/>
		<edge from-layer="2156" from-port="4" to-layer="2157" to-port="0"/>
		<edge from-layer="2" from-port="2" to-layer="2158" to-port="0"/>
		<edge from-layer="2158" from-port="1" to-layer="2159" to-port="0"/>
		<edge from-layer="2159" from-port="1" to-layer="2163" to-port="0"/>
		<edge from-layer="2160" from-port="1" to-layer="2163" to-port="1"/>
		<edge from-layer="2161" from-port="1" to-layer="2163" to-port="2"/>
		<edge from-layer="2162" from-port="1" to-layer="2163" to-port="3"/>
		<edge from-layer="2163" from-port="4" to-layer="2164" to-port="0"/>
		<edge from-layer="2157" from-port="1" to-layer="2165" to-port="0"/>
		<edge from-layer="2164" from-port="1" to-layer="2165" to-port="1"/>
		<edge from-layer="2165" from-port="2" to-layer="2167" to-port="0"/>
		<edge from-layer="2166" from-port="1" to-layer="2167" to-port="1"/>
		<edge from-layer="2069" from-port="1" to-layer="2168" to-port="0"/>
		<edge from-layer="2168" from-port="1" to-layer="2169" to-port="0"/>
		<edge from-layer="2169" from-port="1" to-layer="2173" to-port="0"/>
		<edge from-layer="2170" from-port="1" to-layer="2173" to-port="1"/>
		<edge from-layer="2171" from-port="1" to-layer="2173" to-port="2"/>
		<edge from-layer="2172" from-port="1" to-layer="2173" to-port="3"/>
		<edge from-layer="2173" from-port="4" to-layer="2174" to-port="0"/>
		<edge from-layer="2" from-port="2" to-layer="2175" to-port="0"/>
		<edge from-layer="2175" from-port="1" to-layer="2176" to-port="0"/>
		<edge from-layer="2176" from-port="1" to-layer="2180" to-port="0"/>
		<edge from-layer="2177" from-port="1" to-layer="2180" to-port="1"/>
		<edge from-layer="2178" from-port="1" to-layer="2180" to-port="2"/>
		<edge from-layer="2179" from-port="1" to-layer="2180" to-port="3"/>
		<edge from-layer="2180" from-port="4" to-layer="2181" to-port="0"/>
		<edge from-layer="2174" from-port="1" to-layer="2182" to-port="0"/>
		<edge from-layer="2181" from-port="1" to-layer="2182" to-port="1"/>
		<edge from-layer="2182" from-port="2" to-layer="2184" to-port="0"/>
		<edge from-layer="2183" from-port="1" to-layer="2184" to-port="1"/>
		<edge from-layer="2150" from-port="2" to-layer="2185" to-port="0"/>
		<edge from-layer="2167" from-port="2" to-layer="2185" to-port="1"/>
		<edge from-layer="2184" from-port="2" to-layer="2185" to-port="2"/>
		<edge from-layer="2088" from-port="3" to-layer="2186" to-port="0"/>
		<edge from-layer="2133" from-port="2" to-layer="2186" to-port="1"/>
		<edge from-layer="2185" from-port="3" to-layer="2186" to-port="2"/>
		<edge from-layer="2186" from-port="3" to-layer="2187" to-port="0"/>
	</edges>
	<meta_data>
		<MO_version value="unknown version"/>
		<cli_parameters>
			<blobs_as_inputs value="True"/>
			<caffe_parser_path value="DIR"/>
			<data_type value="FP32"/>
			<disable_nhwc_to_nchw value="False"/>
			<disable_omitting_optional value="False"/>
			<disable_resnet_optimization value="False"/>
			<enable_concat_optimization value="False"/>
			<enable_flattening_nested_params value="False"/>
			<enable_ssd_gluoncv value="False"/>
			<extensions value="DIR"/>
			<framework value="caffe"/>
			<freeze_placeholder_with_value value="{}"/>
			<generate_deprecated_IR_V2 value="False"/>
			<generate_deprecated_IR_V7 value="False"/>
			<generate_experimental_IR_V10 value="True"/>
			<input value="data"/>
			<input_model value="DIR/_iter_200000.caffemodel"/>
			<input_model_is_text value="False"/>
			<input_proto value="DIR/deploy.prototxt"/>
			<input_shape value="[1,3,1024,1024]"/>
			<k value="DIR/CustomLayersMapping.xml"/>
			<keep_quantize_ops_in_IR value="True"/>
			<keep_shape_ops value="True"/>
			<legacy_mxnet_model value="False"/>
			<log_level value="ERROR"/>
			<mean_scale_values value="{'data': {'mean': array([104., 117., 123.]), 'scale': None}}"/>
			<mean_values value="data[104.0,117.0,123.0]"/>
			<model_name value="person-vehicle-bike-detection-crossroad-0078"/>
			<move_to_preprocess value="False"/>
			<output value="['detection_out']"/>
			<output_dir value="DIR"/>
			<placeholder_data_types value="{}"/>
			<placeholder_shapes value="{'data': array([   1,    3, 1024, 1024])}"/>
			<progress value="False"/>
			<remove_memory value="False"/>
			<remove_output_softmax value="False"/>
			<reverse_input_channels value="False"/>
			<save_params_from_nd value="False"/>
			<scale_values value="()"/>
			<silent value="False"/>
			<stream_output value="False"/>
			<unset unset_cli_parameters="batch, counts, disable_fusing, disable_gfusing, finegrain_fusing, input_checkpoint, input_meta_graph, input_symbol, mean_file, mean_file_offsets, nd_prefix_name, pretrained_model_name, saved_model_dir, saved_model_tags, scale, tensorboard_logdir, tensorflow_custom_layer_libraries, tensorflow_custom_operations_config_update, tensorflow_object_detection_api_pipeline_config, tensorflow_operation_patterns, tensorflow_subgraph_patterns, tensorflow_use_custom_operations_config, transformations_config"/>
		</cli_parameters>
	</meta_data>
</net>
